01_mlp/1_mlp.pth (torch_old, 91430 bytes, 5 tensors)

fc1.weight f4 [200, 11]
000000 82 8c b5 be bc 2f 2f 3f 75 5a 24 3f 61 6c a0 bf
       -0.3545876 0.6843221 0.64200526 -1.2533075
000010 04 3c 47 3e 63 bd c5 3f 30 4d c6 3e e7 12 14 bf
       0.19456488 1.5448421 0.38730764 -0.5784134
000020 5f dd 22 3f 35 1d 4a 3f a7 17 a7 3e ce 8e ad 3e
       0.63619035 0.78950816 0.32635233 0.33898014
000030 cc 7a 82 bf ae 6d e7 3e 0f 33 a3 3d 0f fe fb bf
       -1.0193725 0.45200866 0.07968723 -1.9686908
000040 46 6a eb 3e b8 da e2 bf fe f1 9d bf 64 ed c7 3e
       0.45979518 -1.7722998 -1.2339475 0.39048302
000050 9f 57 83 3f 03 94 d1 3f 5e 97 ff bd 03 88 be bc
       1.0261115 1.6373295 -0.12480043 -0.023258215
000060 88 18 4d be 53 f6 29 3d f1 cd 8d 3d 8f 87 c2 3c
       -0.20028889 0.04149468 0.06924046 0.02374628
000070 1f a1 f9 3c d3 2d ab bd ee 68 2d be 20 39 d5 bd
       0.030472336 -0.0835835 -0.16934559 -0.10411286
000080 7e 29 99 3d 0f 4d 03 3f 0a 7f 22 3f 71 fc 26 bf
       0.07478617 0.5128946 0.63475096 -0.65228945
000090 a1 92 92 3d e8 d0 b0 3e 00 4c 76 3f 4a f2 29 3f
       0.071568735 0.34534383 0.96209717 0.6638533
0000a0 ac 18 e2 3e 54 14 71 3f b0 a5 19 bf b6 ee a7 bf
       0.44159448 0.94171643 -0.60018444 -1.3119724
0000b0 05 fc 61 bd cf 18 cd 3d 64 e5 a3 bd da a6 a0 bc
       -0.055171985 0.100144975 -0.08002737 -0.019610811
0000c0 1c d4 5a be 18 b3 14 be 4b ea 17 3e ea 86 96 3d
       -0.21369976 -0.14521444 0.1483547 0.073499516
0000d0 3f 4d 0d bd 9f 5f 08 be 79 e0 0f be ad 93 00 3c
       -0.034497496 -0.13317727 -0.14050473 0.007847709
0000e0 89 f3 d7 bd 0d 25 5b be 72 c7 b2 3e ff 28 a9 be
       -0.105444975 -0.21400853 0.3491779 -0.3303909
0000f0 1b 1a 0f 3e 7a 75 0d bc 22 ce aa be 52 50 0b 3e
       0.13974802 -0.008633966 -0.33360392 0.13604859
000100 87 8f 11 3e 9e a2 93 be 58 ae a7 bf 3f 47 5e 3f
       0.14214908 -0.28835005 -1.310008 0.8682746
000110 e5 02 3a bf f2 72 ff bd 47 d6 e3 bc 8a 8c 90 bf
       -0.72660667 -0.12473096 -0.027812136 -1.1292889
000120 35 5e 1a 3e 9e 26 45 bf 90 b0 64 3e 2a 15 45 bf
       0.15075 -0.7701205 0.22332978 -0.7698542
000130 6c 02 d9 3e 1f 1c 58 be 14 02 05 3f 06 ea 24 bf
       0.4238466 -0.21104477 0.51956296 -0.6441959
000140 9c 45 b6 be fb fb 2f 3f 9b 92 36 3f 71 3f ee 3c
       -0.35599983 0.68743867 0.7131745 0.029082986
000150 af e7 dc be 46 86 d3 3e 52 55 74 bf 27 bb 12 bf
       -0.4314551 0.4131338 -0.9544269 -0.5731682
000160 25 72 d9 3f b4 90 79 3f 79 82 e1 3d b8 c7 fe be
       1.6987959 0.97486424 0.11011214 -0.49761748
000170 8f 81 bd bf be de a4 be ea 59 e5 3f d3 ab 10 bf
       -1.4805163 -0.3220119 1.7918065 -0.5651218
000180 4f 56 01 bf ae 80 a9 3e 91 d1 c5 be df 79 90 be
       -0.5052232 0.33105987 -0.3863645 -0.2821798
000190 b0 8d c5 be 7b 30 ac 3f cd 96 f4 3e 28 58 33 3e
       -0.3858466 1.3452295 0.47771302 0.17514098
0001a0 5b 4e de be eb cd 31 bf 1d 31 17 bf bb 1d 0b 3e
       -0.43419155 -0.6945483 -0.59059316 0.1358556
0001b0 d2 d9 70 bf 25 19 72 bf 74 46 81 3d f6 a3 85 3f
       -0.9408237 -0.9456962 0.06312266 1.0440662
0001c0 9f 7c 10 be e6 30 2e bf 13 58 db be 27 60 38 3c
       -0.14110039 -0.68043363 -0.42840633 0.011253393
0001d0 7a c9 b2 be 1b 1d 37 be cd cd 01 bf 22 50 ec be
       -0.3491934 -0.17882197 -0.5070465 -0.46154886
0001e0 bd 68 66 3d e7 75 f5 3d cd 19 92 bc 9c 60 d3 bc
       0.05625223 0.11985379 -0.017834568 -0.025802903
0001f0 f4 d7 81 bd bf a1 a8 3d ea 2a 99 bd 5c 51 2e 3e
       -0.06340018 0.082339756 -0.07478888 0.17023224
000200 c0 bb fb bd dd 0d a8 3c 18 4c 0b be 85 a9 e6 bd
       -0.1229167 0.020514423 -0.13603246 -0.11262802
000210 e1 19 1b 3b 84 ce 3e 3f 83 10 13 be 00 19 6f be
       0.0023666548 0.7453387 -0.14361767 -0.2334938
000220 58 8d 77 3e 27 2f 04 3f 1c 82 68 3d 99 47 63 bf
       0.24175012 0.5163445 0.056764707 -0.88781124
000230 51 9d 0e bf a9 df e5 bf c4 38 b6 be ac a3 22 3f
       -0.55708796 -1.7958881 -0.35590184 0.63530993
000240 ec a6 7d bf 87 69 18 bf 69 df 38 3f c3 36 ee 3e
       -0.9908283 -0.5953602 0.72215897 0.46526155
000250 66 ff 48 bf 85 09 06 c0 67 51 76 bf 36 3d 83 bf
       -0.7851471 -2.094331 -0.9621796 -1.0253055
000260 d5 8a d9 bf f7 79 53 bf f0 ed 97 bf 33 e6 92 bf
       -1.6995493 -0.8260798 -1.1869488 -1.1476501
000270 ac d7 12 c0 ef 99 d8 3e 19 89 cd 3f a8 0f 68 be
       -2.2944136 0.42304942 1.6057464 -0.22662222
000280 a5 44 5c bf af 27 57 bf 57 68 01 bf e8 5a a6 3d
       -0.86042243 -0.8404493 -0.50549835 0.08122808
000290 52 f3 81 bf 77 27 98 3f 34 83 91 3f d7 df 57 bf
       -1.015238 1.1887044 1.1368165 -0.8432593
0002a0 c3 82 8d 3e d4 57 8c bf 0d 5c b6 3f e4 bc 28 3f
       0.27638826 -1.0964303 1.4246842 0.65913224
0002b0 db 76 2b bf b1 9f 85 be 43 8c 08 c0 ed 1f e9 be
       -0.66978234 -0.26098397 -2.133561 -0.4553217
0002c0 e2 8f 1a 3f 3d fc e2 3f a2 a8 9e 3f e1 44 9f bf
       0.603758 1.7733227 1.2395213 -1.2442895
0002d0 1f 8e 31 3f 28 cb 24 3e ad b5 a8 3f 54 7a 94 be
       0.69357485 0.16093123 1.3180443 -0.2899958
0002e0 c4 22 a5 bd 0c 2b a1 3b 4c 64 48 3f cc 75 be 3e
       -0.08063272 0.0049184617 0.7827804 0.37199247
0002f0 a3 31 53 3f 24 a4 a1 be 98 63 fe be 21 0d 40 3e
       0.82497615 -0.31570542 -0.4968536 0.18755008
000300 df 08 06 bf 88 78 8e 3f 3e d5 9f 3d be e7 76 bf
       -0.52357286 1.1130533 0.078043446 -0.9644736
000310 8f 3f d2 be 9d b3 32 bf fc 62 a5 bf 93 20 29 bf
       -0.41064116 -0.6980532 -1.2920833 -0.6606533
000320 b1 fd 72 3f c7 6e 85 3f da ed 80 be e5 09 55 3e
       0.9491835 1.0424432 -0.25181466 0.20804556
000330 02 e0 f9 be 22 f9 01 be c8 13 be be 37 ec 20 3e
       -0.48803717 -0.12692693 -0.37124467 0.15715109
000340 ed f2 c4 3d b0 cd 04 be 14 46 8c bd 16 90 86 bd
       0.09616647 -0.12969089 -0.06849304 -0.06570451
000350 65 12 28 3e d0 21 24 3e fb b1 53 bd bd 64 3b be
       0.16413267 0.16028523 -0.051683407 -0.18300147
000360 53 4c 9d 3b 73 7f d9 3d 01 82 b5 be 02 25 80 be
       0.0048003583 0.10620012 -0.35450748 -0.25028235
000370 ee 8c b7 bd 8e c9 ba 3f 84 10 f3 bf e3 76 8b bf
       -0.08962427 1.459276 -1.8989415 -1.0895656
000380 52 87 2d bf 05 31 26 bf 80 db 6c 3e 7e 66 c6 be
       -0.6778461 -0.6491855 0.23130608 -0.3875007
000390 a8 4c 54 bf 55 b4 a4 3d 83 c7 ca 3e e6 5c 9d be
       -0.8292947 0.08042208 0.3960534 -0.30734938
0003a0 10 b1 16 3f 47 01 0d bf 3a c6 95 3f 13 31 77 3f
       0.58863926 -0.55080074 1.1701119 0.96559256
0003b0 be 52 7d 3f 8f d0 8e 3f 59 44 07 bf 18 c5 fe 3e
       0.9895438 1.1157397 -0.52838665 0.49759746
0003c0 07 75 d6 be e2 e3 2b bf a7 e1 66 be 3c 81 52 3f
       -0.4188616 -0.67144597 -0.22547017 0.82228446
0003d0 f6 6e 90 bd 7a f1 9a 3e 47 fc 9d bd 85 38 c7 bf
       -0.07052414 0.30262357 -0.07714134 -1.5564123
0003e0 fd ea ba 3f 0d 75 80 bf 99 cc 66 3f a2 7d e7 bf
       1.4602963 -1.0035721 0.9015594 -1.8085215
0003f0 4e 93 03 bd 49 7c 94 3d f5 5e e9 be 88 7b 2d 3f
       -0.032122903 0.07250268 -0.4558026 0.6776662

fc1.bias f4 [200]
000000 67 37 e4 bf 8a e1 0d 3f 15 b9 72 bf cb 16 9b bf
       -1.7829407 0.5542227 -0.9481366 -1.2116331
000010 5a f8 64 bf cd 0f cf bf 34 fc b3 bf d0 2f 15 c0
       -0.89441454 -1.6176697 -1.4061341 -2.3310432
000020 53 75 6a bf a8 35 f2 bf bd 56 ec bf 2a 83 5e bf
       -0.9158527 -1.8922625 -1.846397 -0.8691889
000030 79 ab f1 bf c5 b5 5a 3e 4d 84 96 bf c8 f6 e2 bf
       -1.8880454 0.21358402 -1.1759125 -1.7731562
000040 6b 59 ce bf cb 87 11 c0 91 e3 f3 bf b8 da d0 bf
       -1.6121038 -2.2739131 -1.9053823 -1.6316748
000050 26 4d 32 bf 33 f3 e2 bf 48 07 b4 bf 92 4c 1c c0
       -0.6964897 -1.7730469 -1.4064722 -2.4421735
000060 91 bd a2 3d 1c 35 0e c0 80 f2 cd bf 3d 5e af 3e
       0.07946313 -2.2219915 -1.608963 0.34251586
000070 37 ef c8 bf ae 50 1a c0 4b 4e 16 c0 8f bf 6a bf
       -1.5698003 -2.4111743 -2.3485286 -0.91698545
000080 12 ea 6e bf 92 a5 90 bf eb 28 0a c0 3b 0c 04 c0
       -0.9332591 -1.1300528 -2.1587474 -2.0632465
000090 23 0d 06 c0 bd 8d b6 bf f0 36 00 c0 14 08 bc bf
       -2.0945518 -1.4262005 -2.003353 -1.4689965
0000a0 69 59 1e bf 7a 9a 38 bf 18 15 1c c0 0b 37 13 c0
       -0.6185518 -0.7211071 -2.4387875 -2.3002346
0000b0 8d f1 a1 bf 27 7e f1 bf 6f e7 f2 bf fb 73 e2 bf
       -1.265184 -1.8866624 -1.8976878 -1.7691644
0000c0 37 96 f0 bf b3 cd cc bf fc 55 9a bf 8d 25 aa 3e
       -1.8795842 -1.6000274 -1.205749 0.33231774
0000d0 14 02 81 be 4e 0b a8 bf 35 49 01 c0 1b 33 bb bf
       -0.25196898 -1.312845 -2.0200932 -1.4624971
0000e0 d3 20 16 c0 35 00 0f c0 8d 74 ac bf 9d 81 f3 bf
       -2.3457534 -2.2343876 -1.3473068 -1.902393
0000f0 8a dc f1 be c2 92 fc bf b9 3a b8 bf 2b 1a 11 bf
       -0.4723857 -1.9732287 -1.4392921 -0.56680554
000100 44 5c 0c c0 26 6f 95 bf 2a 5e 13 be 7e 57 b7 bf
       -2.1931314 -1.1674545 -0.1439139 -1.4323575
000110 79 47 39 c0 80 a8 df 3f 70 87 a8 bf 12 ad c6 bf
       -2.8949873 1.7473297 -1.3166332 -1.5521567
000120 56 76 a2 bf 1a 74 db bf 1b f6 bf bf 9e 84 b9 bf
       -1.2692363 -1.7144806 -1.499698 -1.4493597
000130 7d 1c c2 bf d2 d3 ee bf 38 ac a3 bf 22 1a 16 c0
       -1.5164944 -1.8658392 -1.2786932 -2.345345
000140 2d ab fc bf 16 cd da bf 8e 0f ff bf 2c 9e 01 c0
       -1.9739739 -1.7093837 -1.9926622 -2.025279
000150 11 a5 01 c0 22 7c 2f bf 78 43 bd 3e be 08 92 bf
       -2.0256999 -0.68548787 0.36965537 -1.1408918
000160 f0 94 ef bf a6 e3 53 3e a7 80 16 c0 eb f1 a3 bf
       -1.8717327 0.2069231 -2.3516023 -1.2808203
000170 3a 96 ae bf ca a1 99 bf 99 4f e4 bf b9 c5 e6 bf
       -1.3639596 -1.2002499 -1.7836791 -1.802909
000180 2a 35 f8 bf 28 bd 0b c0 e1 1f b4 bf a6 89 ad bf
       -1.9391224 -2.1834202 -1.4072229 -1.3557632
000190 cb 5c d5 bf f6 a3 da bf e8 c7 08 c0 b8 58 0e c0
       -1.6668943 -1.7081287 -2.1372013 -2.224165
0001a0 7b da d9 bf 47 38 f5 bf b3 ea b9 bf 55 84 d0 bf
       -1.70198 -1.91578 -1.452475 -1.6290385
0001b0 da 34 e9 bf 15 c6 65 3f 5e d9 64 bf c1 28 03 c0
       -1.8219254 0.89755374 -0.89394176 -2.0493624
0001c0 7c 05 88 bf 6b 71 fe bf 05 25 99 bf 91 80 11 be
       -1.0626674 -1.9878362 -1.1964422 -0.142092
0001d0 cb 62 f2 bf 8f b6 e4 bf 0b e5 d2 bf 4b f6 cd 3d
       -1.8936399 -1.7868212 -1.6476148 0.10056742
0001e0 58 52 d3 bf 99 a6 cd bf e2 40 dd be b5 29 12 c0
       -1.6509504 -1.6066467 -0.43213564 -2.2837956
0001f0 4c 41 a4 be 31 7d d1 3e 5e a1 05 c0 53 f2 e5 be
       -0.32081068 0.40915826 -2.087974 -0.4491144
000200 08 09 9e bf c9 e7 ee bf 9e 39 89 bf e0 82 94 bf
       -1.2346506 -1.8664485 -1.0720708 -1.160244
000210 85 4c 9e bf fd 24 c9 bf d8 4b 86 3d 78 27 0b c0
       -1.2367102 -1.5714413 0.06557435 -2.174284
000220 72 11 fe bf 4a cc b0 be 2f 36 4f bf 06 70 22 c0
       -1.9849074 -0.3453086 -0.8094205 -2.5380874
000230 c4 7b fe bf e0 d0 a5 3f b4 3b bc bf 78 38 51 bf
       -1.988152 1.2954369 -1.470572 -0.8172679
000240 1f 94 41 c0 48 44 2b c0 cd 62 d5 bf a8 e8 be bf
       -3.0246656 -2.6760426 -1.6670777 -1.4914751
000250 b2 47 a3 bf b8 79 16 c0 05 4b cd bf 4a 83 de bf
       -1.2756255 -2.3511791 -1.6038519 -1.7383816
000260 59 d2 92 3f 78 0c 11 c0 21 74 c6 bf 13 1b d1 bf
       1.1470443 -2.266386 -1.550419 -1.6336387
000270 b2 43 e7 be 62 a0 6e bf 34 18 11 c0 52 06 fc bf
       -0.45168835 -0.93213475 -2.2671022 -1.9689429
000280 2c a0 bf bf 62 ed a4 bf be 56 21 be 72 e9 b4 bf
       -1.4970756 -1.2884943 -0.15755746 -1.4133742
000290 22 57 f9 bf fb e0 07 c0 f9 52 08 c0 e1 83 d3 bf
       -1.9479716 -2.1231067 -2.1300642 -1.6524621
0002a0 4a 84 d9 bf 1a 17 05 c0 49 d6 cb bf 8b 53 cf bf
       -1.6993496 -2.079535 -1.592477 -1.619737
0002b0 1a 24 03 c0 cd 37 08 c0 7c 96 aa bf 69 85 cc be
       -2.0490785 -2.1284058 -1.3327174 -0.39945534
0002c0 52 bc b0 bf 31 cc 02 c0 d2 0e 19 c0 50 35 69 bf
       -1.3807471 -2.0437129 -2.3915296 -0.91096973
0002d0 a3 ef 11 c0 a5 37 2a c0 27 b1 a9 bf 3e 0d 34 c0
       -2.2802513 -2.6596463 -1.3257188 -2.8133082
0002e0 c0 51 f1 bf ba 78 3f bf d7 4d cf bf 5d 42 04 c0
       -1.8853073 -0.7479359 -1.619563 -2.0665505
0002f0 fe fc fb bf 8c 86 0f be 09 87 b3 bf 50 41 ca bf
       -1.9686582 -0.1401617 -1.4025584 -1.5801182
000300 a0 17 28 c0 54 39 f1 bf 31 7f ef bf d2 a0 f7 bf
       -2.626442 -1.884562 -1.8710691 -1.9345953
000310 e3 95 06 c0 16 f6 42 bf 8c 21 6d 3f 69 ed d2 bf
       -2.1028984 -0.7615675 0.92629313 -1.6478702

fc2.weight f4 [100, 200]
000000 1c a5 31 be 0f 7d 01 be 55 e4 77 bd 7a f0 ef bc
       -0.1734814 -0.12645362 -0.06052049 -0.029289473
000010 62 d7 6a be fa 91 32 bd 53 b1 fc bd 02 bf 95 3d
       -0.22933725 -0.043596245 -0.123385094 0.073118225
000020 5b f4 b6 bb f5 da 0f bd f8 6a 49 3d 82 a0 19 bd
       -0.0055833287 -0.035120923 0.04917428 -0.037506588
000030 b9 92 76 3d f9 b0 09 be b5 46 1b bd dd bf 18 bd
       0.06019852 -0.13446416 -0.03790923 -0.03729235
000040 82 82 43 3c 2d d6 17 3e a8 fc 94 bd ad 71 a1 3a
       0.011932971 0.14827795 -0.07274753 0.0012317203
000050 1e 03 ad 3b 41 3b 05 bb 61 55 92 bd 88 9d 09 be
       0.0052799126 -0.0020329508 -0.07145191 -0.13439
000060 43 11 3d bd bc ea 89 be 0e 8b 14 3c 94 75 ae bb
       -0.04615904 -0.269369 0.009066356 -0.005324075
000070 b2 3c ba bd 55 49 b9 3c 24 27 9f bc 6d 4e ea bc
       -0.09093608 0.022617975 -0.019427843 -0.02860185
000080 ec 6f 25 3e e0 8f 0d 3c f9 65 25 bc 6c 8b c0 bc
       0.16155976 0.0086402595 -0.010095113 -0.023503982
000090 05 48 84 bc f0 cc 3c bd 1d 9a 0b 3c 74 a0 84 3c
       -0.016147623 -0.04609388 0.00852063 0.016189791
0000a0 50 83 20 3c 22 a2 52 be ba 8a 00 be 42 98 a7 be
       0.009796932 -0.20569661 -0.1255292 -0.3273335
0000b0 40 20 10 be 35 a1 1c bd ad ca ca bc 85 ba e8 bd
       -0.14074802 -0.038239677 -0.024754846 -0.11363701
0000c0 94 1c a3 bd e0 1a 30 be 2d 8e ae bd b0 fc 2e be
       -0.07964435 -0.17197752 -0.08523212 -0.1708858
0000d0 0b d0 54 3a 1c c5 1d be 3c 0a 27 3d 8b 81 f2 bc
       0.0008118159 -0.15407223 0.040781245 -0.029602787
0000e0 29 81 9a bb 84 2f 18 bd 2b 71 38 3d 1c da fa 3a
       -0.004715104 -0.03715469 0.0450298 0.0019138488
0000f0 a6 40 9f bd da 39 99 bd 52 35 88 3e 42 75 ea be
       -0.077760026 -0.074817374 0.2660318 -0.45792586
000100 ca 24 16 be 86 bb 82 bd a8 48 4d bd 6a 6c 12 3e
       -0.14662471 -0.063834235 -0.05011812 0.14299169
000110 92 56 61 3d bd 1a 7b bc a7 5e bd 3c 92 e0 d8 bd
       0.0550142 -0.015326199 0.023116423 -0.105897084
000120 7d f2 fd bc 44 48 08 be 69 4a f0 3c d5 80 48 3d
       -0.030999416 -0.13308817 0.029332357 0.04895099
000130 33 68 11 3e 62 33 a9 bd 6e 0a 10 be c4 98 2b bd
       0.14199905 -0.082617536 -0.14066479 -0.041893736
000140 70 05 b6 3c 16 ee 6b 3d c3 03 6d 3d 1c 79 8e b9
       0.02221939 0.057600103 0.057864916 -0.00027174584
000150 a2 8f 38 bc f6 91 e4 bd 6a 92 9a bd f9 aa e0 3b
       -0.0112647135 -0.11160652 -0.075474575 0.006856319
000160 d1 fa 92 3d 00 a5 33 3b 4d ac 11 be c6 4b 8c bd
       0.07176746 0.002741158 -0.14225884 -0.0685039
000170 3b 54 23 bd 3f d9 b5 bd 04 f8 be bc fb 05 17 be
       -0.03987525 -0.08879327 -0.023311622 -0.14748375
000180 b1 fc 2e 3c ca fb f2 bd be 55 ad b8 e5 5b 39 bd
       0.0106803635 -0.11864431 -8.2652536e-05 -0.045253653
000190 32 50 f2 3b 43 4e 34 3d 8e f2 34 bd 4c 58 f5 bc
       0.007394814 0.04401995 -0.04417663 -0.02994933
0001a0 a4 c8 8f bd 74 ad d9 bd ee ae 37 be df e7 3d 3c
       -0.07020691 -0.10628787 -0.17937824 0.011590927
0001b0 08 1f bd bd 18 95 0e be ce af 5a bc f9 90 68 be
       -0.09234434 -0.13924062 -0.013347579 -0.22711553
0001c0 51 8a b3 3d 13 3e a2 bd 02 fe f0 bc e1 ac 1e bc
       0.08766616 -0.07921996 -0.029417995 -0.009684772
0001d0 0e d4 7b be 8a 7e 06 3d 71 75 01 3e a5 02 1d 3d
       -0.24592611 0.03283552 0.12642457 0.0383326
0001e0 54 27 2e bd 5a 7e 3c 3e 3a c0 33 bd 84 6c f3 bd
       -0.042517975 0.18407574 -0.043884493 -0.11885932
0001f0 39 46 9d 3d cc 4b 0e be b9 e6 97 bd c4 a5 7f 3d
       0.076794095 -0.13896102 -0.07417054 0.062413946
000200 85 60 18 be 68 b0 03 be 1f 08 ff bb e9 80 00 be
       -0.1488057 -0.12860262 -0.0077829505 -0.12549175
000210 98 ed 1b bd 0a bc ab bd 42 6a 5b bd 5e ee 69 bb
       -0.038068384 -0.08385475 -0.053568132 -0.0035695056
000220 35 54 bd bd a1 f9 25 3d 68 23 2d be a2 3d 9e 3d
       -0.09244577 0.040521268 -0.16908038 0.07726599
000230 af ad a6 bd b7 af 38 bd 09 0e 26 be 96 0f eb bd
       -0.08138596 -0.04508945 -0.16216291 -0.11477582
000240 7c 54 80 3d 71 4e 9e bd 23 59 e0 bd 9c 3c 11 3e
       0.06266114 -0.07729805 -0.109545015 0.14183277
000250 c0 bd 24 3d 61 f8 d0 bc 1b 25 39 bd 26 41 5c 3d
       0.040220022 -0.025509061 -0.045201402 0.053773068
000260 1e fe 2b be 54 93 a3 bd 1a 3d 1a be 3a a0 17 bd
       -0.16796157 -0.07987085 -0.15062371 -0.03701804
000270 81 f3 f4 3c ac 3c d0 3c 7b 5d f3 bd c1 fa 94 bd
       0.029901268 0.025419556 -0.11883064 -0.0727439
000280 6a 53 e7 3b d5 cb f1 bd ce 7f 14 bc 86 16 a7 3b
       0.0070595043 -0.11806456 -0.009063674 0.0050991205
000290 b1 31 51 be ea f8 91 bd 1b c3 b9 bc 40 e3 2b be
       -0.20429112 -0.07127555 -0.022676041 -0.16785908
0002a0 f1 a0 68 be 5f 4f 44 bd c7 0d a1 bc 5e 54 12 3c
       -0.22717644 -0.047927257 -0.01965989 0.0089312475
0002b0 50 4f 08 3e 61 51 69 3c 8a 36 ff 3d 51 be ce bd
       0.13311505 0.014240594 0.124615744 -0.10094894
0002c0 69 f4 43 bd bf 3d 35 bd 4d e3 e2 bd 24 17 8a bc
       -0.04784051 -0.04424834 -0.110785104 -0.016856737
0002d0 f6 73 44 be 32 8b c5 bd a9 b1 c6 bd 7d 42 88 3d
       -0.1918486 -0.0964569 -0.09701855 0.06653307
0002e0 c0 b7 af bb 99 15 1e bd 51 9e a5 3d ac 30 ef bc
       -0.005362481 -0.038594816 0.08086837 -0.029198013
0002f0 01 6f 0e be 77 9e 43 be d5 db f6 bd 92 4b bb 3b
       -0.13909532 -0.19103418 -0.120536484 0.005715796
000300 35 d2 d7 bd 06 90 47 3c 6c 20 38 3e 4b 20 07 bd
       -0.10538141 0.012180334 0.17981118 -0.03298978
000310 6e c4 a6 bd 51 d8 d5 bd a5 86 37 be bc fa be bd
       -0.08142935 -0.1044165 -0.17922457 -0.093251675
000320 a5 da 2c bf 45 ba 41 bf db c8 f2 3e 2d 71 d5 3d
       -0.67521125 -0.7567485 0.47418866 0.10421977
000330 91 6a 41 be 0b d9 51 3e c9 c8 8b bf a7 02 8a bf
       -0.18888308 0.20492952 -1.092065 -1.078206
000340 e9 04 20 be 05 fa 7a bc 27 91 32 bf 14 7d 83 bd
       -0.15626873 -0.015318398 -0.69752735 -0.06420341
000350 91 8d 09 be 87 04 8f 3e 73 73 3a be ef a7 fb 3e
       -0.1343291 0.27933142 -0.18208103 0.4915156
000360 c0 36 ea be 64 68 83 be ee cc 40 3e 8e 6e ae be
       -0.45744896 -0.2566558 0.18828174 -0.34068722
000370 31 83 f7 be 95 ea 3a bf 2c 12 68 bf 48 0d c8 be
       -0.4834228 -0.73014194 -0.9065273 -0.39072633
000380 eb bc b0 be 2a d5 22 3f 1f c5 88 be dd ad ee be
       -0.34519133 0.6360651 -0.2671289 -0.46617022
000390 04 40 e7 be ca b8 b9 3e 79 4b cd bd 7f 74 d4 3e
       -0.45166028 0.36273795 -0.10024161 0.4149513
0003a0 17 3e 86 3f 30 f7 fa 3c 6e 93 18 3f 2d 53 63 bf
       1.0487698 0.030635446 0.5959996 -0.8879879
0003b0 ff c1 f1 be 91 43 c9 3e 2e 03 57 be 2c 19 98 3e
       -0.4721832 0.39309362 -0.20997307 0.29706705
0003c0 fa b0 8e be 5c c6 ad be f6 df 98 3e 48 57 5b 3e
       -0.27869397 -0.339404 0.2985837 0.21420014
0003d0 38 7b 8b bf 6f 38 40 3d c0 3d 22 bf 17 8b d6 bd
       -1.0896978 0.04692882 -0.63375473 -0.10475748
0003e0 df 81 b6 be ff ae 86 bf a8 40 2a 3c 43 f3 e1 be
       -0.3564596 -1.0522155 0.010391392 -0.44130906
0003f0 fc 47 62 bf 48 a1 9b 3d 9b 9f ca be af 35 a0 bf
       -0.8839109 0.07599121 -0.39574894 -1.2516383

fc2.bias f4 [100]
000000 aa 7b b3 bd 05 5a f6 be c4 e3 2c be ef cc 01 bf
       -0.087638214 -0.48115554 -0.1688376 -0.5070333
000010 60 d3 c3 bd 6b 6a a2 be 03 66 01 40 42 b2 8d be
       -0.09561801 -0.31721815 2.0218513 -0.27675062
000020 7e 70 36 be 22 71 6a be f6 67 75 be 1a aa cb bd
       -0.1781635 -0.22894719 -0.23965439 -0.09944554
000030 2b 61 cd bd d4 a0 c5 bd c4 f1 b9 bd b3 37 c7 be
       -0.10028299 -0.09649816 -0.09079316 -0.38909683
000040 6b dd 22 be 9f 9d 8b be 65 e4 19 bf 98 a2 c6 bf
       -0.15904777 -0.27268693 -0.6011413 -1.551837
000050 86 18 38 be 27 5c f0 be 01 1b f9 bd 8d f3 22 be
       -0.17978105 -0.46945307 -0.12163354 -0.1591322
000060 0d 0b 7e bf 21 5c df bd 8d ad 91 be 0d e1 12 bd
       -0.9923561 -0.10906244 -0.2845272 -0.035859156
000070 32 f2 54 be 24 1b 1b be 9f d0 b5 be 80 b2 97 bf
       -0.20795515 -0.15147072 -0.35510728 -1.1851349
000080 b1 e4 1c be d2 15 00 be cf e1 73 be ff 77 bb bd
       -0.15321614 -0.12508324 -0.23816608 -0.09153747
000090 95 00 b5 be b5 c3 af be 22 c0 c6 bd 96 9d 54 bf
       -0.35352007 -0.34329 -0.09704615 -0.8305296
0000a0 33 ea ad be e8 80 1b bf 74 b5 a0 bd 00 87 ac be
       -0.33967742 -0.6074357 -0.078471094 -0.33696747
0000b0 cd 11 fc bd 22 10 ce bd 69 e4 f8 be d3 44 04 bf
       -0.12308083 -0.10061671 -0.48611763 -0.5166752
0000c0 b5 7f da be 26 2e 52 be 0d cf 50 bd 21 46 31 bd
       -0.42675558 -0.20525417 -0.05097871 -0.04327977
0000d0 cd f4 bd be 56 8e 8b bd 3c 95 1d bd ef 37 a1 bd
       -0.3710083 -0.06814258 -0.0384724 -0.078719966
0000e0 b7 54 c3 be fc 88 97 bf 3a f9 ae be da f4 66 be
       -0.3815057 -1.1838679 -0.3417452 -0.22554341
0000f0 3c 82 87 3e 31 ef ab bd 4a 7c 1b be 1e 5e b8 bd
       0.26466548 -0.083952315 -0.15184131 -0.090023264
000100 55 6e 4e bc e7 88 45 be fe b6 7d bd ca 21 af be
       -0.012599547 -0.19290505 -0.061942093 -0.34205467
000110 8b f3 5d be 75 13 33 be a7 c9 ad be 89 5d c4 3e
       -0.21674936 -0.17487891 -0.3394291 0.38352612
000120 5c 66 c0 be 30 19 bb be dd 7a d6 be c1 5e df bd
       -0.37578094 -0.36542654 -0.41890612 -0.10906745
000130 96 9f e0 bd 70 25 71 be a4 92 a2 bd 22 b9 43 be
       -0.109679386 -0.23549438 -0.07938126 -0.19113591
000140 6f 92 95 be 0c ed 0b be 1c 61 96 bf 54 e0 37 be
       -0.29213282 -0.13664645 -1.1748385 -0.17956668
000150 be bf d4 be 23 57 81 be fe 16 0b be 76 4e 80 be
       -0.41552538 -0.25261793 -0.1358299 -0.2505986
000160 2f 18 3d bf 6c 4f 61 bf b1 b3 25 bf 9e d1 b6 be
       -0.73865026 -0.88011813 -0.6472731 -0.357068
000170 73 00 6e bf 44 c0 ad bd e6 69 61 be 83 a6 82 bd
       -0.92969435 -0.084839374 -0.22013053 -0.06379416
000180 92 d5 14 be 60 13 e8 bd 26 3e af be d3 98 5d be
       -0.14534596 -0.113318205 -0.34227103 -0.21640329

fc3.weight f4 [1, 100]
000000 50 ce 46 3b 87 18 8e 3d f7 89 a9 bd 6d 54 af 3c
       0.0030335374 0.06938272 -0.08278268 0.021402562
000010 82 76 aa 3c 8c 29 9e bc e4 19 d8 bf 9d 9b 22 3e
       0.020808462 -0.01930692 -1.6882901 0.15879674
000020 75 99 10 be 9f 45 1b be c2 e2 09 be af 5c 2f bb
       -0.14121039 -0.15163277 -0.13465407 -0.0026758125
000030 ab b9 39 bd d4 0b 05 bd 4a 0b 64 bd 89 33 98 be
       -0.045343082 -0.032481983 -0.05567483 -0.29726818
000040 57 19 63 bd 15 2c 6e be 55 d5 57 c0 f2 fb e3 3f
       -0.055444088 -0.23259003 -3.3723958 1.7811263
000050 55 57 ee 3d 25 86 64 3d 39 a2 fb bd 8e 13 21 be
       0.11637751 0.055791993 -0.12286801 -0.15730116
000060 f0 7e c9 3d b4 6e f6 bd 2d ef 0a be ab 56 74 3c
       0.098386645 -0.12032834 -0.13567801 0.014913241
000070 7d e3 04 be 2c d7 ff 3d ea d4 2c be 48 d0 20 40
       -0.12977405 0.12492213 -0.16878095 2.5127125
000080 47 82 c8 3c 10 0f d4 3b 45 45 31 be 85 ef 52 3c
       0.024476184 0.006471522 -0.1731158 0.012874489
000090 44 b4 e0 3d 0e eb a8 c0 1c 87 94 3c b2 00 cf bd
       0.10971883 -5.278693 0.018130831 -0.101075545
0000a0 b9 05 53 be 5d a0 05 3e 8f 1e 82 3b a4 eb 6d be
       -0.20607652 0.13049455 0.003970928 -0.23234421
0000b0 b8 65 be 3d 86 3d 1b 3c f5 89 f6 3d 5d 72 96 be
       0.09296745 0.009475118 0.12038032 -0.29384127
0000c0 91 9b 5b c0 71 03 f7 bd 8d 69 89 b9 95 15 6b 3c
       -3.43137 -0.12061203 -0.00026209318 0.014348407
0000d0 a7 a0 ab bd 84 4c 1d 3d 88 0f 4a 3d 28 74 0b 3c
       -0.083802514 0.03840305 0.049331218 0.0085115805
0000e0 0f d5 83 be 33 47 73 40 1a ea 84 3d 9a 5e 3f 3d
       -0.25748488 3.8012207 0.06489964 0.04672108
0000f0 64 82 55 c0 a4 7f ab 3a a2 23 49 3c a2 7e 13 3d
       -3.3360834 0.0013084305 0.012276562 0.03600944
000100 6a 84 2d 3d 50 72 ff bc c0 a5 21 ba 7d 65 8a be
       0.042362608 -0.031182438 -0.0006166361 -0.27030554
000110 0a 5c 13 be 97 44 1f 3e a1 d7 73 be 91 c5 c8 c0
       -0.14390579 0.15553509 -0.23812725 -6.274117
000120 20 db 63 be 7c 03 7f be 6f 0c 6c be 72 07 0b 3d
       -0.22251558 -0.24903673 -0.23051618 0.033942647
000130 b6 03 17 bb d1 40 35 be ed 43 98 bd 29 b0 48 be
       -0.0023042983 -0.17700507 -0.07434831 -0.1959845
000140 04 f9 70 3d a9 8f bc 3b 40 18 32 be 58 f4 83 ba
       0.05883123 0.0057544303 -0.17392063 -0.0010067327
000150 e9 46 3b 3d 4b 78 bb bd cb 14 80 bd 1d ed 59 be
       0.045721922 -0.091538034 -0.06253966 -0.21281858
000160 21 5b 40 c0 69 e0 3b be 0c 2e 12 40 8b fd ee bf
       -3.005562 -0.18347324 2.2840605 -1.8671125
000170 fe 65 47 c0 8b 28 74 bd b5 67 2c be 96 28 90 c0
       -3.1156 -0.059608977 -0.16836436 -4.5049543
000180 22 eb dd bc 9f b9 a4 3c 81 38 23 3e 87 08 1e 3d
       -0.02708966 0.020108042 0.15939523 0.03858235
