04_cnn/4_lenet5.pth (torch_old, 345054 bytes, 10 tensors)

model.0.weight f4 [16, 1, 5, 5]
0	0xbed64a64	-0.4185363
1	0xbec220f8	-0.37915778
2	0xbea80ade	-0.3282079
3	0xbdc64a60	-0.09682155
4	0xbdec3e5a	-0.1153533
5	0xbeb1b93c	-0.34711635
6	0xbed4019a	-0.41407472
7	0xbee8eaf7	-0.45491764
8	0xbe4708f9	-0.19437017
9	0xbbba294a	-0.0056811916
10	0xbe2485e4	-0.160667
11	0xbe7cdd80	-0.2469387
12	0xbe085c1a	-0.13316384
13	0xbd703b65	-0.058650393
14	0x3df32446	0.11872153
15	0x3e48b11f	0.19598816
16	0x3d04dedb	0.032439094
17	0x3d34c338	0.044131488
18	0xbd804fc6	-0.062652156
19	0x3e6d7a1b	0.23191111
20	0xbdc7006f	-0.097168796
21	0xbdee1fa5	-0.116271295
22	0xbdf3e566	-0.11908989
23	0x3e2e1a64	0.17002255
24	0x3ca4bae5	0.02010865
25	0x3e084741	0.13308431
26	0xbe09fbd7	-0.13474976
27	0xbeb4b7b1	-0.35296395
28	0xbded46c8	-0.11585766
29	0xbd9e13c7	-0.07718616
30	0x3e1447b1	0.14480473
31	0x3e6a3a55	0.22873814
32	0xbe5f4c5f	-0.21806477
33	0xbe675069	-0.22589268
34	0xbe588eb5	-0.21148188
35	0x3d9cfc95	0.07665364
36	0x3e27a507	0.16371547
37	0xbe45e3da	-0.193252
38	0x3e613b4d	0.21995278
39	0x3e460da8	0.19341147
40	0x3e223f7c	0.1584453
41	0x3d0ab0e9	0.03386012
42	0xbc6f2f54	-0.014598686
43	0x3d732f7a	0.05937145
44	0x3d153b37	0.036433425
45	0xbd1bf594	-0.038076
46	0x3e1aacbc	0.15104955
47	0xbd8aea40	-0.06782961
48	0xbdb73e25	-0.089474
49	0x3d857c32	0.06517829
50	0xbe6d5df1	-0.23180367
51	0xbdc1d95d	-0.09465287
52	0x3d62c6d7	0.05536541
53	0xbdf0042c	-0.11719546
54	0x3d9bfa87	0.07616144
55	0xbe87e493	-0.26541576
56	0xbe8fccc5	-0.28085914
57	0x3b251729	0.0025190806
58	0x3d13c827	0.036079552
59	0x3e2276ff	0.15865706
60	0xbe2647c9	-0.16238321
61	0xbea27429	-0.31729248
62	0xbc629e74	-0.0138317235
63	0x3e2243e4	0.1584621
64	0x3d3de132	0.04635734
65	0xbe3ef3c2	-0.18647674
66	0xbe0f44a5	-0.1399103
67	0x3d3a11c3	0.045427095
68	0x3ec19b6d	0.37813893
69	0x3e79f649	0.24410357
70	0xbe6b59bf	-0.22983454
71	0xbe9e9ed7	-0.3098056
72	0x3df39b72	0.11894883
73	0x3ee0f0ce	0.4393372
74	0x3e549c65	0.20762785
75	0xbe3dc96c	-0.18533868
76	0xbd2069ac	-0.039163277
77	0x3e99ec50	0.30063105
78	0xbd4f5532	-0.050618358
79	0xbc5689c0	-0.013094366
80	0xbec8f31f	-0.39247987
81	0x3e8d516a	0.27601177
82	0x3e79cd8a	0.24394813
83	0x3b2c87e1	0.0026326107
84	0xbe096e79	-0.13421048
85	0xbed88d00	-0.42295074
86	0x3ee13cd2	0.43991715
87	0xbd3dfe19	-0.046384905
88	0x3e44e242	0.19226936
89	0xbe2e4eac	-0.17022198
90	0xbec5b821	-0.38617042
91	0x3e0e4670	0.13894057
92	0x3e8ac439	0.2710283
93	0xbda01d9d	-0.07818148
94	0x3d70b31f	0.058764573
95	0xbe2d6196	-0.16931757
96	0xbcb11007	-0.021614088
97	0xbc928db7	-0.01788984
98	0x3e65d548	0.22444642
99	0xbc8b520e	-0.0170069
100	0xbd1d8ad5	-0.03846248
101	0xbbd6b7c6	-0.006552669
102	0xbeac2530	-0.33622122
103	0xbd147516	-0.036244474
104	0x3e344b55	0.17606862
105	0xbe0d25d3	-0.1378396
106	0xbe295549	-0.1653644
107	0xbed9d951	-0.42548612
108	0xbc451b9b	-0.012030507
109	0x3e9e9557	0.30973312
110	0x3e99811e	0.2998132
111	0xbd4162c2	-0.047213323
112	0xbe6b47c4	-0.22976595
113	0xbda7a50e	-0.081857786
114	0x3e8670f8	0.26258063
115	0x3e0a49d5	0.13504727
116	0x3e5154bb	0.20442478
117	0xbec782ba	-0.38966924
118	0x3dcc0970	0.099627376
119	0x3e5d3773	0.21603183
120	0xbd8e51dd	-0.06949208
121	0xbe7f430b	-0.24927919
122	0xbef06e80	-0.46959305
123	0x3e986006	0.2976076
124	0x3ee3d480	0.44498062
125	0xbed1fc00	-0.41012573
126	0x3d792d75	0.060834367
127	0xbe17bb1c	-0.1481747
128	0x3e856cd4	0.26059592
129	0xbdb34f47	-0.08755355
130	0xbd54ca8b	-0.051950973
131	0x3e3a8795	0.18215783
132	0x3e075564	0.13216168
133	0x3e4dfe8c	0.20116633
134	0x3d264b97	0.04059943
135	0xbcc209cd	-0.023686314
136	0x3d1077e3	0.035270583
137	0x3e06cb4e	0.13163492
138	0xbe0e2818	-0.13882482
139	0xbdb2c595	-0.08729092
140	0x3cbaef49	0.022819178
141	0xbd88ca52	-0.066792145
142	0x3d41fc48	0.047359735
143	0x3de437ee	0.1114348
144	0x3d9d6496	0.07685201
145	0x3e4cb95a	0.19992581
146	0xbe1edb7b	-0.15513413
147	0xbca0bf71	-0.019622536
148	0xbdf4c871	-0.11952294
149	0x3e545198	0.2073425
150	0xbe65cbc5	-0.22441013
151	0xbe07e9fa	-0.13272849
152	0xbe5f545f	-0.21809529
153	0xbe7bd1bb	-0.24591725
154	0xbe75c82e	-0.24002144
155	0xbe52abb7	-0.20573317
156	0xbe968750	-0.2940011
157	0xbe838e12	-0.2569433
158	0xbe9d70e5	-0.30750194
159	0xbe95f5c8	-0.2928908
160	0x3c673fcd	0.014114332
161	0xbe55073b	-0.2080354
162	0xbe85915f	-0.26087472
163	0xbe5d2365	-0.21595533
164	0xbe5f7398	-0.2182144
165	0xbbab421f	-0.005226388
166	0xbd006b3d	-0.03135227
167	0x3d8bce93	0.0682651
168	0xbdd26f56	-0.10275142
169	0xbe1c162f	-0.15242837
170	0xbccc9164	-0.024971671
171	0xbcc4cbbc	-0.02402293
172	0xbc28d8aa	-0.010305563
173	0xbe0b6e6d	-0.13616343
174	0x3de79edc	0.11309597
175	0x3e7c6ca6	0.24650821
176	0x3d8006f1	0.06251324
177	0x3c6802b8	0.014160804
178	0xbdb75bf0	-0.089530826
179	0xbe9a80ee	-0.3017649
180	0x3e31147f	0.17292975
181	0x3e09d871	0.13461472
182	0x3d803d86	0.06261735
183	0x3e0a20f0	0.13489127
184	0xbddc1ffd	-0.10748289
185	0x3e5b091e	0.21390197
186	0xbdff9009	-0.124786444
187	0x3e4d9ba0	0.20078897
188	0x3e599df3	0.21251659
189	0xbe618759	-0.22024287
190	0x3dd11641	0.10209323
191	0xbdef0942	-0.11671688
192	0x3db854f1	0.09000576
193	0x3dd08ba2	0.10182883
194	0x3dd32143	0.103090785
195	0xbe4290f8	-0.19000614
196	0xbe905675	-0.2819096
197	0x3dfed42c	0.12442812
198	0x3d4d5c27	0.05013671
199	0x3dab6ce6	0.0837038
200	0x3dc8d65e	0.09806512
201	0x3d7c0a25	0.061533112
202	0xbe29447a	-0.16530028
203	0xbe595070	-0.2122209
204	0xbe6abdab	-0.22923915
205	0xbe4220bf	-0.18957804
206	0xbe01b51c	-0.12666744
207	0x3e34d842	0.17660621
208	0xbea35959	-0.31904104
209	0xbe94ad79	-0.290386
210	0x3e87d3a7	0.26528665
211	0xbda2543f	-0.07926225
212	0xbd98569b	-0.07438394
213	0x3e301ea3	0.17199187
214	0x3db255b3	0.08707752
215	0x3e5e3adb	0.21702139
216	0x3b462c62	0.0030238857
217	0x3d9cfdaf	0.07665574
218	0xbe594e7c	-0.21221346
219	0xbd40ba10	-0.047052443
220	0x3e827caa	0.25485736
221	0x3dd90e89	0.105984755
222	0x3e6c002c	0.2304694
223	0x3e369425	0.1782995
224	0xbe6551d3	-0.22394495
225	0x3c9d4534	0.019198038
226	0x3d879d66	0.06621818
227	0x3eb8af2f	0.36071154
228	0xbed0ebce	-0.40804905
229	0xbdeebb27	-0.1165679
230	0x3d8ed99e	0.06975101
231	0x3e866dcd	0.26255646
232	0x3e5f9770	0.21835113
233	0xbf06108f	-0.52369016
234	0x3c30294a	0.010752032
235	0x3e430cfd	0.19047923
236	0x3e206618	0.15663946
237	0x3e490735	0.19631656
238	0xbec075c7	-0.37589857
239	0x3e0014d2	0.12507942
240	0xbe1f0f7a	-0.15533248
241	0x3e3be552	0.18349198
242	0x3eaf9d29	0.3429959
243	0xbec5da0b	-0.38642916
244	0x3c518e07	0.01279021
245	0xbe10b964	-0.14133221
246	0x3da23c79	0.079216905
247	0x3e131a55	0.14365514
248	0xbe9e62e8	-0.30934834
249	0x3c4cb372	0.012493955
250	0xbe71c945	-0.23611934
251	0x3d98c04b	0.07458552
252	0xbe6bed50	-0.23039746
253	0x3ea085ad	0.31351987
254	0x3ca16a84	0.01970411
255	0xbdb8aa60	-0.090168715

model.0.bias f4 [16]
0	0xbe2d7197	-0.16937862
1	0xbbe32f7d	-0.0069331513
2	0x3eaa606e	0.33276695
3	0x3a835982	0.0010021182
4	0x3e55db0e	0.20884344
5	0x3e46526c	0.19367379
6	0xbe38c8db	-0.1804537
7	0xbcebfdd2	-0.028807554
8	0x3bbcc27c	0.005760489
9	0x3bc5647a	0.0060239406
10	0x3d0b9e18	0.034086317
11	0xbb9a13ac	-0.004702052
12	0xbd99d8e3	-0.07512071
13	0xbe57125c	-0.21003097
14	0xbe4db9ac	-0.2009036
15	0xbe598597	-0.21242367

model.3.weight f4 [32, 16, 5, 5]
0	0x3dd27b46	0.10277419
1	0x3e83d6ce	0.2574982
2	0x3df80454	0.121102005
3	0x3db43e4f	0.08800947
4	0xbc4be4d4	-0.012444694
5	0xbc90df4a	-0.017684598
6	0x3d0dea72	0.034647413
7	0xbce3abf9	-0.027791964
8	0x3d15c516	0.03656491
9	0xbac1e2ba	-0.0014792301
10	0x3d016cb0	0.031597793
11	0xbc9369db	-0.017994812
12	0x3cca4bc1	0.024694325
13	0x3d50066b	0.05078737
14	0x3c4e473d	0.012590227
15	0xbdbf7f2a	-0.093504265
16	0xbd6e5c46	-0.058193468
17	0xbd9629f1	-0.073322184
18	0xbd762a26	-0.06009879
19	0xbc3db897	-0.011579654
20	0xbde01b16	-0.10942666
21	0xbd13de18	-0.036100477
22	0xbd7d3a78	-0.06182334
23	0x3c541e98	0.012946747
24	0xbc7093b6	-0.0146836545
25	0x3e1b966c	0.151941
26	0x3dc1cf90	0.094634175
27	0x3d55e41d	0.0522195
28	0x3cee89bb	0.02911841
29	0xbbd19dc5	-0.0063969814
30	0xbbf8b004	-0.007589342
31	0xbc831c61	-0.016004743
32	0x3d3c61b5	0.04599162
33	0x3c6844c3	0.01417655
34	0xbd5caee8	-0.05387774
35	0xbcd751e6	-0.02628417
36	0x3c166222	0.00917867
37	0x3cce06e1	0.025149764
38	0xbd359d0d	-0.04433923
39	0xbd4823e0	-0.048862338
40	0x3d75dd50	0.060025513
41	0xbca00d80	-0.019537687
42	0x3c55000f	0.013000502
43	0xbcf5f69d	-0.030024821
44	0xbc2e40d2	-0.010635572
45	0x3dac6866	0.0841835
46	0xbbad5d1c	-0.0052906405
47	0xbcc5652e	-0.024096098
48	0xbd382e5a	-0.04496608
49	0xbd01071d	-0.031500924
50	0x3d9689d8	0.0735051
51	0x3de945ab	0.11390241
52	0x3dd949e0	0.10609794
53	0x3de21bb8	0.11040443
54	0x3d097020	0.033554196
55	0xbc827966	-0.015927028
56	0x3d3e5d75	0.046475846
57	0xbb953e0a	-0.004554515
58	0xbc65ecaa	-0.014033476
59	0x3d2c52b1	0.04207105
60	0x3cfb5e43	0.030684596
61	0xbc357b82	-0.01107681
62	0x3bd2a0f7	0.00642788
63	0xbc726fc2	-0.014797153
64	0xbad4453a	-0.0016194948
65	0xbd1dabcc	-0.038493916
66	0xbdc47d5f	-0.09594225
67	0xbd2bcd8b	-0.041944068
68	0xbcf394b0	-0.029733986
69	0xbcb54315	-0.022126714
70	0x3c4aec40	0.012385428
71	0xbe043b2e	-0.129132
72	0xbd8b61b2	-0.06805743
73	0xbd451030	-0.04811114
74	0x3b8cf190	0.0043012574
75	0xbd869c88	-0.06572825
76	0xbc4612d6	-0.012089452
77	0xbd79b8bb	-0.06096719
78	0x3da4bc95	0.08043782
79	0xbc573872	-0.013136016
80	0xbd3c9f06	-0.046050094
81	0x3c0f3781	0.0087412605
82	0x3b3906f6	0.0028232909
83	0x3d4a2d95	0.049359877
84	0x3d16640e	0.036716513
85	0xbd4e7921	-0.050408486
86	0x3d28ca7a	0.04120872
87	0xbd121a41	-0.03566957
88	0xbd579488	-0.052631885
89	0xbd9a2206	-0.07526021
90	0x3d9261c0	0.071475506
91	0xbd4311f0	-0.04762453
92	0xbca28856	-0.0198404
93	0xbdde6c64	-0.108605176
94	0xbda7a091	-0.081849225
95	0x3d9f915e	0.077913985
96	0xbd41a70a	-0.04727844
97	0xbcbc65e5	-0.022997806
98	0xbd99981e	-0.07499717
99	0xbc3cfd84	-0.011535052
100	0x3d88c011	0.06677259
101	0x3e04c46b	0.12965553
102	0x3e35e1cb	0.17761914
103	0x3cbb0669	0.022830205
104	0xbd007d0f	-0.031369265
105	0x3d65b07e	0.05607652
106	0x3c3a5d60	0.011374801
107	0x3ca8ca45	0.020604262
108	0x3d348937	0.04407617
109	0xbb44dbdd	-0.0030038275
110	0x3bc9eb16	0.0061620576
111	0xbb8dec1a	-0.004331124
112	0xbcd86bae	-0.026418533
113	0xbd009293	-0.031389784
114	0x3d3d10ad	0.04615848
115	0xbad74682	-0.0016424211
116	0xbd6fe945	-0.058572073
117	0xbdabf66e	-0.08396612
118	0xbd3dcb0e	-0.046336226
119	0xbc271a43	-0.010199132
120	0xbd312472	-0.043247648
121	0xbdb25250	-0.08707106
122	0xbddd25fa	-0.10798259
123	0xbda28cee	-0.079370365
124	0x3d1707bf	0.03687262
125	0xbc288edf	-0.010287969
126	0x3d53caa1	0.051706914
127	0x3d82614f	0.063662164
128	0x3c3d26a6	0.011544859
129	0x3c2b44dd	0.01045343
130	0x3d5771d1	0.05259878
131	0x3d28e72e	0.041236095
132	0x3d79eccb	0.06101684
133	0x3d05f195	0.032701094
134	0xbc47d739	-0.012197309
135	0x3d508640	0.05090928
136	0xbcc2e90b	-0.023792764
137	0x3bd1538e	0.0063881343
138	0x3d6f71bb	0.05845807
139	0x3c599c64	0.013281915
140	0x3d8a7102	0.06759836
141	0x3cea9083	0.028633362
142	0x3c221e1c	0.009894874
143	0x3c1b27c1	0.009469927
144	0xbcf813be	-0.030282851
145	0x3d8be5e7	0.0683096
146	0x3d373596	0.044728838
147	0x3d2f72b3	0.042833995
148	0x3cb61e27	0.022231175
149	0x3be622a7	0.007023174
150	0x3dd3af81	0.10336209
151	0x3e48c917	0.1960796
152	0x3cd03d70	0.02541992
153	0xbbae27c9	-0.0053148014
154	0x3cfac65b	0.030612161
155	0xbbe3175b	-0.0069302744
156	0x3b64701a	0.0034856857
157	0x3d3b4479	0.045719597
158	0x3cea7a99	0.028622912
159	0x3d7e960d	0.06215482
160	0xba0e3b73	-0.0005425729
161	0xb8771621	-5.891e-05
162	0x3d0ddc11	0.0346337
163	0x3d463c06	0.048397087
164	0x3d9d7e52	0.07690109
165	0xbdfa3dd7	-0.12218826
166	0xbc9db0e5	-0.019249389
167	0xbd72bc18	-0.05926141
168	0xbd2018c8	-0.039086133
169	0xbdbf02c4	-0.093266994
170	0xbdfea426	-0.124336526
171	0xbdbde2b2	-0.09271754
172	0xbdb9c4a0	-0.09070706
173	0xbbb8feb7	-0.0056455988
174	0xbdadbc82	-0.08483221
175	0xbc162364	-0.009163711
176	0xbcbf0302	-0.023316864
177	0xbd279305	-0.040911693
178	0xbcd865ab	-0.026415667
179	0xbb469e1f	-0.003030665
180	0xbcda4ded	-0.026648486
181	0xbce8ce7d	-0.028418774
182	0xbd8f80e7	-0.07007008
183	0xbb665817	-0.003514772
184	0xbcc40881	-0.023929836
185	0x3c34d650	0.011037424
186	0xbc896be9	-0.016775088
187	0x3b05a043	0.0020389713
188	0xbd147ed1	-0.036253754
189	0x3cb72624	0.022357054
190	0xbd311601	-0.043233875
191	0xbcf516c2	-0.029918078
192	0x3bbb2675	0.0057113715
193	0xbd8923c1	-0.06696273
194	0x3d2b3b4f	0.041804608
195	0x3d705abb	0.058680277
196	0xbca7f351	-0.020501764
197	0xbd127c87	-0.03576329
198	0x3ced2998	0.028950498
199	0xbd0fd234	-0.035112575
200	0x3d48f9c0	0.049066305
201	0x3d56dfe6	0.05245962
202	0x3caa7ce3	0.020811504
203	0x3c889bf6	0.01667593
204	0x3cc68875	0.02423499
205	0xbd410997	-0.047128286
206	0x3c73ad14	0.014872808
207	0xbaf0a26a	-0.001835895
208	0x3c9aa61d	0.018878037
209	0x3d8123e6	0.06305675
210	0x3d6f7787	0.0584636
211	0x3c0e4058	0.008682333
212	0x3c883dae	0.016630974
213	0x3d250ef7	0.040297475
214	0x3cb9bd9e	0.022673424
215	0x3cb46e98	0.022025391
216	0x3ca451b4	0.02005849
217	0xbcac84b0	-0.021059364
218	0x3cd955c6	0.026530158
219	0xbd0c12f6	-0.03419777
220	0x3d756c9c	0.05991803
221	0xbbc35641	-0.00596121
222	0x3c8cdfcb	0.017196557
223	0xbd361e5a	-0.04446254
224	0xbc287075	-0.010280718
225	0x3db34d80	0.08755016
226	0x3be07b55	0.00685064
227	0x3c16f587	0.009213812
228	0xbc21c834	-0.009874392
229	0x3cb6dfdd	0.022323543
230	0x3bc48840	0.0059976876
231	0xbb7e30e0	-0.0038786456
232	0x3c3f9907	0.011694199
233	0xbd3c947c	-0.046040043
234	0xbc459c29	-0.012061157
235	0xbd4ee735	-0.050513465
236	0xbc183f1c	-0.00929239
237	0xbd8074db	-0.062722884
238	0xbd3a2288	-0.045443088
239	0xbd057fbf	-0.03259253
240	0xbd011235	-0.031511504
241	0xbd5f6eb9	-0.054548953
242	0xbd9531f0	-0.072849154
243	0xbd96d1c0	-0.073642254
244	0xbcefd75e	-0.0292775
245	0x3d6fe104	0.0585642
246	0xbdb05eb8	-0.08611816
247	0xbcf49146	-0.029854428
248	0xbd41a48d	-0.04727607
249	0x3ba0d5ea	0.004908313
250	0x39cf949f	0.00039592848
251	0x3d5673d9	0.052356575
252	0x3d25d7cb	0.040489
253	0x3d99b31a	0.07504864
254	0xbbf566e2	-0.007489071
255	0xbcc13043	-0.023582583

model.3.bias f4 [32]
0	0x3d37402d	0.044738937
1	0x3c911469	0.017709928
2	0x3c9b1ba4	0.018934079
3	0x3cb8bf97	0.022552295
4	0xbd19e11d	-0.0375682
5	0xbcdbee93	-0.02684716
6	0x3d4f0b5c	0.050547943
7	0x3d0803cf	0.033206757
8	0xbd32a86d	-0.043617655
9	0x3d5158c2	0.051110037
10	0xbd11058a	-0.035405673
11	0x3c33db70	0.010977611
12	0xbd010eaf	-0.031508144
13	0x3bd8d3ac	0.00661703
14	0xbd73277f	-0.05936384
15	0xbd83eb55	-0.064413704
16	0xbd8dd608	-0.06925589
17	0x3d065f67	0.032805827
18	0xbd86daa1	-0.06584669
19	0xbbac501e	-0.005258574
20	0xbc5b73d2	-0.013394313
21	0xbcc805c5	-0.024416814
22	0xbc98d871	-0.018657895
23	0xbcb7bfb2	-0.022430275
24	0x3cf582c8	0.029969588
25	0x3b9d3994	0.0047981236
26	0x3d609199	0.054826353
27	0x3c02ccdd	0.0079834135
28	0x3d42d33d	0.047564734
29	0x3ce23a89	0.027615802
30	0xbd8a50fc	-0.06753728
31	0x3c4ab63f	0.012372552

model.7.weight f4 [120, 512]
0	0xbdacbeb8	-0.08434814
1	0xbd763540	-0.060109377
2	0xbd659312	-0.05604846
3	0xbb92ffce	-0.0044860607
4	0xbd0d4a28	-0.03449455
5	0xbc888f79	-0.016669976
6	0x3d0cc9ac	0.034372017
7	0xbd29faa9	-0.041498814
8	0xbd4a5aa0	-0.049402833
9	0xbca7e206	-0.020493519
10	0x3d8cc14c	0.06872806
11	0xbc4e4bc9	-0.012591311
12	0xbd71e039	-0.059051726
13	0x3d21f893	0.0395437
14	0xbcc63157	-0.024193449
15	0x3b603e38	0.0034216773
16	0x3bd8459a	0.006600094
17	0xbc9a4465	-0.018831441
18	0xbd1424ec	-0.036168024
19	0xbd4c0c71	-0.049816553
20	0xbd1e89e3	-0.038705718
21	0xbc43a3b2	-0.0119408835
22	0xbcba2eb6	-0.022727352
23	0x3d76521b	0.060136896
24	0xbcb49f65	-0.022048661
25	0xbcfb4569	-0.030672746
26	0x3c699ea7	0.014259017
27	0x3ce5822d	0.028016174
28	0xbd2b275b	-0.04178558
29	0xbb000aa4	-0.0019537592
30	0xbd42d4e1	-0.0475663
31	0x3c67abf1	0.014140115
32	0x3cc6f37d	0.024286026
33	0xbbcc8c77	-0.0062423307
34	0x3c4acb1f	0.012377529
35	0xbc4f3e79	-0.012649172
36	0xbcf47f75	-0.029845932
37	0x3d7839dd	0.060602058
38	0x3ca97760	0.020686805
39	0xbbba50cc	-0.0056859013
40	0xbd3f57ac	-0.04671447
41	0x3d098f29	0.033583794
42	0x3c3f9339	0.011692815
43	0xbcc98102	-0.024597649
44	0xbd77286a	-0.060341276
45	0xbc347864	-0.0110150315
46	0x3d0075c6	0.031362318
47	0x3cf96e9a	0.030448247
48	0xbd0da6b4	-0.03458281
49	0xbd3f139d	-0.046649564
50	0x3c0750f7	0.00825905
51	0x3c6a5fc1	0.014305056
52	0x3cf462be	0.02983224
53	0x3d3a63e8	0.045505434
54	0x3d794437	0.06085607
55	0x3cd8eab9	0.026479112
56	0x3d0f4ee6	0.034987353
57	0x3c8627a2	0.01637632
58	0xbcddda33	-0.027081585
59	0xbd03449b	-0.03204785
60	0x3be574c6	0.007002446
61	0x3ca36b01	0.019948484
62	0x3d069a50	0.032862008
63	0xbcd36f5e	-0.02580994
64	0x3d5eacce	0.05436402
65	0x3bb55b2b	0.0055345497
66	0xbd80cd01	-0.062891014
67	0x3be13509	0.0068727774
68	0x3d408390	0.047000468
69	0x3c259caf	0.010108157
70	0x3d2557cc	0.040366933
71	0xbd04a95c	-0.032388076
72	0xbae96bc9	-0.0017808612
73	0x3c40b71b	0.011762406
74	0xbc05ab18	-0.008158468
75	0xbc9d1edc	-0.019179754
76	0x3d046fba	0.032333113
77	0x3b9700db	0.0046082563
78	0xbd2587e9	-0.040412817
79	0x3d6732f7	0.05644509
80	0x3a658f6f	0.000875703
81	0xb87d7a34	-6.043371e-05
82	0x3c98c30e	0.018647697
83	0x3c90b919	0.017666386
84	0x3cc6b033	0.02425394
85	0xbd2f3b33	-0.042781066
86	0xbd10e406	-0.03537371
87	0x3cade89d	0.021229083
88	0x3baf6e00	0.005353689
89	0x3c990f16	0.018683951
90	0xbc21937b	-0.009861822
91	0xbd0197fe	-0.03163909
92	0x3d939744	0.07206586
93	0xbc9fdbbd	-0.019513959
94	0xbc8c247a	-0.017107237
95	0xbcaefd35	-0.021360973
96	0xbccb3f4d	-0.024810458
97	0xbc8a6ef9	-0.016898619
98	0x3cb58899	0.022159861
99	0x3d34844a	0.044071473
100	0x3ce743a8	0.028230503
101	0xbce1213d	-0.02748167
102	0xb8e989e9	-0.000111359936
103	0xbcda5e5d	-0.026656324
104	0xbbabefe2	-0.005247102
105	0xbc5f20c7	-0.013618655
106	0x3ce7191c	0.028210215
107	0xbcac2e75	-0.021018246
108	0x3a9b84b6	0.0011865112
109	0x3d1f51cc	0.038896367
110	0xbd27afdf	-0.040939208
111	0x3d2f188a	0.04274801
112	0x3be4fc73	0.006988102
113	0x3d0c1d4f	0.03420764
114	0xbd23ffe2	-0.04003895
115	0x3ca715c7	0.020396126
116	0xbd307d5c	-0.043088302
117	0x3c8e9dc1	0.017409207
118	0x3d3ba716	0.045813642
119	0x3c31537a	0.010823125
120	0xbc9d61f2	-0.019211743
121	0x3afe4df2	0.0019401892
122	0xbca91146	-0.02063812
123	0xbd0c38f8	-0.034234017
124	0x3cc8793a	0.024471868
125	0x3c502231	0.012703464
126	0x3d6297c8	0.05532053
127	0x3d31004f	0.043213185
128	0xbd98e5da	-0.07465716
129	0xbd2f49bf	-0.04279494
130	0xbd8dde69	-0.06927187
131	0x3d502755	0.05081876
132	0x3d0cc60b	0.034368556
133	0x3d4ccee9	0.050002012
134	0x3b5cdf69	0.0033702499
135	0x3c47052d	0.01214723
136	0x3d7cff9a	0.0617672
137	0x3c6651ca	0.014057586
138	0x3d149c78	0.036282033
139	0xbc7e5e74	-0.015525449
140	0x3d154bec	0.036449358
141	0x3d7f7674	0.062368825
142	0xbd8c50ac	-0.068513244
143	0x3d80fc92	0.06298174
144	0xbc418d23	-0.011813435
145	0xbc414a65	-0.011797522
146	0xbb30e220	-0.002699025
147	0xbd573ab6	-0.052546225
148	0xbd1c1c6c	-0.038113043
149	0x3d424f55	0.04743894
150	0x3ccee32d	0.02525481
151	0xbd6fcbc4	-0.058543935
152	0xbc1d4e78	-0.009601228
153	0x3b928314	0.004471192
154	0x3d4ac906	0.049508117
155	0xbce8b838	-0.028408155
156	0x3c68166f	0.014165505
157	0x3cb53ef7	0.02212475
158	0x3d842169	0.06451685
159	0xbbd0c4ae	-0.0063711023
160	0x3d49db2a	0.049281277
161	0x3aff5142	0.0019479173
162	0x3d5118ce	0.051049046
163	0x3d718264	0.05896224
164	0x3d8c9c50	0.06865752
165	0x3c5b39c2	0.01338047
166	0x3d8393b8	0.064246595
167	0x3da31d7e	0.079646096
168	0xba1efdf9	-0.00060650666
169	0x3d7a1b63	0.061061274
170	0xbcb3cd56	-0.021948498
171	0x3d7a44f6	0.061100923
172	0xbd2c601a	-0.042083837
173	0xbc715b43	-0.014731231
174	0xbbeca353	-0.007221618
175	0xbd8bb06b	-0.068207584
176	0xbd22bc6f	-0.039730486
177	0x3b20cb88	0.0024535377
178	0xbc7ae2a7	-0.015312827
179	0x3af9331c	0.0019012424
180	0x3d24c677	0.040228333
181	0x3cf5900e	0.029975917
182	0xbcf762c1	-0.030198457
183	0x3cafd1af	0.02146229
184	0x3d12502f	0.035721
185	0xbc6f177d	-0.014593002
186	0xbced278d	-0.028949523
187	0xbc1c56ab	-0.009542148
188	0x3c86e958	0.016468689
189	0xbc5358b7	-0.012899569
190	0x3bb3686d	0.005475095
191	0x3d62d81f	0.05538189
192	0xba276940	-0.0006386228
193	0x3ab6b0fa	0.0013938241
194	0xbb7ca516	-0.0038550547
195	0xbd5fdfbc	-0.05465673
196	0x3cad328c	0.021142267
197	0x3c208d2e	0.009799285
198	0x3d4d55e0	0.050130725
199	0x3cbbb38e	0.022912767
200	0xbd348c3d	-0.044079054
201	0x3c2d9fb0	0.0105971545
202	0x3d01bb62	0.031672843
203	0xbcd36df4	-0.025809266
204	0xbc2725c4	-0.010201875
205	0xbce59f32	-0.028030012
206	0xbc16042f	-0.009156271
207	0xbd78b163	-0.060716044
208	0x3ce4cdff	0.027930258
209	0x3b60821f	0.0034257246
210	0x3d0bbfe0	0.034118533
211	0xbc15b098	-0.0091363415
212	0xbd40ec5a	-0.047100402
213	0x3d826690	0.063672185
214	0x3d9b3eec	0.07580361
215	0x3d1a93b1	0.037738506
216	0xbd88f113	-0.06686606
217	0xbcb88e26	-0.02252872
218	0x3d019814	0.031639174
219	0xbd45cb2b	-0.04828946
220	0xbd4543c2	-0.048160322
221	0x3d2b85fb	0.04187582
222	0xbd672a33	-0.05643673
223	0xbdadd42c	-0.08487734
224	0x3b987ca5	0.0046535307
225	0xbcddb438	-0.027063474
226	0xbd6ec446	-0.05829265
227	0xbd09238d	-0.03348117
228	0x3d134ef0	0.035963953
229	0xbcd4cb63	-0.025975889
230	0x3d2660c1	0.040619615
231	0x3d4d4290	0.050112307
232	0x3caa00f1	0.020752402
233	0xbcedc547	-0.029024733
234	0x3cc5bdd7	0.024138374
235	0x3d50394d	0.050835896
236	0xbd0c347f	-0.03422975
237	0xba289ae0	-0.00064317696
238	0x3d1a6767	0.03769627
239	0x3caa5757	0.0207936
240	0x3b026cc7	0.0019901262
241	0xbcf630bd	-0.030052537
242	0xbd7e9cd1	-0.06216127
243	0xbb66fd36	-0.003524614
244	0xbcdb8267	-0.02679558
245	0x3ba3d8cf	0.005000211
246	0x3d384e24	0.044996396
247	0xbac2a224	-0.0014849347
248	0xbce26260	-0.0276348
249	0x3cd7a41d	0.026323372
250	0xbb8221fe	-0.0039713373
251	0x3d8dce0c	0.06924066
252	0x3baf21fb	0.005344627
253	0xbb9eb1cd	-0.004842973
254	0xbcb7b541	-0.022425296
255	0x3c4cbb7f	0.012495874

model.7.bias f4 [120]
0	0xbc1a4c87	-0.00941766
1	0xbc2242b7	-0.009903601
2	0x3d25636d	0.040378023
3	0xbc85fdb4	-0.016356327
4	0xbd29f323	-0.04149164
5	0x3d1e22b2	0.038607307
6	0xbc7f5667	-0.015584565
7	0xbcae5bdc	-0.021284036
8	0x3ca29ece	0.019851115
9	0xbc3f9397	-0.011692903
10	0xbc51d295	-0.012806554
11	0x3c981143	0.018562919
12	0xbc0dc445	-0.008652751
13	0x3cafd309	0.021462934
14	0x3d0428f7	0.03226563
15	0x3c8fdec5	0.01756228
16	0x3d1c9507	0.03822806
17	0x3c9d14ce	0.01917496
18	0xbc1b1f62	-0.009467931
19	0x3bb21951	0.005435147
20	0xbcbd095c	-0.023075752
21	0x3d0981c5	0.033571023
22	0x3d2b399d	0.04180299
23	0x3c83ecc0	0.016104102
24	0x3b008497	0.001961028
25	0xbc22c02f	-0.009933515
26	0xbcf9dd42	-0.030501012
27	0xb6e34757	-6.7734322e-06
28	0xbc41cb25	-0.011828219
29	0xbd15447b	-0.03644226
30	0xbcd5da6e	-0.026105132
31	0xbca0d9a2	-0.019635025
32	0x3bc2477b	0.0059289313
33	0x3d67f45c	0.056629524
34	0xbc91948c	-0.017771028
35	0x3c2cf505	0.010556464
36	0xbc3ce4fb	-0.011529203
37	0xbb9f983c	-0.0048704427
38	0x3b50c2ad	0.0031854317
39	0x3cbc63d0	0.022996813
40	0xbb1dbc8e	-0.0024068686
41	0x3cafe43f	0.02147114
42	0xbc970532	-0.018435095
43	0x3c71f4f5	0.014767875
44	0xbcaa9dcf	-0.020827202
45	0xba8d4f3e	-0.0010781062
46	0x3d214a7b	0.03937767
47	0x3d38b568	0.045094877
48	0x3a24b9ae	0.0006283772
49	0xbcf293df	-0.029611526
50	0x3d0c7131	0.034287635
51	0xbc6fffef	-0.014648422
52	0x3d150543	0.03638197
53	0x3c9d1abd	0.019177789
54	0xbc5774da	-0.013150418
55	0x3bc79f23	0.0060919686
56	0x3d259b33	0.040431213
57	0xbc2c18de	-0.010503976
58	0x3c6da2dd	0.014504162
59	0x3c7d992c	0.015478414
60	0xbccf99d8	-0.025341913
61	0xbc1f3c1f	-0.009718924
62	0xbbecdc00	-0.0072283745
63	0xbc9b1809	-0.01893236
64	0xbcac934f	-0.021066336
65	0xbc1a3dfc	-0.009414192
66	0x3d2c86ca	0.042120732
67	0xbd5d882f	-0.054084953
68	0xbc89717c	-0.016777746
69	0x3d18a945	0.037270803
70	0xbd006b04	-0.031352058
71	0x3d55ca3f	0.05219483
72	0xbb532263	-0.003221654
73	0x3d2bae88	0.041914493
74	0x3d0db212	0.03459365
75	0x3a9005a7	0.0010988013
76	0x3ce28f0f	0.027656106
77	0x3c523641	0.012830318
78	0xbcb2ac59	-0.021810697
79	0xbca3dfe5	-0.020004222
80	0xbbfcc29e	-0.00771363
81	0x3bf079d9	0.007338744
82	0x3c452d89	0.012034782
83	0xbd2242bd	-0.039614428
84	0x3c1c6940	0.009546578
85	0x3d07fc1e	0.033199422
86	0xbce6d28b	-0.028176567
87	0x3d515709	0.051108394
88	0xbcc839d1	-0.024441632
89	0x3d1bdd61	0.03805292
90	0x3d210a94	0.03931673
91	0x3d15de9f	0.03658926
92	0x3ce83cc8	0.028349295
93	0xbd218c7f	-0.03944063
94	0x3d9aa311	0.07550634
95	0x3d09f365	0.033679385
96	0x3d42e48f	0.04758125
97	0x3ccbc872	0.024875853
98	0x3d43e7ba	0.047828414
99	0xbd233618	-0.03984651
100	0xbc49ad90	-0.012309447
101	0x3c2e2f33	0.01063137
102	0x3b17ba08	0.0023151655
103	0x3c2b5d8e	0.010459317
104	0xbd000fd5	-0.0312651
105	0x3cbf4df4	0.0233526
106	0x3b572bd7	0.0032832527
107	0x3a4542f4	0.00075249304
108	0x3be48a9b	0.006974531
109	0x3c8c1109	0.017097967
110	0x3cc8ba24	0.024502821
111	0xbc99e67e	-0.018786665
112	0x3cc37d51	0.023863466
113	0xba024738	-0.0004969719
114	0x3d43cb93	0.047801565
115	0xbd2c3d80	-0.04205084
116	0xbcd27233	-0.02568922
117	0x3bdb054f	0.0066839824
118	0x3d15ca97	0.036570158
119	0xbb937c93	-0.0045009344

model.9.weight f4 [84, 120]
0	0x3dd29abf	0.10283422
1	0xbd5e5cf9	-0.054287884
2	0x3c07a0d8	0.008278094
3	0xbe0a56ce	-0.13509676
4	0xbc89f63c	-0.016841047
5	0xbb2be0e7	-0.0026226582
6	0x3d90b746	0.07066207
7	0xbd04dff0	-0.032440126
8	0xbce220c6	-0.027603518
9	0xbc9ac004	-0.018890388
10	0xbdba942a	-0.09110291
11	0x3ce70d99	0.028204726
12	0xbd7d71b3	-0.06187601
13	0x3dd1b37f	0.10239314
14	0xbd616c47	-0.055034902
15	0x3de48bdb	0.11159488
16	0xbc92dcd6	-0.017927568
17	0xbda6b709	-0.0814038
18	0xbd9bb4da	-0.07602854
19	0x3e12cb8d	0.14335461
20	0xbdb3a222	-0.08771159
21	0xbde388b4	-0.111100584
22	0xbe004f35	-0.12530215
23	0x3db1df93	0.086852215
24	0xbc33ebf3	-0.010981548
25	0x3db0c030	0.08630407
26	0x3da644ba	0.08118577
27	0x3ba96cb6	0.00517043
28	0x3cf18b06	0.029485237
29	0xbc593dd2	-0.013259368
30	0x3d9a5744	0.07536176
31	0xbb1ed200	-0.0024234056
32	0xbdab846e	-0.08374868
33	0x3c037af4	0.00802492
34	0xbdd9cd77	-0.106348924
35	0xbdddac17	-0.10823839
36	0x3db8e3d1	0.090278275
37	0xbd566b66	-0.052348517
38	0xbde5e5dc	-0.11225483
39	0x3d011170	0.03151077
40	0xbdae9fa1	-0.085265405
41	0x3d8f31bd	0.06991909
42	0xbcfdbde2	-0.030974332
43	0x3d464194	0.048402384
44	0x3a33f8f4	0.0006865405
45	0xbcb53a98	-0.022122666
46	0x3d7c50ff	0.06160068
47	0x3dad174b	0.084517084
48	0x3c9d1374	0.019174315
49	0x3da251a5	0.07925729
50	0x3d62605d	0.05526768
51	0x3dd43437	0.10361522
52	0x3d39a5cc	0.04532413
53	0xbce74c9c	-0.028234772
54	0x3d5076c4	0.050894514
55	0x3c1a8a6b	0.0094324155
56	0xbce4ea18	-0.027943656
57	0x3d2f1dcf	0.042753037
58	0x3ca1dc97	0.019758506
59	0x3c138a8d	0.009005201
60	0x3ddb0c95	0.10695759
61	0x3d1e7b76	0.03869196
62	0xbd83f9ec	-0.06444153
63	0xbd2fb79e	-0.04289972
64	0x3c9578da	0.018246103
65	0x3dd587f6	0.10426323
66	0xbc830b99	-0.015996741
67	0x3d1541c6	0.03643968
68	0x3ce76897	0.028248115
69	0xb881d51f	-6.190896e-05
70	0xbbbbb318	-0.0057281367
71	0xbd67f52d	-0.056630302
72	0x3d5ab4fa	0.05339525
73	0xbe05098b	-0.12991922
74	0xbd549752	-0.051902123
75	0xbddefe23	-0.108883165
76	0xbdbad8d9	-0.09123392
77	0xbd063823	-0.03276838
78	0x3d680386	0.056643985
79	0x3d0892ec	0.03334324
80	0x3d9de19d	0.07709048
81	0xbb8f09ff	-0.0043652053
82	0x3e0d9e3e	0.13829896
83	0x3d8dcb40	0.069235325
84	0xbd228c86	-0.039684795
85	0x3dac0119	0.08398647
86	0x3c9327bf	0.017963288
87	0xbcc903fa	-0.024538029
88	0x3d94744a	0.07248743
89	0xbad862fb	-0.0016508991
90	0xbdf0f66e	-0.11765753
91	0xbdacc84d	-0.08436642
92	0x3cb4520a	0.022011776
93	0x3de3ba6d	0.11119542
94	0xbdbe44e1	-0.09290481
95	0x3c9073bd	0.017633313
96	0xbd9d6c04	-0.07686618
97	0x3d81955d	0.06327317
98	0x3d0a28f6	0.03373047
99	0xbd8e9c58	-0.06963414
100	0x3d49d6b3	0.04927702
101	0x3cd7beb5	0.026336053
102	0xbda3875f	-0.07984804
103	0x3d66705f	0.05625951
104	0x3de6c004	0.11267093
105	0xbd50eaec	-0.05100529
106	0xbd9a729c	-0.07541391
107	0x3d9989f9	0.07497019
108	0x3d79a73e	0.06095051
109	0xbbe4e170	-0.006984882
110	0xbcf0fcbe	-0.029417392
111	0xbce4ad4a	-0.027914662
112	0x3c2658c8	0.010153003
113	0x3dcc44f6	0.09974091
114	0xbd9eab05	-0.07747463
115	0x3cc82e26	0.024436068
116	0x3c8ab5ec	0.01693245
117	0xbd60489f	-0.054756757
118	0xbca2d8c2	-0.019878749
119	0xbda8b1d1	-0.08237041
120	0x3d2f17a6	0.042747162
121	0xbd2ff86b	-0.04296152
122	0x3d9bbffb	0.07604977
123	0xbb7e90b2	-0.003884357
124	0xbd718c83	-0.058971893
125	0xbd31f050	-0.04344207
126	0x3cb5f66f	0.022212235
127	0x3df2cb8b	0.11855229
128	0xbd2bbe16	-0.041929327
129	0xbcd9de9f	-0.026595412
130	0xbd4dad68	-0.0502142
131	0x3dd4e5ab	0.10395368
132	0xbd7fc7b0	-0.062446296
133	0xbe4e0bb3	-0.2012165
134	0xbc9da4c5	-0.019243607
135	0xbccb24e5	-0.024797866
136	0x3d38e28e	0.045137934
137	0xbd48558c	-0.04890971
138	0xbd60ce6a	-0.05488435
139	0xbdd9bf44	-0.10632184
140	0x3cc107e2	0.02356333
141	0x3cd0c847	0.025486125
142	0x3c732643	0.014840665
143	0xbc335733	-0.010946083
144	0xbcd469c6	-0.025929343
145	0xbda5c38f	-0.080939405
146	0xbd971618	-0.07377261
147	0x3d0837a3	0.033256184
148	0xbd2dd38e	-0.042438082
149	0x3d97dd7d	0.074152924
150	0xbd7d92a7	-0.061907437
151	0x3d3d46e0	0.04621017
152	0xbd8e3929	-0.06944496
153	0x3d2cdf90	0.042205393
154	0x3d974d10	0.073877454
155	0xbd63b88a	-0.055595912
156	0x3d49d23c	0.04927276
157	0x3d91af26	0.07113485
158	0xbd088a61	-0.033335093
159	0x3c8dd5cf	0.017313866
160	0xbd9bd636	-0.07609217
161	0xbca90097	-0.020630164
162	0xbcaf5902	-0.021404747
163	0xbd7eebbf	-0.062236544
164	0xbde9fb1c	-0.114248484
165	0x3d180405	0.03711321
166	0xbdda9595	-0.10673062
167	0x3dafb1f9	0.085788675
168	0xbc860b46	-0.016362797
169	0x3c9507a6	0.018192124
170	0xbd788631	-0.06067485
171	0x3d83ff8e	0.064452276
172	0x3da7ab30	0.08186948
173	0x3d1e70bc	0.03868173
174	0xbc95a23b	-0.018265834
175	0x3c702678	0.014657609
176	0x3d322e54	0.043501213
177	0xbd69641b	-0.056980234
178	0xbda24718	-0.07923716
179	0x3da20a5c	0.07912132
180	0xbdcd139e	-0.10013507
181	0x3da1bd1d	0.078973986
182	0x3da4a70f	0.080396764
183	0x3dcb3d31	0.09923781
184	0xbd259dcd	-0.040433694
185	0x3a89aa75	0.0010503071
186	0x3af225c0	0.0018474385
187	0xbcf239a7	-0.029568506
188	0xbdcca8e6	-0.09993152
189	0xbc41f4a6	-0.011838114
190	0x3d549b53	0.05190594
191	0x3ce90012	0.028442416
192	0xbdcac209	-0.099002905
193	0xbd74ee4a	-0.059797563
194	0x3c50520f	0.012714877
195	0x3d327e31	0.043577377
196	0xbb128eba	-0.0022362904
197	0x3e04a5a8	0.12953818
198	0x3c91f9dd	0.01781934
199	0x3dce30b5	0.10067884
200	0x3d7d14b3	0.06178732
201	0xba4a9b16	-0.0007728798
202	0xbda8f5d8	-0.08250016
203	0x3c8d301e	0.017234858
204	0xbd6b4a5e	-0.05744397
205	0xbdd4a739	-0.10383458
206	0x3d7bd44c	0.06148176
207	0x3d820289	0.0634814
208	0xbde4f06b	-0.111786686
209	0x3da8a9f1	0.08235539
210	0xbd75361a	-0.05986605
211	0xbcee0675	-0.029055813
212	0x3cc0b971	0.023525925
213	0x3d414275	0.04718252
214	0x3d08b965	0.03337993
215	0x3c8e551d	0.01737457
216	0xbdf49542	-0.11942531
217	0x3dc4b27f	0.09604358
218	0xbd9b3e74	-0.07580271
219	0xbdcc03de	-0.09961675
220	0x3d81d46c	0.063393444
221	0xbd2cdb6a	-0.042201437
222	0x3ce56485	0.028002033
223	0xbd765056	-0.060135208
224	0x3d93ad06	0.07210736
225	0xbd8ad1c3	-0.0677829
226	0x3d0af184	0.033921733
227	0x3db3da80	0.0878191
228	0xbda6b0ed	-0.08139215
229	0x3d5a2b6b	0.053264063
230	0x3d79def7	0.06100365
231	0xbd1be6e4	-0.03806199
232	0x3dbe4326	0.09290151
233	0xbc8b9535	-0.01703892
234	0x3dfb70e5	0.12277392
235	0x3c390014	0.0112915225
236	0xbd7881fa	-0.06067083
237	0xbd65c6e4	-0.05609788
238	0x3d0463d3	0.032321762
239	0xbbd0d898	-0.0063734762
240	0x3d5e17c1	0.054221872
241	0xbc94b706	-0.018153679
242	0xbd652c6f	-0.05595058
243	0x3cf74494	0.030184068
244	0x3c262882	0.010141494
245	0x3dee224f	0.116276376
246	0x3ddce1b8	0.1078524
247	0x3d328e4e	0.043592744
248	0x3c522fd7	0.012828789
249	0x3caacb07	0.020848764
250	0xbd27a1f2	-0.040925927
251	0x3cfad1a0	0.030617535
252	0x3de4b7fc	0.11167905
253	0xbce2616a	-0.027634341
254	0x3d49ac1a	0.049236394
255	0xbc00aabd	-0.007853207

model.9.bias f4 [84]
0	0x3d63c09d	0.055603612
1	0x3dc32805	0.095291175
2	0xbd6a5446	-0.057209276
3	0x3d20e584	0.039281383
4	0xbda16cc3	-0.07882073
5	0x3ca6e4e7	0.020372821
6	0xbd5cf332	-0.053942867
7	0xbd67db47	-0.056605604
8	0xbd3c90a4	-0.046036378
9	0xbdcb9d5d	-0.09942124
10	0x3d9a4ed3	0.07534566
11	0x3d33864c	0.043829247
12	0x3d073c3e	0.033016436
13	0xbd419ca3	-0.04726852
14	0x3d94cbbc	0.07265422
15	0x3d08a6d4	0.033362225
16	0x3e12bab3	0.14329033
17	0x3dea348a	0.11435802
18	0xbd061df5	-0.032743413
19	0x3d7b3e84	0.061338916
20	0x3d976355	0.07391993
21	0x3dd557d5	0.10417143
22	0x3c481f8e	0.0122145545
23	0xbd3ed8df	-0.046593543
24	0x3b76549e	0.0037587057
25	0x3cba5529	0.022745686
26	0x3d5c7c56	0.053829513
27	0x3d60eee6	0.05491533
28	0xbccd3df3	-0.025053954
29	0x3cd39b32	0.025830839
30	0x3d00e20c	0.031465575
31	0x3bcc8ed8	0.0062426142
32	0x3c6e028a	0.014526973
33	0xbab189eb	-0.0013545131
34	0x3dbdd644	0.092693835
35	0x3db9ad5e	0.0906627
36	0x3a42c94c	0.0007430508
37	0xbb94be91	-0.004539319
38	0x3d15bd91	0.036557738
39	0x3dcc6111	0.099794514
40	0x3d86c802	0.06581117
41	0x3bc9ccff	0.0061584706
42	0x3d984c44	0.074364215
43	0xbdcc91c3	-0.09988739
44	0xbc4a210f	-0.012336983
45	0x3dcca515	0.099924244
46	0xbd4ca99f	-0.04996645
47	0xbdb030b3	-0.08603039
48	0x3d3c9ce4	0.04604806
49	0xbd3cf908	-0.046135932
50	0xbc369756	-0.01114448
51	0x3d21223e	0.039339297
52	0x3b8d015c	0.0043031406
53	0xbc6d6e6b	-0.014491658
54	0x3dd8c837	0.10585063
55	0xbb816418	-0.0039486997
56	0xbc854d61	-0.016272249
57	0x3d13fa67	0.036127474
58	0xbdcb35d9	-0.0992238
59	0xbc0a9729	-0.008458891
60	0x3d7930c9	0.06083754
61	0x3b4a1bcb	0.003083932
62	0x3d60b072	0.05485577
63	0x3ca495d4	0.020090975
64	0x3dc36bb7	0.09542029
65	0x3d176bc4	0.036968008
66	0x3ddf3d7a	0.109003976
67	0xbc51cb13	-0.012804764
68	0xbd73427b	-0.059389573
69	0x3c4b3f99	0.0124053
70	0x3b7c2e5d	0.0038479783
71	0x3dd9dc13	0.10637679
72	0x3d9e1d47	0.07720428
73	0x3da191df	0.07889151
74	0x3cf23af4	0.029569127
75	0x3dccbfa4	0.0999749
76	0xba6bb724	-0.00089918287
77	0xbc50480b	-0.012712489
78	0xbd9df726	-0.077131554
79	0xbdd217c0	-0.10258436
80	0x3d6f2dbd	0.05839323
81	0xbc1a9318	-0.009434484
82	0x3c79fce4	0.015258048
83	0x3b19a256	0.0023442707

model.11.weight f4 [10, 84]
0	0x3de9f331	0.11423338
1	0xbdf1d257	-0.11807697
2	0x3e16ef4e	0.14739725
3	0x3e8adb8b	0.27120623
4	0x3d9b6057	0.07586735
5	0xbd3f49a6	-0.046701096
6	0x3c42101f	0.011844664
7	0xbe29a8dc	-0.16568321
8	0xbe0588f8	-0.1304053
9	0xbe5623f7	-0.20912157
10	0x3daed94e	0.08537541
11	0x3d5fb1b4	0.05461283
12	0x3e768465	0.24073942
13	0x3e1ee811	0.15518214
14	0x3d97b67f	0.07407855
15	0xbddf5d4f	-0.10906469
16	0x3e42a535	0.19008334
17	0x3db6d295	0.08926884
18	0x3dabbb28	0.083853066
19	0x3ddce6bd	0.10786197
20	0xbe0ddb7e	-0.13853261
21	0xbe7bd0fd	-0.24591441
22	0x3e15e63b	0.14638607
23	0xbdf10b3c	-0.11769721
24	0xbe7ae37d	-0.24500842
25	0xbe64586f	-0.2229936
26	0xbce450e8	-0.02787061
27	0x3dc32801	0.095291145
28	0x3e27c60a	0.1638414
29	0xbda9dfd5	-0.08294646
30	0x3db27783	0.08714201
31	0xbe13c3c4	-0.14430147
32	0x3b83450b	0.0040060333
33	0x3dcd24b9	0.1001677
34	0x3e628682	0.22121623
35	0xbd01e6bf	-0.031714197
36	0x3e2cc790	0.16873002
37	0x3e2566c2	0.1615248
38	0xbd659db6	-0.056058608
39	0x3e53402c	0.20629948
40	0x3cdce8a6	0.026966404
41	0xbd899cab	-0.06719335
42	0x3e22a040	0.15881443
43	0xbd49f898	-0.049309343
44	0x3e667fce	0.22509691
45	0xbdbc1462	-0.09183575
46	0xbd5fc751	-0.054633442
47	0xbc4203f0	-0.011841759
48	0xbe4b8880	-0.1987629
49	0xbdd460e0	-0.1037004
50	0xbe117759	-0.14205684
51	0xbd3748b2	-0.044747062
52	0x3e3a1b8e	0.18174574
53	0x3bb4d849	0.0055189473
54	0x3df564d2	0.119821206
55	0x3d6f9c25	0.05849852
56	0xbd15c823	-0.03656782
57	0x3d41f5c0	0.047353506
58	0x3d808a73	0.06276407
59	0x3e2ce713	0.16885023
60	0xbba63dab	-0.0050732694
61	0xbd5cebce	-0.05393582
62	0xbd271a6e	-0.04079669
63	0xbda7aaec	-0.08186898
64	0x3df14018	0.11779803
65	0x3da9addd	0.08285115
66	0x3b1dd11e	0.0024080942
67	0x3e1b8c13	0.15190153
68	0x3bb18214	0.005417118
69	0xbd8e19d1	-0.06938518
70	0x3e378fb6	0.17925915
71	0x3e636ee0	0.22210264
72	0x3d32d4b2	0.043659873
73	0xbdb87cd1	-0.09008182
74	0x3e0f36b0	0.13985705
75	0xbd33f9a6	-0.043939255
76	0x3de75f73	0.11297502
77	0xbd5cc58f	-0.053899344
78	0x3e131a9c	0.1436562
79	0xbded54a6	-0.11588411
80	0xbe19ebaf	-0.15031312
81	0x3d91de09	0.07122428
82	0x3d9a4647	0.075329356
83	0x3c95a524	0.018267222
84	0xbde2fbcc	-0.11083183
85	0xbda89d98	-0.082331836
86	0x3dd44cb2	0.10366191
87	0xbdc57130	-0.096407294
88	0x3dc5c8bb	0.09657427
89	0x3d3cc72d	0.046088386
90	0xbda5d9e0	-0.08098197
91	0xbd67bbf0	-0.056575716
92	0x3d451e07	0.04812434
93	0x3e1d92d6	0.15388045
94	0xbd89f5d9	-0.06736345
95	0xbe042034	-0.1290291
96	0x3eafaa05	0.34309402
97	0x3d68a2b6	0.0567958
98	0xbdc7de9c	-0.09759256
99	0xbe3450e3	-0.17608981
100	0xbdcc05f3	-0.09962072
101	0xbe2fe963	-0.17178874
102	0xbdde4dfd	-0.10854719
103	0xbd4ea73d	-0.05045246
104	0x3e4bb4e6	0.19893226
105	0xbc7c939e	-0.015416054
106	0xbe01d3a9	-0.12678398
107	0xbe03840c	-0.1284334
108	0x3d3245e6	0.04352369
109	0xbe1c91b2	-0.15289953
110	0x3e176767	0.14785539
111	0x3e0ce391	0.13758685
112	0x3dcbf322	0.09958483
113	0x3e40bef3	0.18822841
114	0xbdff2e32	-0.12459983
115	0xbe1da193	-0.15393667
116	0xbe2ebc6f	-0.17064069
117	0x3dd3eaf6	0.103475496
118	0x3db9871c	0.09058973
119	0xbdb72a1b	-0.08943578
120	0xbe4ac232	-0.19800642
121	0xbde6b7fa	-0.112655595
122	0xbe671d1e	-0.22569701
123	0xbe15973c	-0.14608473
124	0xbe2db0fa	-0.16962042
125	0xbe0cd98f	-0.13754867
126	0xbe556581	-0.20839502
127	0x3dbc470b	0.09193238
128	0x3c950765	0.018192003
129	0xbdbec425	-0.09314755
130	0x3dc91e17	0.09820192
131	0x3e9a34cf	0.30118415
132	0x3e2aed18	0.16692007
133	0xbd166f9a	-0.036727525
134	0x3dff43bd	0.12464092
135	0x3d775333	0.06038208
136	0x3e2c1a23	0.16806845
137	0xbcd234a2	-0.025659863
138	0xbcb08a74	-0.021550395
139	0xbd9ed55d	-0.077555396
140	0x3df44d3c	0.11928794
141	0xbe55e273	-0.20887165
142	0x3df15fde	0.11785863
143	0xbe31326a	-0.17304388
144	0xbcb73bdd	-0.022367412
145	0xbd6b016a	-0.057374395
146	0xbe163969	-0.14670338
147	0xbe3164dc	-0.17323631
148	0x3db8637a	0.09003349
149	0xbd659ff6	-0.056060754
150	0x3e433331	0.19062497
151	0x3daf5cfd	0.08562658
152	0x3da84ddf	0.08217978
153	0xbd7191c2	-0.058976896
154	0x3d25740f	0.040393885
155	0x3ce5874d	0.028018618
156	0xbc2f6f47	-0.010707683
157	0xbd58cc9b	-0.052929502
158	0xbd6fcbd2	-0.058543988
159	0xbed06dee	-0.4070887
160	0xbe24942f	-0.16072153
161	0x3ece492b	0.40290198
162	0xbcbeed4c	-0.023306511
163	0x3d8b298f	0.06795036
164	0xbce89d2a	-0.028395254
165	0xbc6a3ff1	-0.014297471
166	0xbd81da49	-0.06340463
167	0x3ca4dcb3	0.020124769
168	0xbdd30604	-0.10303882
169	0x3eb47e62	0.35252672
170	0x3d6b3a65	0.057428736
171	0xbe96906d	-0.29407063
172	0x3db1f3cf	0.08689081
173	0x3de0fb7f	0.10985469
174	0xbdd84a70	-0.10561073
175	0xbd6ddf3d	-0.058074225
176	0x3c748829	0.014925041
177	0xbe1494b8	-0.14509857
178	0xbd699010	-0.057022154
179	0xbd7d9296	-0.061907373
180	0xbd21ea4e	-0.03953009
181	0x3e06b98c	0.13156718
182	0xb91827e5	-0.00014510711
183	0xbea82b63	-0.328456
184	0x3ec6eefe	0.38854212
185	0x3da94ac2	0.08266212
186	0xbd4dffb2	-0.05029268
187	0x3eadba0e	0.3393101
188	0x3e4b98b6	0.19882473
189	0x3e1bdd7e	0.15221211
190	0xbbcdfe69	-0.0062864316
191	0xbd8fcb9b	-0.070212565
192	0x3d3907e3	0.045173537
193	0x3d9405ab	0.072276436
194	0x3bf1bc68	0.007377196
195	0x3b88b456	0.0041718883
196	0xbe54a663	-0.20766596
197	0x3e543179	0.20721997
198	0x3e8ba8dc	0.27277267
199	0x3e2d73d3	0.16938715
200	0x3c5a0178	0.013306014
201	0xbd19d427	-0.03755584
202	0xbd3c8d4c	-0.04603319
203	0xbd8cfbf7	-0.06883996
204	0x3e216d8f	0.1576445
205	0x3e4c9890	0.19980073
206	0xbe23d96f	-0.16000913
207	0x3dd12934	0.10212937
208	0x3dbe0c5f	0.09279703
209	0xbd620a96	-0.055185877
210	0xbd764423	-0.060123574
211	0x3d825dcc	0.063655466
212	0xbd79749c	-0.060902223
213	0x3ed561c2	0.41676146
214	0x3d63c4e9	0.05560771
215	0xbd9de64c	-0.07709941
216	0xbdcad04f	-0.09903013
217	0xbcdfe3fd	-0.027330393
218	0xbcb956ca	-0.022624392
219	0xbddb402e	-0.10705601
220	0x3d1273a7	0.035754826
221	0x3d7052b2	0.058672614
222	0x3e6b041a	0.22950783
223	0xbd4333c7	-0.0476568
224	0xbb4a85de	-0.0030902545
225	0xbe32a7a9	-0.1744677
226	0xbdcee24a	-0.10101755
227	0xbe2bd3bd	-0.1677999
228	0xbe8f316e	-0.279674
229	0xbc153ee2	-0.009109231
230	0xbd835319	-0.06412334
231	0x3e476d38	0.19475257
232	0xbd8aafb9	-0.06771798
233	0xbd634a44	-0.055490747
234	0x3e185526	0.14876232
235	0xbe3aa96f	-0.18228696
236	0xbcf5646b	-0.02995511
237	0x3d875483	0.06607916
238	0x3e0c91c3	0.13727479
239	0x3e596155	0.21228535
240	0x3d67223d	0.056429137
241	0x3d267ce4	0.04064645
242	0xbba3c221	-0.004997507
243	0x3dc8d5d1	0.09806407
244	0xbd9d2996	-0.076739475
245	0xbc8f576f	-0.017497746
246	0xbe28f3f2	-0.16499308
247	0xbe164f13	-0.14678602
248	0xbe4e24fb	-0.20131294
249	0xbc5703c9	-0.013123461
250	0x3d51bdb2	0.0512063
251	0xbe0be34d	-0.13660927
252	0x3d16f5de	0.03685557
253	0xbcebd5a7	-0.0287884
254	0x3e318e50	0.17339444
255	0x3b34f4d4	0.002761175

model.11.bias f4 [10]
0	0x3d8381a8	0.06421214
1	0x3b224c3c	0.0024764678
2	0x3dc1d0aa	0.09463628
3	0xbdb7abb3	-0.08968296
4	0xbdcdfb59	-0.100577064
5	0xbde599b3	-0.112109564
6	0x3dd2297e	0.1026182
7	0xbdbf18d5	-0.09330908
8	0x3e36699b	0.17813723
9	0xbdba6244	-0.09100774
