04_cnn/4_resnet.pth (torch_old, 754235 bytes, 109 tensors)

conv1.weight f4 [16, 1, 5, 5]
0	0x3d9f2707	0.07771116
1	0xbf335e47	-0.7006573
2	0x3fb6ef74	1.4291825
3	0xbf92d7bd	-1.1472088
4	0x3d9b0835	0.07569925
5	0x3e8ea2a0	0.27858448
6	0xbf41e8b8	-0.75745726
7	0x3f9ac51b	1.2091402
8	0x3e1fb82a	0.15597597
9	0x3e9a6140	0.3015232
10	0x3ec51b23	0.38497266
11	0xc02aad4a	-2.6668267
12	0xbed29371	-0.41128114
13	0x400d7cff	2.2107542
14	0x3e84063a	0.25786
15	0x3f1b51af	0.60671514
16	0xc031eddd	-2.780143
17	0xbf112818	-0.56701803
18	0x400c3692	2.1908307
19	0xbe40cd44	-0.18828303
20	0x3ef0c343	0.47023973
21	0xc005f48b	-2.0930507
22	0x3f4535cd	0.7703522
23	0x3ea17ee7	0.3154213
24	0xbea7ea74	-0.3279606
25	0xbec17357	-0.3778331
26	0x3d782252	0.060579605
27	0x3f313ba6	0.6923164
28	0xbec7582e	-0.38934463
29	0x3e820742	0.25396162
30	0xbf0dc989	-0.55385643
31	0xbd5eab8f	-0.05436283
32	0x3fdfac4e	1.7474458
33	0xbfb790a6	-1.4341018
34	0x3f29dac0	0.6634941
35	0x3d2cb43d	0.042164076
36	0xbf89b8ff	-1.0759581
37	0x402209ad	2.5318406
38	0xbf50606d	-0.81397134
39	0xbdd6d6a1	-0.10490156
40	0x3d2dc2d4	0.04242213
41	0xc03a18be	-2.9077601
42	0x4046cad7	3.1061304
43	0x3d7610cb	0.06007461
44	0xbf06bbf3	-0.5263054
45	0xbf143c82	-0.5790483
46	0xbfc2825c	-1.5196033
47	0x3fb9863a	1.4494088
48	0x3f267486	0.6502155
49	0x3d2d2d0e	0.042279296
50	0xbf08b79c	-0.53405166
51	0xbf8982f7	-1.0743092
52	0x3f2259c8	0.63418245
53	0x3f6f19dd	0.9339884
54	0x3f1e099b	0.61733407
55	0x3f8ea92f	1.1145381
56	0x3f404c0c	0.7511604
57	0xbf64c60d	-0.893647
58	0xc00d40f0	-2.2070885
59	0xbfc2c95f	-1.5217704
60	0x3f099383	0.5374071
61	0x3d4fe63b	0.050756674
62	0xbf40519d	-0.7512453
63	0xc028613a	-2.6309342
64	0xc0175e10	-2.3651161
65	0x3fa2461a	1.2677643
66	0x3e29f6ce	0.16598055
67	0x3fe11c69	1.7586795
68	0x3fee09a9	1.8596698
69	0x3f605bac	0.8763988
70	0xbd82b769	-0.06382639
71	0x3f66eac3	0.9020197
72	0xbf029b04	-0.51017785
73	0xbe9516e1	-0.29119018
74	0xbee71aa9	-0.45137528
75	0x3f9cb40e	1.2242448
76	0x3f10235b	0.5630395
77	0xbf803c71	-1.0018445
78	0xbe9828ad	-0.29718533
79	0xbf063c31	-0.52435595
80	0xbf9ead68	-1.2396669
81	0xc01ff718	-2.4994564
82	0xc05b0193	-3.421971
83	0xc021c30f	-2.5275304
84	0xbf22705b	-0.6345269
85	0xbfa00d61	-1.2504083
86	0xc037e9eb	-2.8736522
87	0xc06e3115	-3.7217457
88	0xc02a5b99	-2.6618407
89	0x3f77feeb	0.9687335
90	0x3d541238	0.051775187
91	0xbf034e7a	-0.5129162
92	0xc00f7dfa	-2.242064
93	0xbf84bb41	-1.0369645
94	0x3f89b4cd	1.0758301
95	0xbe8cfc0c	-0.27536047
96	0x3f26e1fe	0.65188587
97	0x3e8cfce7	0.275367
98	0x3f3805cd	0.7188385
99	0x3f326f64	0.6970122
100	0xbe3c0de3	-0.18364672
101	0xbefbaa20	-0.49153233
102	0xbd884486	-0.06653695
103	0x3f9996eb	1.1999182
104	0x3f7217ce	0.94567573
105	0xc043ce2c	-3.0594587
106	0xc022646c	-2.5373793
107	0x3f12dbda	0.57366717
108	0x400ce32c	2.2013655
109	0x3fa0011f	1.2500342
110	0xc009dc1f	-2.1540601
111	0xbfa67021	-1.3002969
112	0x3ffc6e33	1.972113
113	0x3f0ab02b	0.5417506
114	0x3fa5c6d3	1.2951301
115	0x3f4d291b	0.80140847
116	0x3e447ee8	0.19189036
117	0xbf2c75c7	-0.67367214
118	0xbebce1fe	-0.36891168
119	0xbdcd1046	-0.100128695
120	0xbf5d7492	-0.86506
121	0x3d655756	0.055991493
122	0x3e60b7b9	0.21945085
123	0x3e065562	0.13118508
124	0x3ec6d495	0.38834062
125	0xbf89cf69	-1.0766422
126	0x3e8d452f	0.27591845
127	0xbf8b5ccc	-1.0887694
128	0x3ff42e6e	1.9076669
129	0x3ea1beb8	0.3159082
130	0xbf315189	-0.6926504
131	0x3d0a930c	0.03383164
132	0xbfa97847	-1.3239831
133	0x3f3d137a	0.73857844
134	0x3f5ee849	0.8707319
135	0x3f57f139	0.8435245
136	0xc0042142	-2.06453
137	0xc0859681	-4.174622
138	0xbf000d4d	-0.50020295
139	0xbf4108b5	-0.7540391
140	0x3f8f90e1	1.1216089
141	0xbf8fead6	-1.1243541
142	0xc0a9b31f	-5.3031154
143	0xc04e5d0b	-3.224429
144	0xbeff6b8c	-0.4988674
145	0x3f91aa66	1.1380126
146	0xbeed115c	-0.46302307
147	0xbf627670	-0.8846197
148	0xbf08e6c1	-0.534771
149	0x3ebfd75d	0.37468997
150	0x3e50a8fd	0.20376964
151	0xc02a978d	-2.6655
152	0xc04e687a	-3.2251267
153	0xbf0eedb6	-0.5583147
154	0xc01d58e9	-2.4585516
155	0x3f058918	0.52162313
156	0xbc66de83	-0.014091137
157	0xc00905c7	-2.1409776
158	0x3e972825	0.29522815
159	0xbebc2a8c	-0.3675121
160	0x3eb85d8e	0.36008877
161	0x3fdd3cf7	1.728423
162	0x3fb4b2e7	1.4117097
163	0x3e2094c9	0.15681757
164	0x3f4d9e4e	0.8031968
165	0xbe01132c	-0.1260497
166	0x3f85bae3	1.0447658
167	0x3f4971e2	0.78689396
168	0xbdafc2a1	-0.085820444
169	0x3fa4cf52	1.2875769
170	0xbeb8c632	-0.3608871
171	0x3f2311eb	0.63699216
172	0x3f9f4dce	1.2445619
173	0x3ed18ef0	0.40929365
174	0x3f8a7d50	1.0819492
175	0x3f144b68	0.5792756
176	0x3f1f2f57	0.6218161
177	0x3f4084b7	0.75202507
178	0x3e069fed	0.13146944
179	0x3e6a026b	0.22852485
180	0xbfb3863b	-1.4025339
181	0xc006c878	-2.1059856
182	0xbda165b7	-0.07880729
183	0x3dd6ab09	0.10481841
184	0x3fc61ae6	1.5476959
185	0xbfd8105c	-1.6879992
186	0xc0c14cd9	-6.040631
187	0xc04de7c0	-3.21727
188	0xbf60e33f	-0.8784675
189	0x3f21b5d8	0.63168097
190	0x3fa46b34	1.2845216
191	0xbe4f4667	-0.202417
192	0xc01745fe	-2.363647
193	0x3f3a510b	0.7277991
194	0x3ea26ed7	0.3172519
195	0x3f07bf4e	0.5302628
196	0x3ee8bfe8	0.45458913
197	0x3eee8f97	0.46593925
198	0x3f9020d6	1.1260021
199	0xbf2524c5	-0.6450923
200	0xbf4fd229	-0.81180054
201	0x3f9ea6ab	1.2394613
202	0xbe80516e	-0.25062126
203	0x3febd7c4	1.8425221
204	0x3f5c6fd2	0.86108124
205	0xbfdce79d	-1.7258183
206	0xbe31d979	-0.17368115
207	0x3e813c84	0.25241482
208	0x40c52b0d	6.161505
209	0xbedec44b	-0.43509135
210	0x3fc1ccd2	1.5140631
211	0x3f5da66a	0.8658205
212	0x3f456474	0.77106404
213	0x4006eb40	2.1081085
214	0xbf8c5a4a	-1.0965054
215	0x3f257dcb	0.6464507
216	0x3f1c49ad	0.6104992
217	0xbeeddbbc	-0.46456707
218	0xbe74ac05	-0.23893745
219	0x3ee95388	0.45571542
220	0xbfb2a439	-1.3956367
221	0xbf213fb2	-0.62987816
222	0x3ecedd17	0.40403053
223	0x3fbf2566	1.4933288
224	0x3d9bfe25	0.076168336
225	0x3f376e27	0.71652454
226	0x3f3a9b78	0.72893476
227	0x3fe48d78	1.7855673
228	0x3fa1d0ee	1.2641885
229	0x3eab0181	0.33399585
230	0x3f0b386e	0.5438298
231	0x3fc1a774	1.5129228
232	0xbe2cf5e4	-0.16890675
233	0xbf51e2f4	-0.8198693
234	0x3ee96642	0.4558583
235	0xbfc655ef	-1.5494975
236	0xbffa9bcd	-1.9578797
237	0xbf37d32f	-0.71806616
238	0x3f2389ec	0.6388233
239	0x3fb69c28	1.4266405
240	0xc027c78f	-2.621555
241	0xc07fdeb9	-3.997969
242	0xbfde6b92	-1.7376578
243	0x3f24ad5e	0.6432704
244	0x3ed44b75	0.4146382
245	0x3f60a7a5	0.87755805
246	0xbe7fae94	-0.2496894
247	0x3ee460e9	0.44605187
248	0x3f58f8e7	0.84754795
249	0xbe3ddc50	-0.18541074
250	0xbd9542d1	-0.07288135
251	0x3eb7b38e	0.35879177
252	0x3e669d95	0.2252105
253	0x3f6c4d87	0.923058
254	0x3f19ac42	0.6002847
255	0xbeefd0fb	-0.46839127

bn1.weight f4 [16]
0	0x40229808	2.5405293
1	0x4031d503	2.7786262
2	0x3fba142f	1.453741
3	0x406e46d6	3.7230735
4	0x3fe259cf	1.7683657
5	0x4079ba81	3.9020083
6	0x400d19bf	2.2046964
7	0x4082a0ce	4.0821295
8	0x400ef9fc	2.2340078
9	0x3fd460c0	1.6592026
10	0x3fe31969	1.774213
11	0x3fc90577	1.5704793
12	0x4035dc04	2.8415537
13	0x3fed1e91	1.8524953
14	0x3fa2716d	1.2690865
15	0x40025ae8	2.0367985

bn1.bias f4 [16]
0	0x3fc32096	1.524432
1	0x3df339a6	0.1187623
2	0x3e60fe61	0.21972038
3	0xc003f5c5	-2.0618756
4	0x3eb137ea	0.34612972
5	0xbfb89ef9	-1.4423515
6	0xbdbf868c	-0.09351835
7	0xbfb55817	-1.4167508
8	0xbfef7329	-1.8707019
9	0xbf05bbff	-0.52239984
10	0xbe605e87	-0.2191106
11	0xbeb8efc4	-0.36120427
12	0x3eedefae	0.46471924
13	0xbfbec091	-1.4902517
14	0x3f1ed5d5	0.6204503
15	0x3fb42384	1.4073339

bn1.running_mean f4 [16]
0	0x3ecf6b49	0.4051154
1	0xbf2a332a	-0.6648432
2	0x3f327f02	0.6972505
3	0x41002531	8.00908
4	0xbd27dd46	-0.040982507
5	0x40d4bb1d	6.647841
6	0xbd22ebf4	-0.039775804
7	0x407d8ee7	3.961847
8	0xc08d56f3	-4.416864
9	0x3f44cd80	0.7687607
10	0xbdbffaff	-0.093740456
11	0xbf129170	-0.5725317
12	0xbef32c4c	-0.47494733
13	0x40c76f07	6.232303
14	0x4098d763	4.7762923
15	0x3e92e6cc	0.2869171

bn1.running_var f4 [16]
0	0x41353b24	11.326939
1	0x41173716	9.450949
2	0x413e1879	11.880975
3	0x4327ae82	167.68167
4	0x41ce7787	25.808363
5	0x42f13047	120.59429
6	0x41963753	18.777014
7	0x425c3ea9	55.06119
8	0x42793d3b	62.309795
9	0x41a3000d	20.375025
10	0x4182f55b	16.369802
11	0x40eaf5ed	7.34252
12	0x41123d66	9.13999
13	0x42d3ca68	105.895325
14	0x428116cd	64.54453
15	0x406a8542	3.6643834

group1.group.0.model.0.weight f4 [16, 16, 3, 3]
0	0xc00fdde5	-2.2479184
1	0x3f8b7da9	1.0897723
2	0x3fbff7d2	1.4997504
3	0xbff91360	-1.9459038
4	0x3f89daef	1.0769938
5	0xbf66c095	-0.90137607
6	0xbe3674a0	-0.17817926
7	0x3f7878c5	0.9705928
8	0xbf90c122	-1.130894
9	0xbe8ca67b	-0.27470765
10	0xbe9ef8d3	-0.31049213
11	0x3ea38723	0.3193904
12	0x3f2a8b92	0.6661922
13	0x3f16e15c	0.5893762
14	0x3dff66f9	0.12470812
15	0x3ea14324	0.31496537
16	0x3fe51ed3	1.7900032
17	0xbdde62ff	-0.10858726
18	0x3f2e3b43	0.68059176
19	0x3e9f7bf7	0.31149265
20	0xc0262cf3	-2.5964935
21	0x3f2c3c10	0.6727915
22	0x3e2cb040	0.16864109
23	0x3ea35f6b	0.31908736
24	0xbeca6a4f	-0.39534232
25	0xbecd0dcb	-0.40049586
26	0x3f54394f	0.82899946
27	0x3f2f7825	0.685427
28	0x40a00fbc	5.0019207
29	0x403b68e8	2.928278
30	0x3ff64525	1.9239851
31	0x40a89380	5.2680054
32	0x3f83d2ec	1.0298743
33	0x400a421f	2.1602857
34	0x3f5855a9	0.8450571
35	0xbf85ee18	-1.0463285
36	0x3e0f26fa	0.13979712
37	0xbd47bfc1	-0.048766855
38	0x3fd59a1a	1.6687653
39	0xbf9169f1	-1.1360456
40	0xbec59e39	-0.38597277
41	0x400a2482	2.1584783
42	0xbee6d3ec	-0.4508356
43	0x3e4482be	0.19190499
44	0x3f0d3988	0.5516591
45	0x3fdd94e7	1.7311066
46	0x40828f87	4.0800204
47	0xbedffcd7	-0.4374759
48	0x3f23dbf1	0.6400748
49	0x3f72b442	0.948063
50	0xbfd12673	-1.6339859
51	0xbf4ed58a	-0.80794585
52	0xbfa82af0	-1.3138103
53	0xbfc65852	-1.5495703
54	0x3c373df5	0.011184205
55	0xbeb4929c	-0.35268104
56	0xbfd20c96	-1.6410091
57	0x3f1b2425	0.6060203
58	0x3f46b19d	0.77614766
59	0xbf6493c2	-0.8928796
60	0xbf2bc8be	-0.67103183
61	0x3f38751a	0.7205368
62	0x3e9679c7	0.29389784
63	0xbf764331	-0.96196276
64	0x405fd8c3	3.497605
65	0x3fec0231	1.8438169
66	0xbf89d785	-1.0768896
67	0x408d59ed	4.4172273
68	0xbe70eb79	-0.23527326
69	0xbee844ca	-0.45364982
70	0xbdc6c88a	-0.097062185
71	0xc03c0840	-2.9380035
72	0xbe76391b	-0.24045222
73	0x3e8ba391	0.2727323
74	0x3f8db10f	1.1069659
75	0xbe2a2fb3	-0.16619758
76	0x3e7c81ef	0.2465894
77	0xbc676eac	-0.014125507
78	0xbf7f6e7d	-0.99777967
79	0xbdb1c40c	-0.08679971
80	0x3bc23616	0.0059268577
81	0xbe204f90	-0.1565535
82	0x403a67d7	2.912588
83	0x4018c6d5	2.3871357
84	0x3e9c7b64	0.3056289
85	0x3f079175	0.52956325
86	0xbfd521d8	-1.6650953
87	0x3fa9b646	1.325875
88	0xbfdd296a	-1.7278264
89	0xc00ec1cd	-2.2305787
90	0x3f1de7cd	0.61681825
91	0x3e842df4	0.2581631
92	0x3ddd911d	0.10818694
93	0x3e4035cb	0.1877052
94	0xbf315011	-0.69262797
95	0x3edbd04c	0.42932355
96	0x3e844192	0.25831276
97	0x3f8e4288	1.1114054
98	0x3f7bd282	0.98368084
99	0xbe92a8fd	-0.28644553
100	0xbf2f531e	-0.684862
101	0xc0001984	-2.0015574
102	0x3f8072aa	1.0034993
103	0x3f902267	1.1260499
104	0x3f03958d	0.5140007
105	0x3ed3d5cf	0.4137406
106	0x3f2901e9	0.6601854
107	0x3fce93db	1.6138872
108	0xbf6d46bb	-0.9268605
109	0x3ecdc455	0.40188852
110	0x3ef5a95e	0.4798078
111	0xbe51b5f0	-0.2047956
112	0x3f3d8a81	0.74039465
113	0xbf8d522b	-1.1040701
114	0x3e69b384	0.22822386
115	0x3f1b3ee6	0.6064285
116	0xbf4ca688	-0.79941607
117	0x40318f22	2.7743611
118	0x400a6bef	2.1628377
119	0xbf97c69e	-1.1857488
120	0x3fd9aa46	1.7005088
121	0x3ecd160d	0.40055886
122	0xbf7acaf2	-0.9796592
123	0xbf6d2f0f	-0.9264993
124	0xc004863e	-2.0706935
125	0xbf17d0f8	-0.59303236
126	0xbf2cc8ad	-0.67493707
127	0x3f8f3f10	1.119112
128	0xbe89d065	-0.26916805
129	0xbf66794f	-0.9002885
130	0x3f9e347c	1.2359767
131	0xbe2107e1	-0.15725662
132	0xbf2e12f3	-0.67997664
133	0x3e0a4853	0.13504152
134	0xbf058b00	-0.5216522
135	0x3c5b95ac	0.013402384
136	0xbf2e32f4	-0.680465
137	0x3ee1b491	0.44083074
138	0xbf0496d1	-0.5179263
139	0xbed574c7	-0.41690657
140	0xbec21902	-0.37909704
141	0xbfa373a5	-1.2769667
142	0xbf3f9772	-0.7484046
143	0x3c2b197e	0.0104430895
144	0x3dd2431f	0.102667086
145	0xbe271cd8	-0.16319597
146	0x3f034821	0.51281935
147	0x3f936208	1.1514292
148	0x3ec76e20	0.38951206
149	0x3f00746e	0.5017766
150	0x3f6727d8	0.9029517
151	0xbecd4208	-0.4008944
152	0xbec7fbe5	-0.39059368
153	0x3e8cbcab	0.27487692
154	0xbc86d6d4	-0.01645986
155	0xbcda5940	-0.026653886
156	0x3f5e3eaa	0.8681437
157	0x3f4c318f	0.7976312
158	0x3eb97d0b	0.36228213
159	0xbf130c19	-0.57440335
160	0x3f2eb164	0.68239427
161	0x3e7fc05e	0.24975726
162	0xbfbb2c08	-1.4622812
163	0xbf2b3c5c	-0.66888976
164	0xc02c3886	-2.69095
165	0xbe7d1317	-0.24714313
166	0x3f41fcb0	0.75776196
167	0xbf0d1af0	-0.5511923
168	0xbf0d1834	-0.55115056
169	0x3e384e78	0.17998683
170	0xbc7f8518	-0.015595697
171	0x4051ce8f	3.2782323
172	0x4080cb0c	4.024786
173	0x4030e2b9	2.763838
174	0x400281e2	2.0391774
175	0x409f0207	4.9689975
176	0x4080f777	4.030208
177	0xbfc4c7da	-1.537349
178	0x3fb80140	1.4375381
179	0x40014a7e	2.0201716
180	0x3eb5f542	0.3553868
181	0x3cd5f035	0.026115516
182	0xbe27fbf5	-0.16404708
183	0x3f94b08d	1.1616379
184	0xbf07e98d	-0.53090745
185	0xbdcbc352	-0.09949364
186	0x3f939e0b	1.1532606
187	0xbed9d6ba	-0.42546636
188	0xbe5ffec7	-0.21874534
189	0x40283e99	2.6288207
190	0x40b5bba3	5.679155
191	0x400efea7	2.2342927
192	0x3f485080	0.78247833
193	0x40a29832	5.0810785
194	0x3fe1cb03	1.7640079
195	0xc018beb6	-2.38664
196	0x3ec9dc41	0.39425853
197	0xbee560b0	-0.4480033
198	0x3ee1d30c	0.44106328
199	0x3e8002ee	0.25002235
200	0xbec08afa	-0.3760603
201	0x3f254124	0.6455252
202	0xbe0490bd	-0.12945838
203	0xbf33e514	-0.7027142
204	0xbef88c03	-0.4854432
205	0x3d277e3b	0.040891867
206	0x3e884431	0.26614526
207	0x3f89e087	1.0771645
208	0x4021e5cf	2.5296514
209	0x3ff4b6a8	1.9118242
210	0x3f82a39c	1.020618
211	0x404964d9	3.1467803
212	0x4055d2d7	3.3409936
213	0xbde30d59	-0.1108653
214	0xbf25b436	-0.64728105
215	0x3dba1a54	0.09087053
216	0xbf1b6b87	-0.6071095
217	0xbeeacda5	-0.4586002
218	0xbf6a60c2	-0.9155389
219	0x3e88b7e2	0.2670279
220	0xbf488e15	-0.783418
221	0xbf861d0d	-1.0477616
222	0xbee78b73	-0.4522358
223	0xbeedc50b	-0.46439394
224	0xbeb1a57e	-0.34696573
225	0x3f6c48ce	0.9229859
226	0x3ef811e0	0.48451138
227	0x4007084a	2.109881
228	0x3fc13285	1.5093542
229	0x3f2e6e3a	0.6813694
230	0x3fc0d136	1.5063846
231	0xbf416864	-0.7554991
232	0xbfb32559	-1.3995773
233	0xc002262d	-2.03358
234	0x3f0f611c	0.5600755
235	0x3f4beeae	0.7966107
236	0xbd62c7b5	-0.055366237
237	0xbf4bdd6b	-0.7963473
238	0xbd8096a1	-0.0627873
239	0xbf379d95	-0.71724826
240	0xbf944a7b	-1.158523
241	0xbf84b762	-1.0368464
242	0xbf8dc048	-1.1074305
243	0xbf279d79	-0.6547466
244	0xc0041ef2	-2.0643888
245	0xc023d9f7	-2.5601785
246	0xbd990fee	-0.074737415
247	0xbf50a14f	-0.8149614
248	0xc0088909	-2.133364
249	0xbe347ec4	-0.17626482
250	0x3ea59a36	0.32344216
251	0xbef104cd	-0.47073975
252	0x3d70c951	0.05878574
253	0x3eb588d3	0.3545595
254	0x3e81ba0e	0.2533726
255	0x3eb2c530	0.34916067

group1.group.0.model.0.bias f4 [16]
0	0xbdb2ae0d	-0.08724604
1	0x3c26d887	0.01018346
2	0xbdabed58	-0.08394879
3	0x3d2df2ce	0.042467885
4	0x3d039ed2	0.032133885
5	0xbd912556	-0.070871994
6	0xbdcfaeb6	-0.10140745
7	0x3e4cc201	0.19995882
8	0xbdb4f07c	-0.08834931
9	0x3cd14304	0.02554465
10	0x3d2a55dc	0.041585788
11	0xbd8b6611	-0.06806577
12	0x3d11915a	0.03553901
13	0x39a6c679	0.0003180986
14	0x3dd15255	0.10220782
15	0xbd8fbc02	-0.070182815

group1.group.0.model.1.weight f4 [16]
0	0x3fe30ad6	1.7737682
1	0x3fee8445	1.8634115
2	0x3f867ba4	1.0506482
3	0x3f7c90f0	0.9865866
4	0x40195317	2.3956964
5	0x3f87aab3	1.0598968
6	0x4070a77f	3.7602232
7	0x3fd54e54	1.6664529
8	0x3fed00e7	1.85159
9	0x3f4dc55c	0.8037927
10	0x405ff375	3.4992344
11	0x403fb837	2.9956186
12	0x3fbdae9b	1.481891
13	0x3fd33369	1.6500064
14	0x3ffa2f53	1.9545692
15	0x3fa7b722	1.3102763

group1.group.0.model.1.bias f4 [16]
0	0xbd95b76a	-0.07310374
1	0xbeae83ea	-0.34085017
2	0xbe41eaac	-0.18937176
3	0x3e8eb193	0.27869853
4	0xbe92d7f8	-0.28680396
5	0xbe9199e3	-0.2843772
6	0xbf9a2023	-1.2041057
7	0x3e8de885	0.2771646
8	0xbeb2596d	-0.3483385
9	0xbd9d960f	-0.07694637
10	0xbf6efb15	-0.9335187
11	0xbfa0a5ea	-1.2550633
12	0x3e02ba98	0.12766492
13	0x3e8cc7f9	0.27496317
14	0x3f10b257	0.56522125
15	0xbf7340b1	-0.95020586

group1.group.0.model.1.running_mean f4 [16]
0	0x41c53726	24.651928
1	0x42a70764	83.514435
2	0x4264ad1a	57.169044
3	0x42072d27	33.794094
4	0xc2706718	-60.100677
5	0x42811cd0	64.556274
6	0xc2aa93f5	-85.28898
7	0xc2ade3c2	-86.94484
8	0xc297881d	-75.76585
9	0xc247b5f6	-49.927696
10	0xc28f7be2	-71.74196
11	0xc27377ce	-60.866997
12	0xc2310afb	-44.260723
13	0xc2a885bb	-84.26119
14	0xc070bbbe	-3.7614589
15	0x42ba73aa	93.22591

group1.group.0.model.1.running_var f4 [16]
0	0x44c22eb5	1553.4596
1	0x456f712d	3831.0735
2	0x451d403f	2516.0154
3	0x44ab8b64	1372.356
4	0x4593640f	4716.5073
5	0x455eb286	3563.1577
6	0x45303767	2819.4626
7	0x45274819	2676.506
8	0x45349053	2889.0203
9	0x453efd9d	3055.8508
10	0x459e3d11	5063.6333
11	0x4544362b	3139.3855
12	0x454972df	3223.1794
13	0x4517d318	2429.1934
14	0x44b77c8e	1467.8923
15	0x4575179a	3921.475

group1.group.0.model.3.weight f4 [16, 16, 3, 3]
0	0xbfeb02a0	-1.8360176
1	0xc0338b83	-2.8053901
2	0xbe8057bf	-0.25066945
3	0xbfb6ba41	-1.427559
4	0x3f0a0ae9	0.539229
5	0xbf15e448	-0.58551455
6	0x3e7eb90c	0.24875277
7	0x402bf2d1	2.6866953
8	0x3d71dce5	0.059048552
9	0xc0604650	-3.5042915
10	0xc00db13f	-2.2139432
11	0x3f2bcaa8	0.67106104
12	0xbd973f03	-0.073850654
13	0x3eae7c8c	0.34079397
14	0x3f943aa1	1.1580392
15	0x40039ca8	2.0564365
16	0x3fdfba54	1.7478738
17	0x3f81ca19	1.01398
18	0xc0188743	-2.3832557
19	0xbdf34cd9	-0.11879892
20	0xbe173465	-0.1476608
21	0xbdf79dff	-0.12090682
22	0x3eac4d82	0.33652884
23	0xbf2f5a0b	-0.6849677
24	0xbf5f7c1e	-0.8729876
25	0xbf35abf8	-0.7096553
26	0xbfb4ba7e	-1.4119413
27	0xbe5f92ca	-0.2183334
28	0xc05db75f	-3.464317
29	0x3edb1c6e	0.42795128
30	0x3f673165	0.90309745
31	0xbe4d1d97	-0.20030819
32	0x3fc37b45	1.5271994
33	0x3fb66182	1.4248507
34	0x3d24e2ec	0.040255472
35	0x3f7af6ab	0.98032635
36	0xbfb059d1	-1.377741
37	0xbddac29d	-0.10681651
38	0xbef71431	-0.48257592
39	0x3e6b3a29	0.22971405
40	0x3e15b3ae	0.14619324
41	0xc029e345	-2.6544964
42	0x3fa64546	1.298989
43	0xbee67f3c	-0.45018947
44	0xbfb1210f	-1.3838214
45	0xc02a0275	-2.6564
46	0xbfdb35af	-1.7125758
47	0xbf27b3cc	-0.65508723
48	0xbf782e21	-0.9694539
49	0x3f18f6e7	0.59751743
50	0x3b992b5c	0.0046743583
51	0xbf0a4172	-0.5400611
52	0x3f6434e3	0.891432
53	0x3ef3cf96	0.47619313
54	0x3eb8637e	0.36013407
55	0x3e46cbca	0.19413677
56	0x3d22bb8d	0.039729644
57	0xbd9132d1	-0.070897706
58	0xbf498490	-0.787179
59	0x3ef300e0	0.47461605
60	0x3eb08ffe	0.34484857
61	0xbee0dd35	-0.43918768
62	0x3f812267	1.0088624
63	0x3fcaed38	1.5853643
64	0x3fd62c67	1.67323
65	0x3eb8f69a	0.36125642
66	0xbec9e766	-0.39434355
67	0xbf07668b	-0.52890843
68	0x3ef7ad56	0.48374432
69	0xbea12915	-0.31476656
70	0xbdc68c76	-0.096947595
71	0x3f899924	1.074986
72	0x3e88e9d9	0.26740912
73	0x3eb7dda2	0.3591128
74	0xbe259a9d	-0.16172262
75	0x3f8b06a1	1.0861398
76	0x3fc4e0cd	1.5381104
77	0xbf877775	-1.058333
78	0x3f853ec3	1.0409778
79	0x3f37c6db	0.71787804
80	0xbfd1bc70	-1.6385632
81	0xc027c767	-2.6215456
82	0xbfa209fb	-1.2659296
83	0x400a937b	2.1652515
84	0x3fa7e293	1.311602
85	0xbf415779	-0.755241
86	0x3f8dcc70	1.1078014
87	0x3fcc4f78	1.5961752
88	0xbedbc1c4	-0.4292127
89	0x3ec1ed80	0.3787651
90	0xbfa25c19	-1.2684356
91	0xc02f2727	-2.7367647
92	0x3f8dbeac	1.1073813
93	0x3fc3c23a	1.5293648
94	0xc037e3ee	-2.8732867
95	0x3f8c4d25	1.0961043
96	0x4025f772	2.5932279
97	0x3df370b0	0.11886728
98	0xbf1a96bc	-0.6038625
99	0xc00058bf	-2.0054166
100	0xbf278eb0	-0.654521
101	0x3f8c806d	1.0976692
102	0x3f7b28b4	0.98108983
103	0xbf8afcdf	-1.085842
104	0x3fb42b75	1.4075762
105	0x3fab49fe	1.3381956
106	0x3dfd5bac	0.12371001
107	0x3f3518c0	0.7074089
108	0x3f7160d1	0.94288355
109	0x3e4e947d	0.20173831
110	0xbf7f4267	-0.99710697
111	0x3ff0b071	1.8803846
112	0x3fa0eb27	1.2571763
113	0xbf1ab453	-0.604314
114	0xbe02333a	-0.12714854
115	0x3f199fe1	0.6000958
116	0x3fcf9583	1.6217502
117	0x3fc65f5b	1.549785
118	0xc00f454f	-2.2386053
119	0xbf5615dd	-0.8362711
120	0x3fa7286d	1.3059212
121	0xbea8d15b	-0.32972226
122	0x3fa57dcb	1.2929014
123	0x3e0e94be	0.13923928
124	0x3e983d1d	0.29734126
125	0x40441837	3.063978
126	0x3f99bb9c	1.2010379
127	0x3fd414fc	1.6568904
128	0xbf21c9d2	-0.6319858
129	0x3ef1c1fb	0.47218308
130	0x3fea0227	1.8281907
131	0x3e11fdac	0.14256924
132	0xbf8ea12e	-1.1142938
133	0xbe88be3a	-0.2670763
134	0x3c965a1e	0.018353518
135	0xbfb47467	-1.4098023
136	0xbfb52201	-1.4151002
137	0xbfe1fc9c	-1.7655215
138	0x3cbf6874	0.023365237
139	0xbf20a22f	-0.6274747
140	0xbf9fc4c9	-1.2481929
141	0x3ff4ca91	1.9124318
142	0x3af4eae2	0.0018685723
143	0xbe83c159	-0.2573345
144	0xbfb236fd	-1.3923031
145	0xbff706d6	-1.9298961
146	0xbd8aec9e	-0.067834124
147	0xc002707d	-2.0381157
148	0xbf14e14f	-0.58156294
149	0x3e8039ba	0.25044042
150	0xbf529629	-0.82260376
151	0x3f811c76	1.008681
152	0x3f12be36	0.5732149
153	0xbf5a65e9	-0.8531175
154	0xbe61b460	-0.22041464
155	0xbf5df984	-0.86708856
156	0xbf494ef8	-0.7863612
157	0x3f0a8855	0.54114276
158	0x3ea83c52	0.3285852
159	0x3e69707e	0.22796819
160	0x3f8bcafd	1.0921322
161	0x3f8ccf1a	1.1000702
162	0xbcb75946	-0.022381436
163	0xbea6fd85	-0.32615295
164	0x3f01a84c	0.50647426
165	0x3eb369cf	0.35041663
166	0xbfaddb11	-1.3582479
167	0xbeb0d18e	-0.34534878
168	0xbed9dc58	-0.4255092
169	0xbff91017	-1.9458035
170	0x3eca33eb	0.39492735
171	0xbf6ccb1d	-0.92497426
172	0xbfa90d8d	-1.320726
173	0xbf6e4cad	-0.9308575
174	0xbf6906e2	-0.9102613
175	0xbe7883f7	-0.2426909
176	0x3eb17849	0.34662083
177	0x3e35bc0c	0.17747515
178	0xc00223ea	-2.033442
179	0x3ed48db5	0.41514364
180	0xbe425831	-0.18978955
181	0x3fa3415b	1.275432
182	0xbd4b09f4	-0.04957004
183	0xbf4a5ccb	-0.7904784
184	0xbe9ba923	-0.3040248
185	0xbf1f0eeb	-0.6213214
186	0x3ec061c9	0.37574604
187	0x3e1481c2	0.14502624
188	0x3ed5a3e2	0.41726595
189	0xbf8c843f	-1.0977858
190	0xbfc4dc6b	-1.5379766
191	0x3ee09159	0.4386089
192	0xbecdd433	-0.40200958
193	0xbf9208fc	-1.1408992
194	0xbf0f293c	-0.55922294
195	0xbf3489ea	-0.7052294
196	0xbf108a97	-0.5646147
197	0x3f84aed7	1.0365857
198	0x3fe96b62	1.8235896
199	0xc0054f29	-2.0829566
200	0x404cc88d	3.1997406
201	0xbf60526a	-0.87625754
202	0xc04e573f	-3.224075
203	0x405480ae	3.320354
204	0xbf853f0f	-1.0409869
205	0xc06205f6	-3.5316138
206	0x40048cfe	2.0711055
207	0x3fd93696	1.6969783
208	0x402ab48c	2.6672697
209	0x3feab5f9	1.8336784
210	0xbf9e4494	-1.2364678
211	0xbe88116f	-0.265758
212	0x3e34ce9e	0.17656943
213	0xbfc3e55a	-1.5304368
214	0xbe90fe44	-0.2831899
215	0x3edd5f16	0.43236607
216	0x3dbca4bf	0.0921111
217	0x3feaf105	1.8354803
218	0x3f77eda5	0.9684699
219	0x3e415bbe	0.18882653
220	0xbed486b8	-0.41509032
221	0xbedb479a	-0.42828065
222	0x3ed0bff3	0.40771446
223	0x3dba27d5	0.090896286
224	0x3fa985bf	1.3243941
225	0xbfcb56b3	-1.5885834
226	0x3ecddd92	0.40208107
227	0xbf1814af	-0.5940656
228	0x3c5ebd0b	0.013594876
229	0x3eaff0f1	0.3436351
230	0xbe98e3aa	-0.29861194
231	0xbf5fc932	-0.87416375
232	0xbee23fbd	-0.44189253
233	0xbed9aa5a	-0.4251278
234	0xbe9c2dad	-0.30503598
235	0x3ff41ddf	1.9071616
236	0x3fd578f6	1.6677539
237	0xbf54e61f	-0.83163637
238	0x3e2e273e	0.17007157
239	0x3fe07924	1.7536969
240	0xbeff7864	-0.49896538
241	0xbed93a85	-0.4242746
242	0xbf4fa3f4	-0.8110955
243	0xbdce0d2b	-0.10061105
244	0x3f280a2d	0.65640527
245	0xc0043111	-2.0654948
246	0x3f823bd8	1.0174513
247	0x3f8875d2	1.0660956
248	0xbf685e04	-0.90768456
249	0xbf53e9e6	-0.82778776
250	0x3fc76166	1.5576599
251	0xbf891a74	-1.0711198
252	0xbe21f904	-0.15817648
253	0x3f9b0e9b	1.2113832
254	0xbfd08902	-1.6291811
255	0x3f18b214	0.59646726

group1.group.0.model.3.bias f4 [16]
0	0x3c8480e6	0.016174745
1	0x3e27cbc3	0.16386323
2	0xbd91c703	-0.071180366
3	0x3e2f380c	0.17111224
4	0xbc50fdce	-0.012755824
5	0x3db8864d	0.09009991
6	0x3e1b44ff	0.15163039
7	0x3ca35eb2	0.019942615
8	0x3d98d31d	0.07462142
9	0xbde56fc1	-0.11202956
10	0xbe0823ee	-0.13294956
11	0x3e3c80a3	0.18408446
12	0xbce1a340	-0.027543664
13	0xbde048b4	-0.10951367
14	0xbe8ece0c	-0.27891576
15	0xbda78e4c	-0.08181438

group1.group.0.model.4.weight f4 [16]
0	0x3fc6948f	1.5514086
1	0x3fef74d8	1.8707533
2	0x3f8f4d48	1.1195459
3	0x3f9818bd	1.188255
4	0x3f7ccdd2	0.98751557
5	0x3f85f8d1	1.0466558
6	0x3f8539d4	1.0408273
7	0x3fa1921e	1.2622716
8	0x3f60d284	0.8782122
9	0x3fd38483	1.6524814
10	0x3f977275	1.1831805
11	0x3fd974b8	1.6988745
12	0x3f72d1dd	0.94851476
13	0x400032a6	2.0030913
14	0x3f855d20	1.0419044
15	0x3fa6578c	1.2995467

group1.group.0.model.4.bias f4 [16]
0	0xbf946fa2	-1.1596568
1	0xbf7caa9f	-0.9869785
2	0xbeb367e0	-0.35040188
3	0xbe8695ee	-0.26286262
4	0xbe05371e	-0.13009307
5	0xbe0ceef7	-0.13763033
6	0xbeb88082	-0.36035544
7	0xbf8ee74b	-1.1164335
8	0x3dc0aa6a	0.09407504
9	0xbefb6fda	-0.49108773
10	0xbf29d1c5	-0.6633571
11	0xbf70204c	-0.9379928
12	0x3f3f4780	0.74718475
13	0xbef57576	-0.47941178
14	0xbe9bd814	-0.30438292
15	0xbf923c66	-1.1424682

group1.group.0.model.4.running_mean f4 [16]
0	0x40f173e1	7.5453954
1	0xc09f3b90	-4.976021
2	0xc14e78d0	-12.904495
3	0xc196db1f	-18.856993
4	0xc1b690ee	-22.820766
5	0x41474e5e	12.456633
6	0xc1473472	-12.450304
7	0xc10f1600	-8.942871
8	0xc236fc82	-45.74659
9	0x4159b9ee	13.607893
10	0x3fc45c06	1.5340583
11	0xc19f211d	-19.891169
12	0xc11449ab	-9.267985
13	0x3ef6bef4	0.4819256
14	0xc20241de	-32.564323
15	0xc1b3d073	-22.476782

group1.group.0.model.4.running_var f4 [16]
0	0x43aea133	349.25937
1	0x43a0afa4	321.3722
2	0x43b95655	370.67447
3	0x44217f8b	645.99286
4	0x439a3dd7	308.48312
5	0x44494d67	805.2094
6	0x43ba9e11	373.2349
7	0x437f7c9a	255.48672
8	0x440e55c1	569.3399
9	0x4423590b	653.3913
10	0x43ba5149	372.63504
11	0x43a7cee9	335.6165
12	0x440c9b7f	562.4296
13	0x441aa8f6	618.64
14	0x4424f94c	659.89526
15	0x43a5598f	330.69968

group1.group.0.skip.0.weight f4 [16, 16, 1, 1]
0	0x3ed354fd	0.41275778
1	0x3f083e0d	0.5321968
2	0xbdaf686f	-0.08564841
3	0xbf2a9e67	-0.6664795
4	0x3e2ab461	0.16670372
5	0xbd3e9a32	-0.04653377
6	0x3ddbefb2	0.10739078
7	0xbf083d84	-0.53218865
8	0xbf2a36fe	-0.6649016
9	0x3f057063	0.52124614
10	0xbe9e9dab	-0.30979666
11	0xbd3bb81d	-0.04582988
12	0x3e9f1385	0.3106958
13	0xbe9b6bc7	-0.30355665
14	0xbea3d98e	-0.3200192
15	0x3e91f372	0.28506047
16	0x3e6961c4	0.22791201
17	0x3e686ed7	0.22698532
18	0xbe45a47f	-0.19301032
19	0xbb73228f	-0.0037099456
20	0x3e838f9e	0.2569551
21	0x3e95de25	0.29271045
22	0x3d67427a	0.05645988
23	0xbeb91604	-0.3614961
24	0x3e9ce846	0.3064596
25	0xbea25247	-0.31703398
26	0xbdc7c9ca	-0.09755285
27	0xbe11f09c	-0.14251941
28	0xbdecbb21	-0.115591295
29	0x3e510e8c	0.20415705
30	0x3f043c31	0.51654345
31	0xbd71541b	-0.0589181
32	0x3e05d4af	0.13069414
33	0xbeac1e72	-0.33616978
34	0xbd6b699c	-0.057473764
35	0xbeb572c0	-0.3543911
36	0x3c923871	0.017849179
37	0x3cd2156e	0.025644984
38	0x3f07700f	0.5290536
39	0x3f2a962f	0.6663541
40	0x3d848b6f	0.06471907
41	0xbf07a133	-0.52980345
42	0xbf5c7c19	-0.8612686
43	0x3e1b8dd0	0.15190816
44	0xbd5784f8	-0.052617043
45	0xbde67228	-0.11252242
46	0xbf183831	-0.5946074
47	0x3e513221	0.20429279
48	0xbe20a8ec	-0.15689439
49	0x3e873b00	0.264122
50	0x3ecae57d	0.3962821
51	0x3e0f1382	0.13972285
52	0xbe825742	-0.25457197
53	0xbb8472be	-0.0040419986
54	0x3e5b4697	0.21413647
55	0x3dbdc092	0.092652455
56	0x3eb6f63f	0.35734746
57	0x3e79e200	0.24402618
58	0x3e0cbae5	0.1374317
59	0x3e033770	0.12814116
60	0xbe44ed7d	-0.1923122
61	0x3d9f009d	0.07763789
62	0x3f16a359	0.58843
63	0xbeaca430	-0.33719015
64	0xbf1f2ea1	-0.62180525
65	0xbf05faf5	-0.52336055
66	0x3ded0f28	0.115751565
67	0xbe985c4b	-0.29757914
68	0xbe8999ab	-0.26875052
69	0xbe92f219	-0.2870033
70	0xbe38cb11	-0.18046214
71	0x3e83000d	0.25585976
72	0x3e351f18	0.17687643
73	0x3f00ff0e	0.5038918
74	0x3ee47d52	0.44626862
75	0x3e3b4ca8	0.18290961
76	0xbe3022fa	-0.17200842
77	0xbc97ffa6	-0.01855452
78	0x3ecf5c98	0.4050033
79	0x3e99210c	0.29908025
80	0x3e58b52c	0.21162862
81	0x3ecaf82c	0.39642465
82	0xbbb7ad4a	-0.0056053745
83	0xbea13d44	-0.31492054
84	0x3eb490ba	0.35266668
85	0x3e035e3e	0.1282892
86	0x3f4daf74	0.80345845
87	0x3ea04221	0.31300452
88	0x3f0c8c96	0.5490202
89	0xbdeeaf96	-0.11654584
90	0x3e516e0e	0.20452139
91	0x3e92da30	0.2868209
92	0x3e726ebc	0.23675054
93	0x3f0acf07	0.5422215
94	0xbe216311	-0.15760447
95	0xbf1dec82	-0.6168901
96	0xbebdc580	-0.37064743
97	0x3eaf659c	0.3425721
98	0xbda088ae	-0.078385696
99	0x3dfed9d6	0.12443893
100	0x3cc4f7c6	0.024043929
101	0x3f310392	0.6914607
102	0x3e03cbd8	0.12870729
103	0x3ec7a654	0.38994086
104	0xbe7633a8	-0.24043143
105	0xbe6da4da	-0.23207417
106	0x3e0a556f	0.13509153
107	0x3ee60057	0.44922134
108	0x3eabe752	0.3357492
109	0xbddba130	-0.107241035
110	0xbe2970c5	-0.16546924
111	0x3f1ef965	0.62099296
112	0x3e02cc35	0.12773211
113	0x3e8f07f9	0.2793577
114	0xbf1b81b8	-0.6074481
115	0x3e7c36a0	0.24630213
116	0xbf1836c2	-0.59458554
117	0xbee5560b	-0.44792208
118	0x3deca48e	0.11554824
119	0xbe3c0bbb	-0.1836385
120	0x3e9e277d	0.30889502
121	0xbe45141e	-0.19245955
122	0x3ee175a7	0.44035074
123	0xbe105bc7	-0.1409751
124	0xbf09b642	-0.5379373
125	0xbe8e5937	-0.2780244
126	0x3cff7be7	0.03118701
127	0x3e43ae44	0.19109446
128	0x3d3fbeb5	0.04681273
129	0xbf1a81ff	-0.6035461
130	0x3f48d533	0.78450316
131	0x3f2257b9	0.63415104
132	0xbe228b49	-0.15873446
133	0xbd8af434	-0.06784859
134	0xbe07036a	-0.13184896
135	0x3edfea5d	0.43733492
136	0x3ea21ece	0.31664127
137	0x3d63849c	0.055546388
138	0xbf3ce437	-0.7378573
139	0xbd6739b3	-0.05645151
140	0x3d63fcf5	0.05566116
141	0xbf47c325	-0.7803214
142	0x3e586faf	0.21136354
143	0xbcac2f7a	-0.021018732
144	0x3e13e2a7	0.1444193
145	0xbea05c6b	-0.3132051
146	0xbe76a37a	-0.24085799
147	0xbe6ca8ff	-0.23111342
148	0xbda90d92	-0.082545415
149	0x3e094f15	0.13409074
150	0xbebca0ff	-0.3684158
151	0xbed1aeda	-0.40953714
152	0x3ea6cff6	0.32580537
153	0xbdecf4e4	-0.11570147
154	0xbf28dd8b	-0.6596305
155	0x3edb34d2	0.42813736
156	0xbf0706cf	-0.52744764
157	0x3c2fa746	0.010721033
158	0xbe8822f0	-0.26589155
159	0xbe4f01c5	-0.20215519
160	0x3dc1284d	0.09431515
161	0x3ec05067	0.37561342
162	0xbecffe38	-0.4062364
163	0xbe9d41b8	-0.30714202
164	0xbf21a1de	-0.63137615
165	0xbe414b33	-0.18876342
166	0x3eb0880d	0.34478799
167	0xbf0a672d	-0.54063684
168	0x3f6c4f7e	0.92308795
169	0xbe84cc32	-0.2593704
170	0x3dcc1486	0.09964852
171	0xbd31886c	-0.043342993
172	0x3e896211	0.2683263
173	0xbf2eff95	-0.6835874
174	0xbe5b4264	-0.21412045
175	0x3e23454f	0.15944408
176	0x3ec9587d	0.39325324
177	0x3d836acc	0.06416854
178	0x3e2eb63f	0.17061709
179	0x3f50573c	0.8138311
180	0x3e84a931	0.25910333
181	0xbd3d266f	-0.04617923
182	0xbe210c44	-0.15727335
183	0xbd3e9635	-0.046529967
184	0x3de02521	0.10944582
185	0x3e1f2087	0.15539752
186	0x3eea47f8	0.45758033
187	0xbf6151ea	-0.88015616
188	0xbeb89c77	-0.36056873
189	0x3eaf71f1	0.34266618
190	0xbe5d4dbb	-0.21611683
191	0xbc5ca84d	-0.01346786
192	0x3f1373dd	0.5759867
193	0x3f1c0a62	0.6095334
194	0xbeb4881a	-0.35260087
195	0x3d84d2e6	0.06485538
196	0x3e3813db	0.17976324
197	0xbea597b2	-0.32342297
198	0xbe8fb5b7	-0.28068325
199	0xbdb3f0c3	-0.08786156
200	0xbf5b7bb3	-0.85735625
201	0x3d438f94	0.04774435
202	0x3d3aecad	0.045635868
203	0xbe0f6fb2	-0.14007452
204	0xbe27ccb4	-0.16386682
205	0xbf1288db	-0.57240075
206	0x3e89e54b	0.2693275
207	0xbd476452	-0.048679657
208	0x3db7782b	0.08958467
209	0xbf6c4743	-0.92296237
210	0xbd090fe2	-0.033462413
211	0x3e880f70	0.26574278
212	0xbed09a41	-0.40742686
213	0x3e92afbd	0.28649703
214	0x3ceb746c	0.028742038
215	0xbe8f1404	-0.27944958
216	0x3e9d8fb7	0.30773708
217	0xbe98706b	-0.29773268
218	0x3e6018b3	0.21884422
219	0xbdce0a5f	-0.10060572
220	0x3dcd31c5	0.100192584
221	0xbe585226	-0.21125087
222	0x3f2383a8	0.63872766
223	0x3e91c0fd	0.2846755
224	0x3f17a232	0.59231865
225	0xbea5906a	-0.32336742
226	0xbf049109	-0.51783806
227	0xbccb674b	-0.024829527
228	0xbf11cf9f	-0.5695743
229	0x3d868d62	0.065699354
230	0xbc91ad21	-0.01778275
231	0x3f2d7bd1	0.67767054
232	0xbf2599fb	-0.6468808
233	0xbeea6994	-0.45783675
234	0x3e690f84	0.22759825
235	0x3ebb5c27	0.36593744
236	0x3d5a03ad	0.05322616
237	0x3f08d895	0.5345548
238	0xbebcc6e1	-0.36870483
239	0x3da5da7e	0.08098315
240	0x3ea2aeeb	0.31774077
241	0xbeb1b285	-0.34706512
242	0x3eee2345	0.46511284
243	0x3e23fe6e	0.16015026
244	0xbd8f1e20	-0.06988168
245	0xbec127ba	-0.3772562
246	0x3d7f4085	0.06231739
247	0x3d6f58f8	0.058434457
248	0x3df728d9	0.12068338
249	0x3d56f286	0.052477382
250	0x3e81b176	0.25330704
251	0xbc3a6017	-0.011375449
252	0xbd521a0c	-0.05129437
253	0xbed15d13	-0.40891322
254	0x3cabc054	0.020965733
255	0xbea1a094	-0.31567824

group1.group.0.skip.1.weight f4 [16]
0	0x3f800000	1.0
1	0x3f800000	1.0
2	0x3f800000	1.0
3	0x3f800000	1.0
4	0x3f800000	1.0
5	0x3f800000	1.0
6	0x3f800000	1.0
7	0x3f800000	1.0
8	0x3f800000	1.0
9	0x3f800000	1.0
10	0x3f800000	1.0
11	0x3f800000	1.0
12	0x3f800000	1.0
13	0x3f800000	1.0
14	0x3f800000	1.0
15	0x3f800000	1.0

group1.group.0.skip.1.bias f4 [16]
0	0x00000000	0.0
1	0x00000000	0.0
2	0x00000000	0.0
3	0x00000000	0.0
4	0x00000000	0.0
5	0x00000000	0.0
6	0x00000000	0.0
7	0x00000000	0.0
8	0x00000000	0.0
9	0x00000000	0.0
10	0x00000000	0.0
11	0x00000000	0.0
12	0x00000000	0.0
13	0x00000000	0.0
14	0x00000000	0.0
15	0x00000000	0.0

group1.group.0.skip.1.running_mean f4 [16]
0	0x00000000	0.0
1	0x00000000	0.0
2	0x00000000	0.0
3	0x00000000	0.0
4	0x00000000	0.0
5	0x00000000	0.0
6	0x00000000	0.0
7	0x00000000	0.0
8	0x00000000	0.0
9	0x00000000	0.0
10	0x00000000	0.0
11	0x00000000	0.0
12	0x00000000	0.0
13	0x00000000	0.0
14	0x00000000	0.0
15	0x00000000	0.0

group1.group.0.skip.1.running_var f4 [16]
0	0x3f800000	1.0
1	0x3f800000	1.0
2	0x3f800000	1.0
3	0x3f800000	1.0
4	0x3f800000	1.0
5	0x3f800000	1.0
6	0x3f800000	1.0
7	0x3f800000	1.0
8	0x3f800000	1.0
9	0x3f800000	1.0
10	0x3f800000	1.0
11	0x3f800000	1.0
12	0x3f800000	1.0
13	0x3f800000	1.0
14	0x3f800000	1.0
15	0x3f800000	1.0

group1.group.1.model.0.weight f4 [16, 16, 3, 3]
0	0x3f65c965	0.8976043
1	0x3fbbf6ff	1.4684752
2	0xbf146da8	-0.5797982
3	0xbf1d9137	-0.61549705
4	0x3f760aed	0.9611042
5	0x3f64c263	0.8935911
6	0xc02220cf	-2.5332525
7	0xbfcee02e	-1.6162164
8	0x3f1dc9ea	0.6163622
9	0xbfa1ffa8	-1.2656145
10	0x3f2d0032	0.67578423
11	0x3f9f855b	1.2462572
12	0xbfdd6d20	-1.7298927
13	0xbf3d6a6e	-0.73990524
14	0x3fd63d5d	1.6737477
15	0xbf1f6a6c	-0.6227176
16	0xc01e749e	-2.4758677
17	0xbf48666e	-0.78281295
18	0xc0359684	-2.8373117
19	0xc06068d2	-3.5063977
20	0xbf76e856	-0.96448267
21	0xbfad4db0	-1.3539333
22	0xbfb3c142	-1.4043353
23	0xc00df018	-2.2177792
24	0xbea3efb7	-0.32018825
25	0xbf867068	-1.0503054
26	0xc0221404	-2.5324717
27	0x3f239454	0.63898206
28	0xbe863d28	-0.26218534
29	0xbf9ede9a	-1.2411683
30	0x3ea2fd6f	0.3183398
31	0x3fc4d8b7	1.5378636
32	0x3e235b70	0.1595285
33	0x3dcefbf8	0.10106653
34	0x3fff717b	1.9956506
35	0x3fb8bc01	1.4432374
36	0x3f0c5df8	0.54830885
37	0x3fdea9e1	1.7395593
38	0xbf64e915	-0.89418155
39	0xbe0ef9cb	-0.13962476
40	0x3f9f7fed	1.2460915
41	0x3f265711	0.649766
42	0x3dcfe57e	0.10151194
43	0x3e913746	0.28362483
44	0x3fb13711	1.384493
45	0x3faa793c	1.3318248
46	0x3da7a8f0	0.08186519
47	0x3f48b7a5	0.7840522
48	0x3fcc0a5b	1.594066
49	0x3f2ccb2f	0.67497534
50	0xbf58f403	-0.8474733
51	0x3fb1d0df	1.3891867
52	0x3e22a75b	0.15884154
53	0xbf2f029f	-0.68363374
54	0xbfbc0850	-1.4690037
55	0xc0296fb8	-2.6474438
56	0xbdb41da5	-0.08794717
57	0x3e28fb23	0.16502051
58	0xbfd2ac07	-1.6458749
59	0xbf20b25d	-0.6277216
60	0x3f9e1bcb	1.2352232
61	0xbd834aca	-0.06410749
62	0xbf849b70	-1.0359936
63	0x3fbe38db	1.4861101
64	0x3f3fde4e	0.74948585
65	0xc01742ea	-2.363459
66	0x3d42a9c3	0.04752518
67	0x3f20549b	0.626291
68	0xbf722dcc	-0.9460113
69	0xbf224bbd	-0.6339682
70	0x3f4fa913	0.8111736
71	0x3fd809e0	1.6878014
72	0xbc481be2	-0.012213679
73	0xbf7bf1b3	-0.9841568
74	0xbfbade13	-1.4599022
75	0x3f1dd399	0.61651
76	0xbea4de10	-0.3220067
77	0xbeff91dc	-0.4991597
78	0x3fa2e664	1.272656
79	0x3f84ae43	1.036568
80	0x3f02bb4f	0.5106706
81	0x3fa8909b	1.316913
82	0x3edfe06e	0.43725914
83	0xbf3c4836	-0.73547685
84	0xbec78b46	-0.38973445
85	0xbf597673	-0.84946364
86	0xbf5ce93d	-0.86293393
87	0xbfa51628	-1.2897387
88	0xbfe0b72b	-1.7555898
89	0xbf66c22a	-0.9014002
90	0xbf0920aa	-0.53565466
91	0xbfc0c69a	-1.5060608
92	0xbee91908	-0.4552691
93	0xbfe74226	-1.8067062
94	0xbf1db177	-0.61598915
95	0xbf89ee03	-1.077576
96	0xc018c855	-2.3872273
97	0x3f0d0ae6	0.55094755
98	0x3f21bf11	0.6318217
99	0x3e56e7e1	0.20986892
100	0xbfaea557	-1.3644208
101	0xbf897482	-1.073868
102	0x3ee7e41c	0.4529122
103	0xbecbd813	-0.3981329
104	0xbfdd434b	-1.7286161
105	0x3efc274a	0.49248725
106	0x3f85b9ce	1.0447328
107	0x3ed844db	0.42240033
108	0x3f49ef8c	0.78881145
109	0xc036b28d	-2.8546479
110	0xbfb71de2	-1.4305995
111	0x3e3d9dcb	0.18517224
112	0xbff91505	-1.945954
113	0xbf22a03e	-0.6352576
114	0xbf9c35f2	-1.2203963
115	0xbdc1ecc8	-0.094689906
116	0x3ddd27ca	0.10798605
117	0x4007dc22	2.1228108
118	0x3fdd5280	1.7290802
119	0x3f7bcb35	0.98356944
120	0x400efb53	2.2340896
121	0x3fd31830	1.6491756
122	0xbdd1f54b	-0.10251864
123	0x402af5f7	2.6712625
124	0x400bf7ae	2.1869922
125	0x3f5f9e5d	0.8735102
126	0x3fe57e55	1.7929178
127	0x3ec81eb0	0.39085913
128	0xbfce41e8	-1.6113863
129	0x3ea74e5e	0.32676977
130	0x3f1c01ba	0.60940135
131	0xbfbc03ad	-1.4688622
132	0xbfd7b386	-1.6851661
133	0xbfcf6ffc	-1.620605
134	0xbfcc3ac8	-1.5955439
135	0x3e837824	0.25677598
136	0xbf0adf53	-0.54247016
137	0xbf864931	-1.0491086
138	0x3f566c5d	0.837591
139	0x3fb8ad23	1.4427837
140	0xbee204c0	-0.4414425
141	0xbeec8abe	-0.46199602
142	0x3f70aa07	0.9400944
143	0x3f275ac6	0.65372884
144	0xbd7cfff3	-0.06176753
145	0x3f9f7b45	1.2459494
146	0xbe906255	-0.2820002
147	0x3f6f867c	0.9356458
148	0x3f73c095	0.9521573
149	0xbfa486ff	-1.2853698
150	0x3f3164ac	0.6929424
151	0xbf770608	-0.9649358
152	0xbee301f5	-0.4433743
153	0xbe027d2a	-0.12743059
154	0x3f91084a	1.1330655
155	0xbfca8aef	-1.5823649
156	0xbf1ef671	-0.6209479
157	0x3f141f5b	0.57860345
158	0xbfcff211	-1.6245748
159	0xbfd42a59	-1.6575423
160	0x3fa15506	1.2604072
161	0x3eb7698f	0.35822722
162	0x3ec35cb5	0.38156667
163	0x3f67e92d	0.90590173
164	0xbff4b054	-1.9116311
165	0x3eec1147	0.46106932
166	0x3d6dfd11	0.05810267
167	0xbf6803aa	-0.9063059
168	0xbf188978	-0.5958476
169	0xbfe9b4e6	-1.8258331
170	0x3faf4afc	1.3694758
171	0xbf7e1034	-0.99243474
172	0x3f71ed00	0.9450226
173	0x404171e1	3.0225756
174	0x3f4eef93	0.8083431
175	0x3f014c4f	0.5050706
176	0xbdd0ebc4	-0.10201219
177	0x3f4a693e	0.79066837
178	0xc004cd74	-2.0750399
179	0xbf401306	-0.7502903
180	0x3cdda84d	0.027057791
181	0xbf6003c0	-0.8750572
182	0x3fbe4aaf	1.4866542
183	0xbf9074ec	-1.1285682
184	0x3f8972c2	1.0738146
185	0x3fb7222b	1.4307302
186	0x3f042441	0.5161782
187	0x3fc7018d	1.5547348
188	0xbf46d96e	-0.7767552
189	0x3fea3fc6	1.8300712
190	0x3fcd5346	1.6041038
191	0xbf9a3b87	-1.2049416
192	0x3f21d1be	0.63210666
193	0x3df5ea1a	0.12007542
194	0x3e03bd16	0.128651
195	0xbfa95ba0	-1.3231087
196	0x3e9b5a8f	0.30342528
197	0x40159892	2.3374372
198	0xbf1d8dc1	-0.61544424
199	0x3f95f7b7	1.1716222
200	0xc03e3dad	-2.9725144
201	0xbeaafed2	-0.33397537
202	0x3f917dda	1.1366532
203	0xc002da4c	-2.0445738
204	0xbd64cea4	-0.05586113
205	0xbec9eb46	-0.39437312
206	0xbf196a31	-0.5992766
207	0xbfffd714	-1.9987512
208	0x3f0fab53	0.56120795
209	0x3f8fc6c1	1.123253
210	0x3f213a1b	0.62979287
211	0x3fc92811	1.5715352
212	0xbef18948	-0.4717505
213	0x4008436b	2.1291149
214	0xbee28013	-0.44238338
215	0xbfa5dbef	-1.2957743
216	0x3f899708	1.0749216
217	0x3e601306	0.21882257
218	0xbdfa63e8	-0.12226087
219	0x3f81b17e	1.0132291
220	0xbf4b2a58	-0.79361486
221	0xbee45023	-0.4459239
222	0x3f09e85f	0.53870195
223	0xbde37279	-0.11105818
224	0x3f729774	0.9476235
225	0xbf6ac64a	-0.91708815
226	0x3e89bba0	0.2690096
227	0x3f5fcb4f	0.874196
228	0x3f9eb5f4	1.2399278
229	0x3f8016be	1.000694
230	0xbe91d6a2	-0.28484064
231	0x4014363d	2.3158104
232	0x3ef64bbd	0.4810466
233	0xbfa2a97a	-1.270797
234	0x3fb4bd88	1.412034
235	0x3f1b9aaa	0.60782874
236	0xbf101c33	-0.5629303
237	0xbf33b929	-0.70204407
238	0xbf83a779	-1.0285484
239	0x3f514d07	0.8175816
240	0xc0068bd1	-2.1022837
241	0xbf49fb04	-0.78898644
242	0x3fca70ec	1.5815711
243	0x3f9467d3	1.1594185
244	0x3f1b7aad	0.60734063
245	0xc02ff334	-2.749219
246	0x3f09cc02	0.53826916
247	0x3ef2472a	0.4731992
248	0x3d873809	0.06602485
249	0x3e7a5bae	0.24449036
250	0x3f8bcf9b	1.0922731
251	0x4035a192	2.8379865
252	0x400ad2c4	2.169114
253	0x3f63d837	0.8900179
254	0xbfb2f6f8	-1.3981619
255	0x3e37d398	0.1795181

group1.group.1.model.0.bias f4 [16]
0	0x3922f45c	0.00015540555
1	0x3d7e939f	0.0621525
2	0xbd4b0fe1	-0.04957569
3	0xbc100ddb	-0.008792366
4	0xbddbd1ed	-0.107333995
5	0x3dbc8c6f	0.09206473
6	0x3dc06456	0.093941376
7	0xbdcac128	-0.09900123
8	0xbcf82370	-0.030290335
9	0xbd951723	-0.072798036
10	0xbd0894a2	-0.033344872
11	0xbc8d6437	-0.0172597
12	0x3d67eb16	0.05662068
13	0x3a658b49	0.0008756412
14	0x3d5d73f2	0.054065652
15	0x3b804ce9	0.0039154184

group1.group.1.model.1.weight f4 [16]
0	0x3fedd65f	1.8581046
1	0x3ff3a839	1.9035712
2	0x3fa74916	1.3069179
3	0x3ff6f3c3	1.929314
4	0x4032e2dc	2.7950964
5	0x3fba4345	1.4551779
6	0x3fb91354	1.4459023
7	0x4011c1fe	2.2774653
8	0x3fbd087b	1.4768213
9	0x3f9fae21	1.2475015
10	0x40333649	2.8001883
11	0x3fe15727	1.7604722
12	0x3fe7c12b	1.8105825
13	0x3fbd9901	1.4812318
14	0x3f8c9c46	1.0985191
15	0x3ff47767	1.9098939

group1.group.1.model.1.bias f4 [16]
0	0xbb692c13	-0.0035579249
1	0x3fa70dba	1.3051064
2	0xbd0e7724	-0.03478159
3	0xbf82759f	-1.0192145
4	0xbfdae08a	-1.7099774
5	0xbea5d9d5	-0.32392755
6	0x3e684191	0.22681262
7	0xbfbea605	-1.4894415
8	0x3f10dee6	0.56590116
9	0xbead9750	-0.33904505
10	0xbe8392cf	-0.25697944
11	0xbfa0dbdb	-1.2567095
12	0xbf2abeb7	-0.6669726
13	0xbf09f9e4	-0.5389693
14	0xbfa2c3d6	-1.2716014
15	0xbd8c5198	-0.068515

group1.group.1.model.1.running_mean f4 [16]
0	0xc21790a7	-37.891262
1	0x421bb186	38.923363
2	0xc22c57e6	-43.08584
3	0xc1421eb4	-12.132496
4	0x41298996	10.59609
5	0xc1abfbca	-21.497944
6	0x3ec62fd1	0.38708356
7	0xc1ea8899	-29.316698
8	0xc231b26c	-44.42424
9	0x41e4e469	28.611528
10	0xc24d1ec0	-51.28003
11	0x4187bf13	16.968298
12	0xc083ac7d	-4.1148057
13	0x40bfe0b5	5.99618
14	0x414591b0	12.348068
15	0xc20cbc34	-35.183792

group1.group.1.model.1.running_var f4 [16]
0	0x4513a08e	2362.0347
1	0x44734397	973.0561
2	0x44cad306	1622.5945
3	0x44c1c5e9	1550.1847
4	0x45135a4c	2357.6436
5	0x44ebeeff	1887.4686
6	0x44ae30f0	1393.5293
7	0x44d17f1e	1675.9724
8	0x454991e3	3225.118
9	0x44bd6b53	1515.3539
10	0x453d7896	3031.5366
11	0x44c17163	1547.5433
12	0x44ef7d30	1915.9121
13	0x44dae4a3	1751.1449
14	0x44d4186b	1696.7631
15	0x450a564e	2213.394

group1.group.1.model.3.weight f4 [16, 16, 3, 3]
0	0xbc9a7ef0	-0.018859357
1	0xbfd5961d	-1.6686436
2	0xc00fcc5e	-2.2468486
3	0x3ec05ddd	0.37571612
4	0x3f062a99	0.5240875
5	0x3f3e124d	0.74246675
6	0x3e124963	0.14285807
7	0x3f2b9842	0.670292
8	0x3f93a86e	1.1535776
9	0xbf98f903	-1.1950992
10	0xbfbc2229	-1.4697925
11	0x3e51875a	0.20461789
12	0xbf4e9d95	-0.807092
13	0x3e0e398a	0.13889137
14	0xbf3396fa	-0.70152247
15	0xbe92f771	-0.28704408
16	0x3edac695	0.4272963
17	0x3f575ff7	0.84130806
18	0x3f80df90	1.0068226
19	0x3fb9b245	1.4507529
20	0xbeba7bb3	-0.364225
21	0x3ec7afb8	0.3900125
22	0x3fd43de0	1.6581383
23	0x3cf9895d	0.030461008
24	0x3ed08d1e	0.40732664
25	0x3fc33e0a	1.5253308
26	0xbcdd08ee	-0.026981797
27	0x3ed97e0d	0.42478982
28	0x3e4af0f3	0.19818477
29	0xbf4f1a4a	-0.8089949
30	0x3f8c9987	1.0984353
31	0x3e544965	0.20731123
32	0xbf75cddb	-0.96017236
33	0xbffd8b0f	-1.9808062
34	0xbf132ac1	-0.5748711
35	0xbe8c28ec	-0.2737497
36	0xbf359ac6	-0.7093929
37	0xbf9adfa6	-1.2099502
38	0x3de8fd79	0.11376471
39	0xbf06feca	-0.5273253
40	0x3f368938	0.7130313
41	0x400d652c	2.2093
42	0xbfeeafb5	-1.8647372
43	0x3f47fc97	0.78119797
44	0x3f9a4e20	1.2055092
45	0xc04a5893	-3.1616561
46	0xbec03bf7	-0.3754575
47	0x3fc5a8cb	1.5442137
48	0xbee6af31	-0.45055535
49	0xbe7ffd13	-0.24998884
50	0x3faac249	1.3340541
51	0xbec63b05	-0.38716903
52	0xbf2099ac	-0.62734485
53	0x3f1882fb	0.5957486
54	0x3f36c857	0.71399444
55	0x3f8f9972	1.1218703
56	0xbe97620e	-0.29566997
57	0x3f62b6aa	0.88559973
58	0x3f1ed492	0.62043107
59	0x3e983738	0.2972963
60	0xbf9cf3c6	-1.2261894
61	0xbf5de976	-0.8668436
62	0xbfabfef8	-1.3437185
63	0xbfda9f33	-1.7079834
64	0xbf2b805b	-0.6699273
65	0x3fdea883	1.7395176
66	0xc002794e	-2.0386539
67	0xbfbc6601	-1.4718629
68	0x40766edd	3.8505166
69	0xbf73541b	-0.9505021
70	0xc0195f10	-2.3964272
71	0x3fcc043d	1.5938793
72	0x3eea4979	0.4575918
73	0xbf5c456c	-0.8604343
74	0x3fb4be70	1.4120617
75	0x3f499b8b	0.78752965
76	0xbfe1fe4c	-1.765573
77	0x3f884832	1.0647032
78	0x3fa0e243	1.256905
79	0x3dc8b5d9	0.0980031
80	0x3f7430c1	0.9538689
81	0xbf6c6faf	-0.92357916
82	0xc045b141	-3.0889437
83	0x3e552e39	0.20818414
84	0x3e4cf227	0.20014249
85	0xbd9ca76d	-0.076491214
86	0x3f2323dc	0.6372659
87	0x3f74de85	0.9565204
88	0x3ebd64c1	0.36990932
89	0x3f6d4908	0.9268956
90	0xbfa79c19	-1.3094512
91	0xc00964bd	-2.1467736
92	0xc008199d	-2.1265633
93	0x3fab1b5d	1.3367726
94	0xbf1bfe7b	-0.6093518
95	0xbe6a0c1e	-0.22856185
96	0x3f3cff83	0.7382738
97	0x3e9974f2	0.29972035
98	0x3fb38374	1.4024491
99	0xbe566e08	-0.20940411
100	0x3efefafc	0.4980086
101	0x3de5ffcb	0.11230429
102	0xbda5a648	-0.08088356
103	0x3f9b2975	1.2122027
104	0xbeced030	-0.4039321
105	0xbf9c8bd2	-1.223017
106	0xbf42546b	-0.7591006
107	0xbf818722	-1.0119364
108	0x3e854a3e	0.26033205
109	0x3fa8e502	1.3194888
110	0x3fbc7e00	1.4725952
111	0x3fc7b568	1.5602236
112	0x3fa4f7c6	1.2888114
113	0x3f826465	1.0186888
114	0x3f6129d0	0.87954426
115	0x3f0a6d86	0.5407337
116	0xbd8d725a	-0.069065765
117	0xc0744da4	-3.8172388
118	0xc01817bf	-2.3764493
119	0x3f046494	0.5171597
120	0xc0151348	-2.3293018
121	0xbf9d4f68	-1.2289858
122	0xbf9ea855	-1.2395121
123	0xbefcc81a	-0.49371415
124	0xbf4a5cc4	-0.790478
125	0xbdfcd2eb	-0.12344917
126	0xbf4645c3	-0.774502
127	0x3f83ece3	1.0306667
128	0x3fc96d0d	1.5736405
129	0xbfd4a18a	-1.6611798
130	0xbb0c7950	-0.0021434613
131	0x3cc22f23	0.023704117
132	0xbea7eedb	-0.3279942
133	0xbc9b45d3	-0.018954193
134	0x3f1879f4	0.59561086
135	0xbf30e925	-0.6910575
136	0xbebaa0cb	-0.364508
137	0xbff0ba17	-1.880679
138	0xbf6c6d10	-0.92353916
139	0x3dc307fc	0.09523007
140	0x3fb69d64	1.4266782
141	0xbf7441e9	-0.9541307
142	0x3f2b0912	0.66810715
143	0x3f96f5c2	1.1793749
144	0xbe56d81c	-0.20980877
145	0xbf429ab3	-0.760173
146	0xbfcd8152	-1.605509
147	0x3f86d7b7	1.0534581
148	0x3f0b59fe	0.5443419
149	0xbf0b57c5	-0.544308
150	0x3fdcc0c5	1.7246329
151	0x4014efa1	2.3271258
152	0x3e15c464	0.14625698
153	0x3e996288	0.29957986
154	0xbf2c0ae3	-0.6720411
155	0xc02d90f7	-2.711973
156	0xbd7225b4	-0.059117988
157	0x3d807382	0.06272031
158	0xc03a4071	-2.9101832
159	0xbeae3edb	-0.3403233
160	0x3f54fab3	0.83195037
161	0x3f0b694c	0.54457545
162	0x3eb7ba31	0.3588424
163	0xbe7188a3	-0.23587279
164	0x3f446b30	0.76726055
165	0xbf1bbca3	-0.6083471
166	0x3e82e567	0.25565645
167	0xbc0ecde8	-0.008716084
168	0xbf36d66d	-0.7142094
169	0x3dd9aef2	0.10629071
170	0xbfa83e3f	-1.3143996
171	0x3e836f88	0.2567103
172	0x3fd820ac	1.6884971
173	0xbff6787c	-1.9255519
174	0x40125356	2.2863364
175	0x3f5d1797	0.8636412
176	0xc06c62e6	-3.6935363
177	0xbed289df	-0.41120812
178	0x3e552bb3	0.20817451
179	0xc0406e7c	-3.0067434
180	0xbffb581c	-1.9636264
181	0xbe195d3b	-0.14976971
182	0xc0007462	-2.0071034
183	0xbfffbb5e	-1.9979055
184	0xbeb56ce8	-0.3543465
185	0xc067c8ed	-3.6216385
186	0xc00217af	-2.0326955
187	0x3f67e049	0.90576607
188	0xbfda5032	-1.7055724
189	0x3ec45453	0.38345584
190	0xbe00b9e3	-0.1257091
191	0xbfb3cc89	-1.4046794
192	0x3ee3a0e1	0.44458678
193	0x3db9542a	0.09049256
194	0xbe6e4d74	-0.23271734
195	0xbecb4d69	-0.39707497
196	0x3dfc3ffc	0.123168916
197	0xbfd720dd	-1.6806904
198	0xbf87b7fb	-1.0603021
199	0x3d77aeac	0.060469314
200	0x3d60c1a8	0.054872185
201	0x3e83bb3d	0.2572879
202	0x3f0ae7bb	0.5425984
203	0xbe17bddf	-0.14818524
204	0xbf9f0cb4	-1.2425752
205	0xbfa1faae	-1.2654626
206	0xbfc1bef0	-1.5136395
207	0x3f6d576c	0.9271152
208	0xbf43577d	-0.7630537
209	0xbff952db	-1.947841
210	0xbfaabde9	-1.3339206
211	0x3f80bdb5	1.0057894
212	0x3f179c4a	0.59222853
213	0xbf78db23	-0.97209376
214	0x3ec7b566	0.39005584
215	0x3edd6f0b	0.43248782
216	0xbe8fef75	-0.2811238
217	0x3efb6872	0.49103123
218	0x3da8eafb	0.08247944
219	0xbf6ecd4b	-0.93282
220	0x3ed6f939	0.41987017
221	0x3fdcbb64	1.7244687
222	0xbe0d5b28	-0.13804305
223	0x3f4dd7bf	0.8040733
224	0x3f2269f6	0.63442934
225	0xbec506d7	-0.3848178
226	0xbf4a8c0f	-0.7911996
227	0xbfb25bf2	-1.393431
228	0xbfc298d5	-1.5202891
229	0xbf68dfb7	-0.9096636
230	0xbfab00a2	-1.3359568
231	0xbf6870bb	-0.90797013
232	0xbf84fc45	-1.0389487
233	0xbf41fedc	-0.7577951
234	0xbe28799d	-0.16452642
235	0xbf489cd3	-0.78364295
236	0x3eb178a2	0.34662348
237	0x3f97a97f	1.1848601
238	0xbe3e3452	-0.18574646
239	0x3f884470	1.0645885
240	0x3fc43852	1.5329688
241	0xbf0d3dca	-0.5517241
242	0x3eab5c35	0.33468786
243	0x3e4389f5	0.19095595
244	0xbf3481cc	-0.70510554
245	0xbfe346c8	-1.7755976
246	0x40266e80	2.6004944
247	0x3f3bd072	0.7336494
248	0xc025da40	-2.591446
249	0x3d2bb7a7	0.04192319
250	0x3ea2a289	0.3176463
251	0xbfbb9645	-1.4655234
252	0xbfa2dcbb	-1.2723612
253	0x3e40a8d7	0.18814407
254	0xbe4b2962	-0.19840005
255	0x3fa4c09d	1.2871281

group1.group.1.model.3.bias f4 [16]
0	0xbd9badcf	-0.07601511
1	0x3d9cb2a5	0.07651261
2	0x3e022299	0.1270851
3	0x3b608a1d	0.003426201
4	0xbdc3f478	-0.09568113
5	0x3dd8d2a9	0.10587055
6	0x3ce516db	0.027965
7	0xbe16fe68	-0.14745486
8	0xbb5aeb36	-0.0033404357
9	0xbbf06fd6	-0.0073375506
10	0xbdbbe054	-0.091736466
11	0x3d6e4e57	0.05818018
12	0x3cabc92f	0.020969955
13	0x3bb88e85	0.005632224
14	0x3c9b6260	0.018967807
15	0x3d356d9d	0.04429399

group1.group.1.model.4.weight f4 [16]
0	0x3edf125a	0.4356869
1	0x3fc2db94	1.522326
2	0x3f4e0c6b	0.804877
3	0x3f79973d	0.97496396
4	0x3f277073	0.6540596
5	0x3f01984f	0.5062303
6	0x3f2995f8	0.6624446
7	0x3f87bfc6	1.06054
8	0x3eac7309	0.33681515
9	0x3f10ff09	0.5663915
10	0x3f98675f	1.1906546
11	0x3f136c56	0.5758718
12	0x3f0fcf97	0.5617613
13	0x3f9cd36e	1.2252023
14	0x3eb3fcb0	0.35153723
15	0x3f505ae4	0.8138869

group1.group.1.model.4.bias f4 [16]
0	0xbfa5cd7d	-1.2953335
1	0xbeb1bea0	-0.34715748
2	0xbf2f7c16	-0.68548715
3	0x3e9c1edd	0.30492297
4	0xbf5a6a57	-0.8531851
5	0xbe18d691	-0.149256
6	0xbe10c27c	-0.1413669
7	0xbfcc638f	-1.5967883
8	0xbe85cf42	-0.26134688
9	0xbf77d60a	-0.9681097
10	0x3e7d3a3a	0.24729243
11	0xbf08e642	-0.53476346
12	0xbdebd992	-0.115161076
13	0xbeea0bae	-0.45712036
14	0xbe3fd455	-0.18733342
15	0xbfa32791	-1.274645

group1.group.1.model.4.running_mean f4 [16]
0	0xc08557b8	-4.166958
1	0xc1a3ebd9	-20.49016
2	0xc1856f4a	-16.67934
3	0x3f098615	0.5372022
4	0xc170176a	-15.005716
5	0x415898db	13.537318
6	0x418c17eb	17.511679
7	0xc1ea665f	-29.299986
8	0xc231b228	-44.42398
9	0xc1c96cb0	-25.17807
10	0x4087c26a	4.242482
11	0xc18b76f0	-17.433075
12	0xc17340ce	-15.203321
13	0xc23037e1	-44.05457
14	0xc113a382	-9.227419
15	0xc1cba612	-25.456089

group1.group.1.model.4.running_var f4 [16]
0	0x43f37c8b	486.973
1	0x442bbed6	686.9818
2	0x444de3e6	823.5609
3	0x4424e134	659.5188
4	0x440256be	521.35535
5	0x4411aa19	582.6578
6	0x441e07c7	632.1215
7	0x43e50eca	458.11554
8	0x449ea5b1	1269.1779
9	0x441ae6db	619.6071
10	0x44212611	644.5948
11	0x43e13761	450.43265
12	0x443e493d	761.14435
13	0x446859b6	929.40173
14	0x442c89b1	690.1514
15	0x43f6f546	493.9162
