04_cnn/4_vgg_net.pth (torch_old, 189993 bytes, 56 tensors)

model.0.weight f4 [16, 1, 3, 3]
00000000: 1c5c 9b3f d8e5 d03f 874b 1f3e 152c 88bf
00000010: 9735 e93e 55f7 423f c0a0 2ec0 3f11 0bc0
00000020: a002 233e 5c46 3e3e 74e2 98bf 953c 9a3f
00000030: 24d8 b2bf 81bd f33f bc2a 373e 95b5 0bbf
00000040: 6f84 933f 6eff 26c0 9f72 333f db86 aebd
00000050: ba95 17bf d182 253f 2705 95be 8818 30be
00000060: a945 b43f 6ff4 a93e 4715 663f 71f2 7e3f
00000070: 7951 163f ac60 943e b1ca 453f e3ac 93bf
00000080: bdfe b7bf c987 c43f afc1 1dbf e745 ad3e
00000090: 6ce6 933e 2b50 aabd 7ff6 24be 9604 0abf
000000a0: 1443 fdbe 8fef 27bf bf02 8a3e 7360 bb3d
000000b0: af98 5ebf 665d 513f 6958 dc3f ccd9 8bbf
000000c0: 9cf9 8a3f 6e80 b13e 3be3 54c0 b242 7c3e
000000d0: 63b0 2a3f 1b98 3cbf 4ff4 ad3e 4876 3ebf
000000e0: bbff 1b3f feb6 bebf 15c6 5ec1 56e5 e9bd
000000f0: 2984 df3e 6f9c 57bf 79c0 023e d8f8 403e
00000100: 0409 4e3f dd31 e03e 53fd 03c0 70af 9fbf
00000110: 1a4d 433f 8060 68bf f9ea cdbf 4ec3 f43f
00000120: 9b3a 01c0 f572 54c0 f1fe 81bf 347a 6f3f
00000130: dde8 c0bd 8f9b ae3f 6a3a ccbc 3b4d 0bbe
00000140: 4cf4 993f 408e f6be ce2a 03bf 006a 9d3e
00000150: 7f01 f3bf 775d 0b40 6b10 96be 5f1f 2dbf
00000160: 1d6d 3e40 498a 8ebe 8914 86be df58 16bf
00000170: 16d6 3dbf 055f 273f 3562 2340 744b 19c0
00000180: 14a3 d9be d078 e83f 8eef 32bd 34c2 303e
00000190: 6d2b 8fbe 27dc 983e 0cc9 9cbf fd0a 29bf
000001a0: 4e49 2f3e fba6 11c0 1577 18c0 8596 e4bd
000001b0: 30c7 173d 1dad 833f c76d b3be 965f 0cbf
000001c0: 957a e2bf a653 06c1 c164 bcbd 26f4 7e3f
000001d0: bd8c 9fbe 0b85 803f 9528 b3bf 7806 263f
000001e0: ecfe 19c0 b6b1 eec0 8233 72bf c1e7 4a3f
000001f0: 4f31 4bbf 5ce8 c83d deef 1c3e 6121 9fbe
00000200: a67b 59bf 608a f9bd 88f1 ba3e eb3f 8ebe
00000210: 2bab 48bf c9fb ffbe faf0 bfbc e2cb 443f
00000220: 343d 76bf 5072 843e 3160 fb3e c542 8b40
00000230: cf43 d8be a310 bcbf ef71 2040 5d15 83bf
1.2137485 1.6320143 0.15556155 -1.0638453 0.45548698 0.7615865 -2.7285614 -2.1729276
0.1591897 0.18581527 -1.1944108 1.2049738 -1.3972211 1.9042207 0.17887396 -0.5457395
1.152479 -2.6093402 0.7009677 -0.085218154 -0.5921284 0.64652735 -0.29105493 -0.17196858
1.4083759 0.331943 0.89876217 0.99588686 0.5871807 0.28980005 0.7726241 -1.1537136
-1.4374615 1.5353938 -0.6162366 0.33842394 0.28886735 -0.08316072 -0.16109656 -0.5391325
-0.4946524 -0.6559991 0.2695522 0.091492556 -0.86951727 0.8178314 1.7214481 -1.0925841
1.0857425 0.34668297 -3.326369 0.24634817 0.66675395 -0.73669595 0.33975455 -0.7439923
0.6093709 -1.4899595 -13.92336 -0.114206955 0.43655518 -0.84223074 0.12768735 0.18844926
0.80482507 0.43788043 -2.0623367 -1.2475414 0.7628952 -0.9077225 -1.6087333 1.9122102
-2.019202 -3.3195164 -1.0155927 0.9354584 -0.09419415 1.3641223 -0.024930198 -0.1360368
1.2027678 -0.48155403 -0.5123719 0.30744934 -1.8984832 2.1775796 -0.293094 -0.67625993
2.9754097 -0.27839878 -0.26187542 -0.58729357 -0.74154794 0.65379363 2.552869 -2.3952303
-0.4250723 1.8161869 -0.04368549 0.17261583 -0.2796282 0.29855463 -1.2248855 -0.6603239
0.17117807 -2.2758167 -2.3822682 -0.11161522 0.037055194 1.0287205 -0.3504469 -0.5483335
-1.7693659 -8.395422 -0.09198905 0.9959129 -0.31162062 1.0040601 -1.399676 0.6485362
-2.4061842 -7.459193 -0.94609845 0.7925988 -0.79372114 0.09809944 0.15325877 -0.31080154
-0.849543 -0.12184596 0.365124 -0.2778314 -0.7838618 -0.49996784 -0.023430336 0.768736
-0.9618714 0.25868464 0.49096826 4.3519006 -0.42239234 -1.4692577 2.506954 -1.0240895

model.0.bias f4 [16]
00000000: 3000 52bf 0b6f 51be db85 eb3d 9232 24bf
00000010: 1fc0 243e fa54 78bf 2d0a 7a3f 17f9 0b3f
00000020: feaa ab3e 155d 753f 12ff 3a3f b29e cd3d
00000030: f241 39be 2094 90bf 56dd c6be bf39 7a3e
-0.82031536 -0.20452516 0.1150014 -0.64139664 0.16088913 -0.97004664 0.97671777 0.54676956
0.33528894 0.95845157 0.73045456 0.10040034 -0.18091562 -1.1295204 -0.3884074 0.24436091

model.1.weight f4 [16]
00000000: 132f af3f beb7 503f e03d 5b3e b76e 533e
00000010: 6a7a b43e 166c 3e40 5e8f 7040 c715 953f
00000020: aaf4 933f 73f0 833f 4ad8 c73f 2cf5 513f
00000030: e760 1240 256f 1a40 f156 893e d6eb e43f
1.3686241 0.8153037 0.21410322 0.20647703 0.35249645 2.975347 3.7587504 1.1647271
1.155904 1.0307754 1.5612881 0.8201473 2.2871644 2.4130337 0.26824144 1.7884471

model.1.bias f4 [16]
00000000: 3f89 4b3f 2fd1 40be 7ff2 51bf 0766 8bbf
00000010: 4595 3ebf 046f 303f b227 d7bf 63ec 06bf
00000020: 9213 c2bd 5e12 26bf e87a 283f 9ecf 8dbf
00000030: fd3b 3cbf c9aa 9cbf afc8 19bf 37c8 debf
0.79506296 -0.18829797 -0.82010645 -1.0890511 -0.7444652 0.68919396 -1.6808989 -0.5270445
-0.09476389 -0.64871776 0.6581254 -1.1078985 -0.73529035 -1.223962 -0.60071844 -1.7404851

model.1.running_mean f4 [16]
00000000: c02d 99be e0a6 bc3d ec8d 6fbf ae3a 84bf
00000010: 9b81 823f c825 5ebf c20e f640 faa3 a03f
00000020: f415 c13f 7e4d c23e 22e5 953e 29ee 2440
00000030: 0422 6640 de17 5640 4ff8 fb3e d271 debf
-0.29917717 0.092115164 -0.9357593 -1.0330408 1.0195802 -0.867764 7.6893015 1.2550042
1.5084825 0.37949747 0.29276377 2.5770361 3.5958261 3.3452067 0.49212882 -1.7378485

model.1.running_var f4 [16]
00000000: 36a1 9b40 e8ce a43f bde7 6940 a6cb 0d40
00000010: 65bd 0140 997f 9f40 63e7 ed42 b592 8e40
00000020: 3059 f340 0578 5340 6a72 3140 de53 8941
00000030: 04c3 2c42 6172 5042 2647 0140 ab02 3541
4.863429 1.2875643 3.6547692 2.2155547 2.0271847 4.984326 118.95193 4.4554086
7.604637 3.3042004 2.7726083 17.16595 43.190445 52.1117 2.0199676 11.313151

model.3.weight f4 [16, 16, 3, 3]
00000000: 3844 8dbf 316b 1cbf faf7 debd a684 99bf
00000010: 12b8 b2be e3a2 0e3f d4ee ebbd 2f2a 8fbf
00000020: 1f21 ebbf cd03 95bf 93a1 febd 8e06 0cc0
00000030: a561 b73f 63a0 ec3e e5be 30bf 7bbb 203e
00000040: 6374 80bf 567a 6e3e a4d4 41be 7243 70be
00000050: 5ffc 30bf f927 853e fd55 17bd 7344 06bf
00000060: d708 ef3d ab21 2d3e d56c e4be 86c5 0dbf
00000070: 73b1 c1bf 4eff 8d3d 0f60 183f 3879 8b3e
00000080: 03d6 eebe 2f3d 94bf e7bd 28bf 918c 43bf
00000090: 6ee7 2f3d c55d c2bc 3f31 62be 1554 c83e
000000a0: cca3 ec3e d77e e8bd 80e7 73be 571f 2bbc
000000b0: 171d 24be a7e7 c63e f67d 923f 9ee7 b2bf
000000c0: 1763 733f c7a4 0b3f dbab 23c0 a5fe 98bf
000000d0: 62e8 553f 88d3 59be 24fd 5abd 9f20 723f
000000e0: 72f0 3f3e a075 1f40 5d7a f740 e63c 7340
000000f0: 5126 963e 0536 e63f 0d91 513f ed6a f6bf
00000100: d175 18bf d9a1 963f 323e 06c0 b92c c5be
00000110: 86f3 903f c583 89bf f1ca 49bf 85e1 34bf
00000120: 5661 c4bf 8f86 d2bf 66ae 6cbf e0a1 84bf
00000130: c1cb aebe 2d89 6d3e 7b7c bdbe e407 383f
00000140: fffd c43e b0c7 57bf ffd1 13bf 57ff 7fbf
00000150: 1881 9abf e3f5 46c0 05e9 9bbf 17bc 2cbe
00000160: 37bb 78bf 3842 4a3f 1628 37bf 7e70 c33f
00000170: 2340 17bf 6fcf 1dbf 95e9 ff3e 7bbb 23c0
00000180: ad0a 5d3f 40be 263f d130 12c0 5092 09bf
00000190: 61fa e33e 1d7b 663e 6287 48bd 3528 103f
000001a0: e590 573e 3154 5cbd bab4 f1be 8a1d 9dbf
000001b0: a66c bd3e bf47 7a3e 9761 91bf 4cc2 7140
000001c0: e0a5 4740 fa96 e2bf 7d89 d43f e21a aa3f
000001d0: 1a24 bbbf fef2 c2bd f52a 703e 4f30 6fbf
000001e0: 3717 a03f 6202 cf40 7646 6a3f 7ee2 b73e
000001f0: 6acb 943f af39 efbe 6f13 64be 05e5 04be
00000200: 080a 98bd a08a 22be 2c3f f63c 5225 3d3d
00000210: 3fce d6bd 9705 12be bb11 9bbe 8b73 21c0
00000220: 9c81 6dbf b1e1 05bf f8ba 10c0 f343 88bf
00000230: 9f8c 353f bbf9 77bf 7e89 2bbf eefc e63e
00000240: 9316 22bf 5640 4c3f 7636 bbbf 79dc 73bd
00000250: 2801 3740 0996 743e 58d1 33c0 a67e c43d
00000260: b9f1 eabf e337 45bf b29b 933e 509a eabf
00000270: 0096 123e b889 23bf b011 963f 6d5e bdbf
00000280: fbab bfbf 167d 453f a8fd 86bd 9c9c dd3c
00000290: 2f71 a6be e673 85be b15d b2be 5a7e eebd
000002a0: 06cc c0bd 6604 22bf 8c04 adbd 8bf6 c2bd
000002b0: 8b62 9dbd 1850 9d3f 3c9a 223e e798 38bf
000002c0: 5a5a 573d a30d b53e f452 37bf 8f04 9abe
000002d0: 0300 3dbe ef49 0abe 498c f3bc a9e8 0a3e
000002e0: 38d8 1fbe 0370 6dbe 62ef 7e3d 2414 3d3e
000002f0: 4d1d 0cbe 21ca 1f3f 0da6 c23f e778 c23f
00000300: fc3a bdbe 0c6e 4cbe 42ed 26bf f651 0f3f
00000310: a2df b3bf 6496 47bf a8a5 1bbe e8a3 4bbf
00000320: b486 26bd 8245 d83f 91d1 a8bd 1162 f5bf
00000330: 373a 8140 e4b4 3f40 d0b7 babf 574b 6e3e
00000340: 41c7 8bbf d8c1 59bd 8f6e 29bf 025a 843f
00000350: f493 19bf 5f60 b1bf 6393 ac3f 5796 a7bf
00000360: 4f7f 1ac0 1a67 2fc0 22ea 96bf 6a42 34bf
00000370: b2f8 f3be da63 043e 642a d53f f74b 553f
00000380: 13af c4bf e044 84bf fd1c 9a3f 7085 a4bf
00000390: 6047 43c0 3506 12bd 5bf9 f83d 77e8 613e
000003a0: 365d 1ebe e7e4 ff3f 665e 74be 6670 a43f
000003b0: 13cf 963d d97c 92bf fcf5 0abf 53a1 883f
000003c0: 89ed 7e3e faed ebbf ea32 b23f a171 c8bd
000003d0: 756c 00bf 2482 aebd a3f6 1b3f f150 fc3e
000003e0: babe 7d3e 52ac 17be b68f 5e3e 04af 54be
000003f0: d670 50bf fed0 7b3e 88d5 30bf a65a 85be
-1.1036444 -0.6110106 -0.108871415 -1.1993606 -0.3490606 0.55717295 -0.11520162 -1.1184748
-1.8369483 -1.1641785 -0.124331616 -2.1879 1.4326674 0.46216115 -0.6904128 0.15696518
-1.0035518 0.23288855 -0.18928772 -0.23463228 -0.6913509 0.2600706 -0.03694724 -0.52448195
0.11671608 0.16907375 -0.44614282 -0.5537952 -1.5132278 0.06933461 0.59521574 0.2724092
-0.46647653 -1.1581172 -0.6591477 -0.7638636 0.042945318 -0.023726353 -0.22089098 0.3912665
0.46218717 -0.11352318 -0.23818779 -0.010444484 -0.16026722 0.38848612 1.144469 -1.3976934
0.95073074 0.54548305 -2.5573642 -1.1952711 0.83557713 -0.21272099 -0.05346407 0.94581026
0.18744066 2.4915543 7.733687 3.800592 0.29326108 1.7985235 0.81861955 -1.9251381
-0.59554774 1.1768142 -2.097546 -0.38510683 1.1324317 -1.0743338 -0.7882529 -0.70656615
-1.5342205 -1.6447314 -0.9245361 -1.03619 -0.34139827 0.2319686 -0.37009034 0.7188704
0.38475034 -0.84289074 -0.57742304 -0.9999899 -1.2070646 -3.1087577 -1.2180487 -0.16868626
-0.9716067 0.7900729 -0.7154554 1.5268705 -0.5908224 -0.61644644 0.49982896 -2.558318
0.86344415 0.6513405 -2.2842295 -0.5373888 0.4452696 0.22507901 -0.048957236 0.5631135
0.21051367 -0.05379123 -0.47208196 -1.227464 0.36996955 0.24441431 -1.1357907 3.777484
3.1194992 -1.7702324 1.6604458 1.3289454 -1.4620392 -0.09519003 0.23453887 -0.9343309
1.2507085 6.469041 0.91513765 0.35914987 1.1624577 -0.46723697 -0.22273038 -0.12977989
-0.07423788 -0.15873194 0.03005942 0.04617817 -0.10488557 -0.14259945 -0.30286965 -2.5226772
-0.92775893 -0.522975 -2.2614117 -1.0645736 0.70917696 -0.96865433 -0.6700667 0.45114845
-0.63315696 0.7978567 -1.4625995 -0.05953643 2.8594456 0.23885359 -2.8096523 0.09594469
-1.8355018 -0.770384 0.28829724 -1.8328342 0.14315033 -0.6388202 1.1724148 -1.4794441
-1.4974359 0.7714399 -0.0659135 0.027052216 -0.32508227 -0.26064986 -0.34837106 -0.116451934
-0.094139144 -0.6328796 -0.08448133 -0.095196806 -0.07684811 1.2290068 0.15879148 -0.7210831
0.0525764 0.35361966 -0.7161095 -0.30081603 -0.18457036 -0.13504766 -0.02972998 0.13565315
-0.15609825 -0.2318726 0.062240012 0.18464714 -0.13683052 0.624178 1.5206925 1.5193146
-0.36959064 -0.19963855 -0.65205777 0.5598444 -1.4052622 -0.7796385 -0.15199912 -0.79546976
-0.040655807 1.6896212 -0.082430966 -1.9170552 4.0383563 2.9954157 -1.4587345 0.23270927
-1.0920182 -0.05316338 -0.66184324 1.0339968 -0.59991384 -1.3857535 1.3482479 -1.3092755
-2.4140203 -2.7406678 -1.1790202 -0.7041384 -0.47650677 0.12928715 1.6653562 0.8331904
-1.5365928 -1.0333519 1.2040097 -1.2853222 -3.0512314 -0.03565045 0.12156936 0.22061335
-0.15465245 1.999173 -0.23864135 1.2846801 0.07363715 -1.144435 -0.5428159 1.0674232
0.248953 -1.8432 1.3921788 -0.09787298 -0.5016549 -0.08520916 0.6092321 0.49280503
0.24779788 -0.14811829 0.21734509 -0.20769888 -0.81422174 0.24591443 -0.6907582 -0.26045722

model.3.bias f4 [16]
00000000: 768f e63e fa61 8bbb 16f8 86be 1eef 3cbe
00000010: dec2 473e 6f03 783c ff16 be3e 698e 81bd
00000020: eed8 4f3e c8a1 b0be 68a6 83be ba1f 8a3e
00000030: f277 34bd 353f 20be d335 ee3d 68c2 183f
0.45031327 -0.004253623 -0.2636115 -0.18450591 0.1950793 0.015137537 0.3712692 -0.06325991
0.20297596 -0.3449843 -0.25712895 0.2697733 -0.0440597 -0.15649112 0.1163136 0.5967164

model.4.weight f4 [16]
00000000: 4f0e 3f40 f63c e43f 2e91 a13f 8d4a 3840
00000010: 54fb bd3f f217 3040 9bc1 a03f d8b1 3640
00000020: 32d6 673e ccb4 993f 2f9c 1740 5f0b e73f
00000030: 4bde 0840 8bed d23f 8e02 0d40 e83d 4c40
2.9852483 1.7831104 1.262243 2.8795502 1.4842324 2.7514615 1.2559084 2.8546047
0.22640303 1.20083 2.3689077 1.8050345 2.1385677 1.6478742 2.203281 3.1912785

model.4.bias f4 [16]
00000000: 02c3 a4be 32f5 7ebe 88f8 8abf 5ecb 883f
00000010: 1959 cfbe 194d 293e 2c42 2cbe 5bb4 9f3f
00000020: 3edc 46bf bd3f f33e bcd0 d4be d2bf 4abf
00000030: 9dc1 92bf ae06 a1be 70f4 dc3c 380c 07bf
-0.3218003 -0.24898222 -1.0857096 1.0687063 -0.40497664 0.16533317 -0.16822118 1.2476915
-0.7767981 0.47509566 -0.41565502 -0.79198945 -1.1465336 -0.3145041 0.026972026 -0.5275302

model.4.running_mean f4 [16]
00000000: bd62 8340 19cc aac0 2667 e8c1 9433 3cc0
00000010: 4a53 e6c1 4152 b1c1 eb4c 6bc1 bae9 7fc1
00000020: 5a01 89c1 7e0c d4c1 903b a9c1 3e17 22c2
00000030: 0de0 2041 e0f4 83c1 5c77 57c1 815c 9f40
4.105803 -5.3374143 -29.050365 -2.940648 -28.790668 -22.165163 -14.706279 -15.994562
-17.12566 -26.5061 -21.154083 -40.522697 10.0547 -16.494568 -13.46664 4.980042

model.4.running_var f4 [16]
00000000: 9999 3544 b9db 1743 c5ea f443 7bfc bd43
00000010: d57e 2744 3c92 4a44 e0fa d943 5cee c743
00000020: 4d86 d642 83ea 5944 7892 a543 509b 2044
00000030: 4500 1444 b564 8443 19c9 9143 e4b8 2544
726.39996 151.85829 489.83414 379.9725 669.98175 810.2849 435.95996 399.86218
107.26231 871.66425 331.1443 642.42676 592.0042 264.78677 291.57108 662.8889

model.6.weight f4 [16, 16, 3, 3]
00000000: b321 fb3f 5515 1940 6767 3140 4a9e 333f
00000010: 5594 613f d060 e53e 30d3 ebbf dcb1 28c0
00000020: ddbc 7fc0 d9ae 69bf aab0 123f 1f9c 0640
00000030: 2341 ea3f a4d7 813d a0d8 23bf ab45 093f
00000040: 5255 04bf ac68 64c0 64e5 21bf 4c4f 8a3f
00000050: 7cbf 3d3f 3694 cdbf f0dc 14bf 619a 8dbf
00000060: 1eac 40bf 4a23 75bf 190f 5d3c 432a 7c3f
00000070: fd1b c03f d7ac 5b3e c7f3 a23e 902e 36bf
00000080: 12c7 4c3e bf93 d4bf 66e3 0fc0 b479 6bbd
00000090: 5d30 e33f 205f e83f 2fd8 b6bf 348d a3bf
000000a0: 059d 3cc0 e2a1 2cc0 0b0d 9b3f 85d0 4b3f
000000b0: 249b c5be 2961 283f d767 e0bf fd2d 13be
000000c0: d4e6 72bf defe 85bf 9f5b a4bd a77d e53d
000000d0: a13c 723f 6aaa 833f 9fb1 0fbf c0dd 193f
000000e0: 4758 04bf 6104 1440 a8e6 0c40 48e7 56bd
000000f0: 8be7 33bf 13c9 b8bf 4757 2fbe 9d8e b5bf
00000100: a764 293f fef9 aebe 1204 ea3e 38cf 1abf
00000110: b576 0cbf 5510 28be 5abc 8cbe f119 863f
00000120: 1b89 6fbe a380 9ebe 032e 833e c7db 81be
00000130: 312a 95be 6608 f23d 6f5a e23d 86d5 b9be
00000140: f398 303e 59b3 a6be b1bf dcbd dfdf c43f
00000150: d391 61bf f711 f03e 70f1 2e3f 9712 31bf
00000160: 7191 d83e 10ad 823e 3bdf 243f 421c 97bf
00000170: 966b 0cc0 2bba 143f 4a5c 663f 9535 6b3f
00000180: 7ddb 43bf be9b 983e 7511 023f 0ff2 71bf
00000190: d4a5 3e3f f90b 5e3f 7c23 abbf a14d 8bbf
000001a0: f5d8 9fbf 7a32 8a3f 2984 ed3e 5c80 a3bf
000001b0: 326b 623f 8ae1 e23f 17a0 1440 3147 ed3d
000001c0: e86b 8a3f 86cb c43f e79a b43e f141 c9bf
000001d0: e125 36c0 6dfc d0bf 9621 6ebf 4143 3e3f
000001e0: 5d3a 2e3f 399f e43f 887d 6840 32a6 0d3b
000001f0: e0ef d4bd 04da d8bf 3a97 57bf b5fe aabe
00000200: af0d 80bf 9ca2 903f 45a7 2dbe 3160 8bbf
00000210: c39e 303e fe61 1ebf 119f a9be 93e1 b23f
00000220: 91a3 1440 b462 2b40 e364 8dbd c707 bebf
00000230: 6d68 b5be 8b76 5ebf 839a 6ec0 98d5 40c0
00000240: b9ca ddbf 368c 8fbf 9d43 1dbf c2c7 9cbf
00000250: e203 40bd a09b ebbf f8cd bdbf d732 9b3e
00000260: 79eb 163f 0f9f 83bf 62d4 6fbf d3ed 2b3f
00000270: 6f21 19bf 3860 e93e 420c 3940 8bc1 c4bf
00000280: 25a7 24c0 9172 80bf ef93 283f 134c 98bf
00000290: 21fc 36bf 1690 3840 3666 f43f 2ada c13f
000002a0: 73bf ff3f 38ef 223f aff0 ed3e a102 a8bf
000002b0: 3fd4 66bf d4f2 cbbe 4655 67bf 3eff 43bf
000002c0: 3e6c f2be 256e 6a3f 96d1 0fc0 2ae6 cbbf
000002d0: d161 0b3e 2428 83bd adc3 bcbe 552a 52bf
000002e0: 1deb 88bf 19d3 32be 8736 b0bf 6d8e acbf
000002f0: fb99 963e 3a01 5d3e 8634 1bbc 94e7 c5bf
00000300: c7c7 ca3f fe8d d03e bc53 34be 4ffc 01bf
00000310: 2ebb 3d3f 0647 80bf 4fd4 0140 fb31 0d3f
00000320: c57d 02c0 0bec 05bf 0672 d2be e0e4 a2bf
00000330: febf 2d3f c309 fbbe 5480 573b 2240 c53e
00000340: eea7 193f d105 d93f bf45 0f40 ca09 513d
00000350: 255b c6bd ea93 04c0 fad1 29c0 3990 53c0
00000360: 12b2 bbbe b0dc 85be 3543 2f3d eca8 ab3d
00000370: e549 923e 8b2a 193f 9b4a 7bbe 1b8f 253e
00000380: 9485 ee3e 5ae9 dc3f fcfa a73f 55c9 543f
00000390: 997b 0d40 9e26 0140 68c5 0f3f 40ae 33bf
000003a0: cb48 c8bf 2a2b 3bc0 eace 863e 1ca7 0cc0
000003b0: 7cdf f6bd b73c 643e cbe7 94bf e3ae b4bf
000003c0: 4d27 823e 1aab 193f 9c82 7cbe 11c4 a9be
000003d0: 9c51 a9bf 84cc 1ac0 b50f 1e40 192e 9b3f
000003e0: 15df 983f 7d79 7c3f ffd4 0e3f 141d 4a3e
000003f0: 5452 3a3f 1d6d 9dbb a762 babf e3e6 c2bf
1.9619659 2.391927 2.7719362 0.70163405 0.8811696 0.44800425 -1.8423824 -2.6358557
-3.9959023 -0.9128242 0.5730082 2.1032789 1.8301128 0.06339958 -0.6400242 0.5362193
-0.5169269 -3.5688887 -0.6324065 1.080545 0.74120307 -1.6060855 -0.58149624 -1.1062738
-0.7526263 -0.9575697 0.013492369 0.98501986 1.5008541 0.21452652 0.31826612 -0.711648
0.19997814 -1.6607589 -2.2482543 -0.057489112 1.7749134 1.815403 -1.4284724 -1.2777467
-2.9470837 -2.6973805 1.2113355 0.7961505 -0.38594925 0.65773255 -1.753169 -0.14373012
-0.94883466 -1.0468404 -0.08025288 0.11205607 0.9462376 1.0286381 -0.56130403 0.6010399
-0.516972 2.3127673 2.2015781 -0.05246666 -0.7027518 -1.4436363 -0.17123137 -1.4184147
0.6616921 -0.34175104 0.4570623 -0.6047244 -0.5486863 -0.1641248 -0.2748745 1.0476667
-0.23392145 -0.30957517 0.25621042 -0.2536299 -0.29133752 0.11818008 0.11052405 -0.36295718
0.17245845 -0.32558706 -0.1077875 1.538082 -0.88113135 0.46888706 0.68337154 -0.6916899
0.42298463 0.2552266 0.6440312 -1.1805499 -2.1940665 0.5809657 0.8998457 0.91878635
-0.7650679 0.29806322 0.5080789 -0.9450998 0.74471784 0.8673702 -1.3370204 -1.0883065
-1.2488085 1.0796654 0.46389893 -1.2773547 0.8844482 1.7725079 2.322271 0.11585844
1.081418 1.537461 0.3527443 -1.5723249 -2.846062 -1.6327034 -0.9302 0.7432137
0.68057805 1.7861091 3.6326618 0.0021613953 -0.10397315 -1.6941533 -0.8421513 -0.3339745
-1.0004176 1.1299624 -0.1695834 -1.088873 0.17248063 -0.61868274 -0.3312917 1.397509
2.3224833 2.6778994 -0.06904008 -1.4846123 -0.35431233 -0.8689963 -3.7281806 -3.0130367
-1.7327491 -1.1214664 -0.61431295 -1.2248461 -0.046878703 -1.8406868 -1.4828482 0.30312225
0.5895305 -1.0282916 -0.93683445 0.67159766 -0.5981664 0.45581222 2.8913732 -1.5371565
-2.5727017 -1.0034963 0.6585073 -1.1898216 -0.7147847 2.8837943 1.9093692 1.5144703
1.9980301 0.6364627 0.4647269 -1.3125802 -0.9016761 -0.398337 -0.9036449 -0.76561344
-0.47348207 0.9157432 -2.247167 -1.5929615 0.13611533 -0.064041406 -0.3686804 -0.82095844
-1.0696751 -0.1746334 -1.376664 -1.3480965 0.29414353 0.21582499 -0.009472972 -1.5461297
1.5842217 0.4073333 -0.17610067 -0.5077562 0.7411374 -1.0021675 2.0285833 0.5515439
-2.0389264 -0.523133 -0.41102618 -1.2726097 0.6787108 -0.49030885 0.0032882886 0.38525492
0.60021865 1.69549 2.238632 0.051034726 -0.09685353 -2.071528 -2.653441 -3.3056777
-0.36659294 -0.26144934 0.042788703 0.08381829 0.28572002 0.5983054 -0.24540178 0.16167872
0.46586287 1.7258713 1.3123469 0.8311971 2.2106688 2.017982 0.56160593 -0.7018776
-1.5647215 -2.9245095 0.26329738 -2.1976995 -0.12054345 0.22288786 -1.1633238 -1.4115871
0.2542061 0.60026705 -0.24659199 -0.331574 -1.322803 -2.4187326 2.4697087 1.2123443
1.1943079 0.98622876 0.55793756 0.19737655 0.7278187 -0.004804267 -1.4561356 -1.5226711

model.6.bias f4 [16]
00000000: a9b5 d1bd 6e31 e8bd d60e 933d 5edb 39be
00000010: e7e1 713e 02ca d9be 1941 3bbc d6f7 a3ba
00000020: 3c72 9f3e 7297 183d 63e2 68bd f9c9 a53e
00000030: 9b60 d6bd 3308 10bd 0f0c b5bd ec24 debe
-0.10239727 -0.11337553 0.07180564 -0.18150088 0.23621331 -0.42536932 -0.011429095 -0.0012509774
0.3114184 0.037253805 -0.056856524 0.32380655 -0.10467645 -0.03516407 -0.088401906 -0.43387544

model.7.weight f4 [16]
00000000: 4b75 2740 4050 a23f 4845 d03f 15e0 c43f
00000010: 7f08 823d cdb9 ec3f ffc4 1940 bad3 f33f
00000020: cb7a e93f f688 2f40 860f d53f bebc 0b40
00000030: 69fd e83f f1a9 0840 aef8 0340 ef79 ef3f
2.616534 1.268074 1.6271143 1.5380884 0.06349277 1.8494202 2.4026487 1.9048989
1.8240598 2.7427344 1.6645362 2.183395 1.8202335 2.1353724 2.0620532 1.8709086

model.7.bias f4 [16]
00000000: 76a2 22bf a936 33be 72ea b7bf b4c6 cabe
00000010: b309 22bf 9958 6dbf 5e20 e9be 7204 26be
00000020: df33 0ebf a0f2 90bf a537 9cbf acc6 afbd
00000030: 3956 58bf 4225 29bf 9a39 83bd a6ae 1bbf
-0.63529146 -0.1750132 -1.4368422 -0.39604723 -0.6329605 -0.92713314 -0.45532507 -0.16212633
-0.555479 -1.1324043 -1.2204481 -0.085828155 -0.84506565 -0.66072476 -0.06407471 -0.6081337

model.7.running_mean f4 [16]
00000000: 1435 fac0 4ae1 46c2 e2aa 74c1 1ab5 1bc2
00000010: 5f8c 00c1 a24f 9f3f c762 08c1 971b 0641
00000020: 0827 0340 aa56 2cc1 cb24 20c2 2e59 92c1
00000030: 76e7 13c1 0d76 2940 d996 aec1 2427 8cc1
-7.8189793 -49.72001 -15.291719 -38.926857 -8.03427 1.2446177 -8.524116 8.381736
2.0492573 -10.771158 -40.03593 -18.293545 -9.244009 2.6478302 -21.823656 -17.519112

model.7.running_var f4 [16]
00000000: 3a2b 1c44 bb19 0244 122b f243 13da 9b44
00000010: de61 9d43 b5f7 8244 6442 ab44 f76f da44
00000020: 1bc1 a644 657f 1044 6cd6 1044 a6f7 ed44
00000030: 68e4 0f44 c51f 2c44 3d4d a244 f466 8e44
624.6754 520.40204 484.3365 1246.8148 314.7646 1047.7408 1370.0747 1747.4989
1334.0345 577.99054 579.35034 1903.739 575.56885 688.4964 1298.4137 1139.2173

model.10.weight f4 [32, 16, 3, 3]
00000000: 9f6b 593e 4d73 b43e ae22 08be e671 953f
00000010: 1253 3cbe 5c92 e8bf d9bf da3f 4fb9 d3be
00000020: 7590 c0bf 14a1 ecbf 7104 57bf 7d49 fabf
00000030: cbd3 553f ce59 f43f 1c75 82be 67d9 593d
00000040: 4144 0240 cca7 6b3f b085 f23e 5aec 58bd
00000050: 7a58 0e3f 9bef 45c0 f703 b4bf 5d26 4abf
00000060: 1a56 623e 9fda 713f ba1b bcbd 5985 25c0
00000070: 9982 aabf 15b1 3f3f 27bd 89c0 f105 5dbf
00000080: 8870 213f 2844 41c0 c4fa cf3f 7602 353d
00000090: 7307 10bf 9305 613d da01 f13e a57c 4bbe
000000a0: 0cb7 ff3c 5a31 103f d4dc 153e 1c2e 7a3e
000000b0: fddb d43e 61f1 8ebf ff62 febf 8c40 65bf
000000c0: 6e0d 79be 3101 2dc0 ac17 25c0 126d 0640
000000d0: f987 f9bf 5317 29c0 0738 0c3f d1d5 933f
000000e0: ddaa c93e fcc0 ee3e b949 cfbd 39e8 2dbf
000000f0: 83af b73f fda7 17bf 1019 aab9 2703 b0be
00000100: 7f9e 3bbf 9c89 54c0 6bb8 07c0 624f ffbf
00000110: b879 80c0 1ce9 e5be 617d 173e 3c30 c1bf
00000120: 7760 d8be fe21 943f 1cc0 a7bd fd26 68bf
00000130: f669 3bbf 2b08 2ebf f9e6 f63e 7c16 f9bf
00000140: 30c0 94bf 2134 ca3f 7bf4 b7be 4f8a 213e
00000150: 4f49 d53f 8f57 5ebd 9c59 2fbe 973c 4840
00000160: b585 cb3f c9a3 39bf a842 6cc0 7c3b 243f
00000170: 033c d9bf 04e0 bdbf 08a6 2d3e 0ef9 acbf
00000180: c44e 82bf f334 4e3e 5a0a ff3d ebb6 d53e
00000190: dc7f 05c0 3b9d e6be 432b a0bc 08e6 13c0
000001a0: 592b 0cc0 b5d5 7f3f 3dd7 77bf aee4 b1bf
000001b0: 27d4 9bbf 537b 46c0 ad0f 943f 56f5 d23f
000001c0: 5ed1 7fbf e6cc 33be 6383 8640 04d9 28bd
000001d0: eed5 06bf cd49 b3be da3f 233f 0a1d 883e
000001e0: b41a c0be edb4 90bf cdc6 35c0 99c0 a3bf
000001f0: d2f4 8bbf 972d c7bf f5d1 88bf 4555 8bbf
00000200: a669 df3e dab0 6d3e 1373 86bf a4f5 ac3d
00000210: 0ec2 4e40 4567 473e 7d0f 78bd 11dc dcbf
00000220: e4cf 863e 91dd 1740 dbcb 05bf a6ed 2dbe
00000230: ce95 a93f 9536 c03e e2b7 c43e adad 853f
00000240: cd96 8a3e 8ff0 683f d8bc fa3e 8bca a9bf
00000250: faee c6bd 3849 923f 0d00 33bf 2f4c f73d
00000260: fae8 9b3f 6699 14c0 ad29 a6bf cb62 47bb
00000270: 7737 3abf 4006 33bf 6bd6 78bf e156 913e
00000280: ef0b f8bd cc04 e9be 774e 5bc0 61a3 5fc0
00000290: b309 cbbf 7ed0 5b3d 76d7 5cbf 64e3 48be
000002a0: 5294 d93e ddb5 bcbe ee22 4fbf 4e25 9a3e
000002b0: d2f2 f6bf b689 84bf e158 d23f 9869 66be
000002c0: 939a abbf fabf 943f 0c42 d23e 0677 f73e
000002d0: c7f7 8ebc d75d 78bf 221e 313e c0f9 f23e
000002e0: 4950 e9be fd1a 913f 726c 193e 365a d5be
000002f0: 648d a93e 3c97 7ebe b48c f43e 7629 9fbe
00000300: 1e16 743d 7e9e 8dbe d6e2 f2be a527 2bbe
00000310: 9578 1bbe 63ab 33bf 9153 c03e 1fc2 c73e
00000320: f3bf e0bf 4e94 0240 e595 a73f 11e6 84bf
00000330: 4b7f ea3f e9b2 df3e af02 7fbe ade2 f3bf
00000340: faa9 fd3e b60e 803f b175 41c0 2ac2 433d
00000350: 292a 45be a363 b5bf 6259 f73e 1957 89bf
00000360: be2b 1bc0 617a 17be d5d2 48bf 351c 91c0
00000370: 7418 7abf 6c17 6fbf 509f 19c0 2609 833f
00000380: bce1 603e faca 283f 26f6 89bc 4e26 3e3d
00000390: 6af0 2ebe 4ce6 2c3f e2ab bd3f f8aa 813d
000003a0: 3e09 9a3e 0da8 bb3f 95bc f43f 0c64 6abf
000003b0: 20d0 f7be 0fc1 3a40 1e45 57bc 3721 48bf
000003c0: e47e ca3f 1526 9dbf 7a6e ffbf 48fb 5840
000003d0: 9e40 a2bf d726 f7bf 134e 4840 a3b3 6a3f
000003e0: 6637 2bbe dde0 953f aca8 353f 58e3 943f
000003f0: 961e 14bf c90e 343f c277 9fbf aea9 abbf
0.2123246 0.35244218 -0.13294479 1.1675384 -0.18391064 -1.8169665 1.7089797 -0.41352317
-1.5044085 -1.8486657 -0.8399115 -1.9553677 0.83526295 1.9089906 -0.25479972 0.053185847
2.035416 0.9205291 0.4736762 -0.052959777 0.55603755 -3.0927494 -1.406371 -0.7896479
0.22103158 0.94474214 -0.09184976 -2.586264 -1.3321105 0.7487958 -4.30434 -0.8633719
0.63062334 -3.019785 1.6248403 0.0441918 -0.56261367 0.054936957 0.47071725 -0.19871767
0.031215213 0.56325305 0.1463502 0.24431652 0.41574088 -1.1167413 -1.9873961 -0.89551616
-0.2432153 -2.7031977 -2.5795698 2.1004071 -1.949462 -2.6420486 0.5477299 1.1549627
0.3938817 0.4663161 -0.10121483 -0.6793247 1.4350437 -0.59240705 -0.000324436 -0.34377405
-0.7328872 -3.320899 -2.120631 -1.9946101 -4.0148582 -0.4490441 0.14793922 -1.5092845
-0.42261097 1.1572874 -0.08190939 -0.9068449 -0.7320856 -0.67981213 0.48223093 -1.9459987
-1.1621151 1.5797158 -0.3592871 0.15775417 1.6662997 -0.05428272 -0.17124027 3.128698
1.5900179 -0.7251554 -3.6915684 0.64153266 -1.6971439 -1.4833989 0.16957867 -1.3513505
-1.0180287 0.20137386 0.12453146 0.41741118 -2.085929 -0.45041832 -0.019551879 -2.310915
-2.1901457 0.99935466 -0.968128 -1.3897913 -1.2174119 -3.101277 1.1567284 1.648112
-0.99928844 -0.17558631 4.2035384 -0.041222587 -0.5267018 -0.35017243 0.63769305 0.26584655
-0.37520373 -1.1305214 -2.8402588 -1.2793151 -1.0934088 -1.5560788 -1.0689074 -1.0885397
0.4363529 0.23211995 -1.0503868 0.0844529 3.2305942 0.19472988 -0.060561646 -1.7254659
0.26330483 2.3728983 -0.52264184 -0.16985187 1.3248842 0.37541643 0.3842154 1.0443627
0.27068177 0.90992063 0.489722 -1.3264936 -0.0971355 1.1428595 -0.6992195 0.12075078
1.2180474 -2.3218627 -1.2981468 -0.0030423875 -0.7274088 -0.6993141 -0.97202176 0.28386596
-0.12111651 -0.45511472 -3.426664 -3.4943469 -1.5862335 0.05366563 -0.8626627 -0.19617993
0.42495972 -0.368575 -0.80912673 0.30106586 -1.9292853 -1.0354526 1.6433374 -0.22501218
-1.3406547 1.1621087 0.41066015 0.48332995 -0.017452134 -0.9701819 0.17296651 0.4745617
-0.45569065 1.1336361 0.14982775 -0.41670388 0.33115685 -0.24862379 0.47763598 -0.3108632
0.059591405 -0.27659982 -0.47438687 -0.16714342 -0.15182717 -0.7018339 0.37563756 0.3901529
-1.7558578 2.0403018 1.3092619 -1.0382711 1.8320097 0.43691185 -0.24903367 -1.9053551
0.49543744 1.000449 -3.0228083 0.04779259 -0.19254364 -1.4171032 0.4831038 -1.0729705
-2.4245448 -0.14792778 -0.78446704 -4.5346932 -0.9769356 -0.93395114 -2.4003487 1.0237167
0.21961111 0.6593472 -0.016841006 0.04642325 -0.17083898 0.67538905 1.481808 0.06331438
0.30085176 1.466066 1.9120051 -0.9155891 -0.48400974 2.9180334 -0.013139037 -0.7817568
1.5819974 -1.2277247 -1.995559 3.390337 -1.267597 -1.9308728 3.1297653 0.91680354
-0.16720352 1.1709248 0.709605 1.163188 -0.5785917 0.7033506 -1.2458422 -1.3411157

model.10.bias f4 [32]
00000000: 8e2a a43c 9916 c3bd f3ba 26bc d850 3fbd
00000010: 4991 16be 8964 433d acec 1ebd 8e73 5cbd
00000020: 0046 2b3e e4aa 6a3d aea8 b63d c04a 5dbe
00000030: 72c4 5cbd 209e 52bd 45e3 6f3d 2002 433d
00000040: 508f f5bd 05a2 4d3d a0f6 06bb 2d41 f73d
00000050: 473d ca3d 108a 90be df7e a5bc cf9a 86bd
00000060: c1a4 523e 913b 9fbd 15f7 9f3c 7ac6 49bc
00000070: 7cfd 44be 2444 643e 4afa f93d 0889 493d
0.020039823 -0.095257945 -0.010176408 -0.046707958 -0.1470386 0.0477033 -0.038799927 -0.05382114
0.16725922 0.05729188 0.08918892 -0.21610546 -0.053898282 -0.05142033 0.05856635 0.04760945
-0.11990225 0.050203342 -0.0020593777 0.12072978 0.09874969 -0.28230333 -0.020202098 -0.06572496
0.20570661 -0.07775033 0.019526998 -0.012315387 -0.19237322 0.22291619 0.12205942 0.04920295

model.11.weight f4 [32]
00000000: 66fe bf3f 2b41 f93f a3c4 1740 9ced fa3f
00000010: a97b e5bc e260 0140 cebb 2e40 c8aa fc3f
00000020: f14e 2240 c34d 8b3f 2100 fe3f 90f2 1740
00000030: 745b ed3f 5942 f93f 50a7 cf3f ea3f e33f
00000040: 3bd6 c33f 4db3 0e40 54a5 0b40 985e ec3f
00000050: 62f2 4440 8db4 0140 07a5 0a40 cefa 0940
00000060: fcf9 b13f bd31 eb3f 327f 1a40 3755 0540
00000070: 353e 0b40 f997 e13f 4ce0 9f3f 77c0 aa3f
1.4999511 1.9473013 2.3713768 1.9603763 -0.028013067 2.0215383 2.7302127 1.9739618
2.5360682 1.0883106 1.9843789 2.3741798 1.8543534 1.9473373 1.6222935 1.775388
1.5299753 2.2296937 2.1819658 1.8466368 3.0772939 2.026645 2.1663225 2.155933
1.3904414 1.8374554 2.4140134 2.083326 2.1756718 1.7624503 1.2490325 1.3339986

model.11.bias f4 [32]
00000000: 77b9 9abe d947 2c3e e0af ddbf d60a 25bf
00000010: 36ed 59be ef86 7abe 0984 a9bf a813 d6be
00000020: de96 bbbd b9a1 04bf 8a5f 13bf 9884 6abf
00000030: 87ef 43bf d5ec 2ac0 6bb6 a03e a72f 67bf
00000040: a508 61bf 125e 89be 5241 56bf 36f1 93bf
00000050: 30d8 55be 5d13 44bf 9258 d0be 0f78 a0bf
00000060: 0b88 9abe d5fd 24bf 1adc 1cbf 7fd2 f6be
00000070: c28f f7bd 2633 6a3e 99ed 123e f5ca 8bbf
-0.30219623 0.16824283 -1.7319298 -0.6446966 -0.21281895 -0.24465536 -1.3243419 -0.41811872
-0.09159635 -0.5180927 -0.57567656 -0.9160857 -0.76537365 -2.670705 0.31389174 -0.90307087
-0.87903816 -0.26829582 -0.8369342 -1.1557987 -0.2088325 -0.76592046 -0.40692574 -1.2536639
-0.30181918 -0.64449817 -0.6127335 -0.4820747 -0.120879665 0.22871074 0.14348449 -1.0921313

model.11.running_mean f4 [32]
00000000: 891d 10c2 a52b 93c1 837a 1fc0 3d2a 3dc2
00000010: c26e f040 6d23 fbc1 58b1 81c2 6fbf 2fc1
00000020: cf59 77c1 088a 39c1 27d3 9ec1 5b2f 0a40
00000030: 7849 87c1 4284 f841 efb5 0dc2 a20d 52c2
00000040: 039f a9c1 39bd 13c2 d945 28bf 03f5 8f41
00000050: 3065 24c2 a771 64c1 e66c efc1 3d4a 0fc2
00000060: 70e9 453e f647 38c2 31a3 7bc0 6c36 9ec1
00000070: 02c6 43c2 d141 d0c1 062f 80c2 daaa a841
-36.028843 -18.39631 -2.4918525 -47.29125 7.5135202 -31.392298 -64.846375 -10.984237
-15.459426 -11.596199 -19.853102 2.1591403 -16.910873 31.064579 -35.42767 -52.513313
-21.202642 -36.934788 -0.6573158 17.994635 -41.098816 -14.277747 -29.928173 -35.8225
0.1932733 -46.070274 -3.9318354 -19.776573 -48.943367 -26.032137 -64.09184 21.083424

model.11.running_var f4 [32]
00000000: d58d bc44 045a 0245 7017 9f44 4af5 1a45
00000010: 2424 ad42 f4ec ba44 e269 1045 0d23 3245
00000020: fc9d cc44 9fc6 7544 67fe 3b44 af77 b444
00000030: ba40 9244 a86e 8c44 7269 da44 ad5d 0f45
00000040: f5cc bf44 e61e ae44 92d9 8144 629d 7044
00000050: 2be2 6745 d90a 7c44 51ab cb44 f0e5 af44
00000060: 637f 0a45 1d5d 9c44 fcb6 db44 c60b 2e44
00000070: 8480 c244 6fd2 bb44 ed16 db44 8dd6 a144
1508.4323 2085.626 1272.7324 2479.3306 86.57059 1495.4048 2310.6177 2850.1907
1636.937 983.10345 751.97504 1443.7401 1170.0227 1123.458 1747.2952 2293.8547
1534.4049 1392.9656 1038.7991 962.4591 3710.1355 1008.1695 1629.3536 1407.1855
2215.9617 1250.9098 1757.7183 696.18396 1556.0161 1502.576 1752.7164 1294.7047

model.13.weight f4 [32, 32, 3, 3]
00000000: b45c fabe 1258 3bbf 0dab a5bf 0250 fd3d
00000010: be4a 44bd 528e 183f 0b73 c3bd bffa 5bbe
00000020: a391 043e f449 11bf 4e85 1fbf ad22 70be
00000030: 14da 6c3f 4bda 3abf 7fc0 b4bf 700a af3f
00000040: ab50 8dbf 42e3 f8bf 4336 28c0 4b9e ca3e
00000050: cdc8 1ec0 2cd6 b1bd 1f66 c0bd 523b af3e
00000060: c215 0940 9992 a2bf b827 babf e0e1 f5be
00000070: c8eb 2d3f 5b74 353f 7f59 2ebe e9b7 bf3f
00000080: cb08 4c40 62d7 99bd fa0b 1540 ae3c aa40
00000090: 87a3 963d 8a2f 963d f53a 50bd 5600 27bd
000000a0: 17cc 6e3d a538 53be b5bf 833d a5b8 2b3c
000000b0: bc39 97bd e335 4dbd a05a 10be abb0 1ebe
000000c0: fb33 05be cafb 94be 5589 5d3d 2c09 a6bf
000000d0: 3773 89bf 77e1 16bf 2ca2 6dbf bd76 a8bf
000000e0: 003c dabf cbb4 0a3f 4faf 8cbe 48ee b6be
000000f0: 8fe7 2740 3baa 0140 d2d0 1d3f d85e 0d3e
00000100: ef71 d3be babf 5f3f d228 c43e a3b3 28bf
00000110: 6328 0040 3b04 cb3f 3e47 e73e 34f3 4d40
00000120: 7794 94bf b2de 8b3e 02a8 85be 12a0 85bf
00000130: c40d 0dc0 423b edbf bb6a 06bf 7be2 50c0
00000140: a034 76c0 a3be c53f 2aab 8abb 930e 643e
00000150: 9cac 9dbf 91f9 34bf 54be da3f d580 dcbf
00000160: fe40 aabf 8df5 223f 3aef ee3d e879 b63f
00000170: e2fd 2cbf c04d 8cbf de3a bdbf b88c 0e3f
00000180: a1d5 29c0 ad71 81c0 5bcb 24bf 9c2a 92bf
00000190: db0a 99bf 49aa bdbe e400 64bf 19ab 723f
000001a0: 039f 813f a71b cebf a710 b2bf 0599 7bbf
000001b0: 86c7 703f e917 52bc 9dc6 a3bf 5a84 103f
000001c0: a9c4 9abf dd6f 8d3f 0a19 613f 998c b53f
000001d0: ed57 1740 5921 3ac0 b43b e9bf e4d0 fb3f
000001e0: de1d 2ac0 a06f 053f a891 723e 99ce 37be
000001f0: 9eaa fa3d aa69 8e3f 7112 be3f 597b 35bf
00000200: 87b7 b13d cd7e 6240 9436 8dbf 5379 d6bf
00000210: 625d dc3f 3478 c6bf fb57 dfbf 0f82 7d3f
00000220: 57cb 183f 3f45 9e3f e74d 2b3f d20a 833f
00000230: 5c21 10be 5cfa acbf 382a 4b3f ba23 11be
00000240: cb1b 66bf d510 cd3f 2934 083f 2916 92bf
00000250: 67b2 5b3f e666 55bf 6e1e 05bf 97fc d7be
00000260: c1f0 37c0 0c42 bc3f faaa 173f 8d89 5fbf
00000270: 6ad9 dd3f f38f 2740 4206 9cbf f1b9 93bf
00000280: b587 473f 0ac7 9bbf 7e1f 873e 5f98 a6be
00000290: 2dc9 adbf 842e 10bf 54d9 bbbe d6ae 313e
000002a0: 2a74 edbf ce70 91bf 822f 46bf 66ad 763f
000002b0: e36d 32bf 7522 59bf 9a5b 83be 2a0e 5bbf
000002c0: 167c c8bf cdfa 503f 8a5a 2a40 59ed c03f
000002d0: 1be0 fabf af39 693f 6a49 1cbf 92f9 cebe
000002e0: 2c01 6c3f 8cb9 bdbc 5728 8e3f 75e5 873e
000002f0: 5497 d8bd a45e a23f ba55 9d3d 0ea2 32c0
00000300: 5d5a 2f3f b061 d53f 33c9 903f 7548 3f3f
00000310: 6e11 47bf c380 81be f45a 44bf d468 50bf
00000320: 5449 3bbf 1ae1 dcbe aee4 f1bf ca27 86bf
00000330: b152 dfbe 3c35 253e 5241 60be 7462 5bbe
00000340: c1dc c0be 94b3 1bbf 3efe a4bf ff31 97bf
00000350: 3a93 a9be d50f 40c0 4993 89bf 9b8c 8f3e
00000360: 8312 08be 65cf 27bf adde 03c0 55f8 93bf
00000370: 1754 48bf 313f 35bf ddc9 0ac0 eb5b 75bf
00000380: 978b 8cbf 2ff2 8b3f b91c ab3f f253 58c0
00000390: 8a41 9c3f d7ea 9a3f c1d8 c8bf b550 833f
000003a0: 7ab1 8e3f f875 5abf ce19 833f 75b3 23bf
000003b0: 6479 79bf 3a29 9a3f c98b 9d3f c254 5abf
000003c0: ec64 423f d4cc 3540 f89b 1840 b1cd 5f3d
000003d0: 0621 bebf 9ee1 44bf 8a30 f2bf ab30 c6be
000003e0: ee41 c9bd 9815 babf cab6 a9be 4b77 0f3e
000003f0: dbbc 6abf a974 0fc0 d0c7 f2bf dd93 7c3d
-0.48898852 -0.7318126 -1.2942826 0.12368776 -0.047922842 0.59592164 -0.09543427 -0.21482371
0.12946181 -0.5675347 -0.6231278 -0.23450728 0.9252026 -0.7298934 -1.4121245 1.367506
-1.1040243 -1.9444354 -2.6283119 0.39573893 -2.481006 -0.08683428 -0.09394478 0.34224945
2.141953 -1.2700988 -1.4543371 -0.4802389 0.679379 0.7088067 -0.17026328 1.4978
3.1880367 -0.07511784 2.328856 5.319907 0.07355409 0.07333286 -0.050837476 -0.040771805
0.058300104 -0.20627077 0.064330496 0.010481034 -0.07384059 -0.05010022 -0.1409707 -0.15497081
-0.1300811 -0.2909835 0.05408605 -1.2971549 -1.0738286 -0.5893778 -0.9282558 -1.3161236
-1.704956 0.5418212 -0.274775 -0.3572867 2.6235082 2.026015 0.6164676 0.13805711
-0.41297862 0.87401927 0.38312393 -0.65899104 2.002465 1.5860666 0.4517154 3.217969
-1.1607808 0.2731834 -0.26104742 -1.0439475 -2.2039652 -1.8533709 -0.5250661 -3.2638233
-3.846962 1.5448803 -0.00423183 0.22271185 -1.2318301 -0.7069331 1.7089334 -1.7226816
-1.3301084 0.6365593 0.116667226 1.4255953 -0.67574894 -1.0961227 -1.478359 0.5568347
-2.6536639 -4.0451264 -0.64372796 -1.1419253 -1.1956438 -0.3704398 -0.8906386 0.94792324
1.0126652 -1.6102189 -1.3911332 -0.98280364 0.9405445 -0.012823083 -1.2794987 0.5645195
-1.2091266 1.1049763 0.8792883 1.4183532 2.3647416 -2.9082854 -1.8221345 1.9673123
-2.658073 0.5212345 0.23688376 -0.17949905 0.12239574 1.1125996 1.4849378 -0.7089134
0.08677583 3.5389893 -1.1032281 -1.6755775 1.7215998 -1.5505433 -1.7448725 0.9902658
0.5968527 1.2364882 0.66915745 1.0237677 -0.14075226 -1.3513904 0.79361296 -0.14173785
-0.8988616 1.6020762 0.5320459 -1.1413013 0.85819095 -0.83360136 -0.51999557 -0.42184898
-2.8740695 1.4707656 0.59245265 -0.8731926 1.7331975 2.618161 -1.218941 -1.154112
0.7794145 -1.2170117 0.26391214 -0.32538125 -1.3577019 -0.5632098 -0.36689246 0.17351851
-1.8551075 -1.136255 -0.7741624 0.96358335 -0.69698924 -0.848182 -0.25655824 -0.8556849
-1.5662868 0.8163269 2.661776 1.5072433 -1.9599642 0.91103643 -0.6104952 -0.40424782
0.9218929 -0.023159765 1.1106061 0.2654225 -0.105757385 1.2685132 0.07682367 -2.791141
0.6849726 1.6670437 1.1311401 0.74719936 -0.7776097 -0.2529355 -0.76701283 -0.81409955
-0.73158765 -0.4314049 -1.8897913 -1.0480893 -0.43617776 0.16133589 -0.21899918 -0.21424276
-0.37668422 -0.6082089 -1.2890089 -1.1812133 -0.33120137 -3.0009663 -1.0748073 0.2803696
-0.13288312 -0.65550834 -2.060466 -1.156016 -0.7825331 -0.7079955 -2.1685708 -0.9584338
-1.09801 1.0933284 1.336814 -3.3801236 1.2207501 1.2102917 -1.5691148 1.0259005
1.1147912 -0.85336256 1.024225 -0.63945705 -0.9745085 1.2043831 1.2308284 -0.8528558
0.75935245 2.8406267 2.3845196 0.054639522 -1.4853828 -0.76906765 -1.8921063 -0.38709006
-0.09827028 -1.453784 -0.3314727 0.1401035 -0.9169442 -2.2414954 -1.8967228 0.06166445

model.13.bias f4 [32]
00000000: 37f2 4bbc dc19 81bd 3f20 c6bd 5204 30bd
00000010: 5282 203d ee89 a63d 8ff7 243c 0fe4 bf3d
00000020: 7c28 953e a643 a2bc e041 99bc 5e29 a8bc
00000030: d56b 123e 8c40 343e 5f2f 01be ef47 b33d
00000040: e542 be3d 46bd 0dbd f2a5 17be cc7d e33d
00000050: 9e34 dcbd ccf3 b0bc 57de bcbd 7705 8b3d
00000060: db19 09be 872a 30be 9d1b 243d dd76 993d
00000070: cba3 363e cbfe 5e3d 786a 863d 0631 5ebd
-0.012447885 -0.063037604 -0.09674119 -0.04297287 0.039186783 0.08131777 0.010068788 0.093696706
0.2913245 -0.019807648 -0.01870817 -0.020527538 0.14298947 0.17602748 -0.12615727 0.087539546
0.09290103 -0.034604333 -0.14809397 0.11107978 -0.107522234 -0.021600626 -0.092220955 0.06788152
-0.1338877 -0.17203723 0.040065397 0.074933745 0.1783592 0.05444221 0.06563276 -0.05424597

model.14.weight f4 [32]
00000000: b044 ae3f 1375 4540 63a5 4340 06a8 cd3f
00000010: 4bbe ec3f 37fa 0140 1f2a 0340 1737 0a40
00000020: f496 0140 d12f d63f f4ab f03f e43f b53f
00000030: 7251 0240 7f95 d73f 7fbd 2240 7899 0140
00000040: 44f0 a53f 7f0d c63f e162 2d40 4520 bb3f
00000050: 4ea3 2840 84b3 e43f be56 d33f 95bb f93f
00000060: 98ca 0d40 a9de 0340 f107 b43f dcde 0b3e
00000070: 86e8 e03f adef f33f f429 c73f ba8b 9e3f
1.3614712 3.0852706 3.0569694 1.6066902 1.8495573 2.030897 2.0494459 2.1596124
2.0248384 1.6733342 1.8802476 1.4160123 2.036221 1.6842498 2.542816 2.024992
1.2963948 1.5472869 2.70916 1.4619223 2.6349673 1.7867284 1.6510847 1.951037
2.2154903 2.060465 1.4064924 0.13659233 1.757096 1.9057518 1.5559678 1.2386391

model.14.bias f4 [32]
00000000: 73e2 cebf e305 5cbe 5f9a 9fbe 657f 64bf
00000010: b033 febf ad7e 19bf fa5d 86bf a597 33bf
00000020: 0478 62be cbd5 1bbf 1c9c 91bf 2d33 61bf
00000030: 505b 38bf c6c6 c3bf f373 91bf ec93 8cbf
00000040: 0083 6bbf 82b2 76bf 47d4 4fbf c6c8 2abe
00000050: 851e e1bf 033f 24bf 52d8 e4bf 702e 9fbf
00000060: 0a86 36bf c4e9 1bbf 800b 803e f4fe 2dbf
00000070: bb75 01bd 7d77 80bf 484a dfbd 8a02 64bf
-1.6162857 -0.2148662 -0.31172463 -0.8925689 -1.9859524 -0.59958917 -1.0497429 -0.70153266
-0.22116095 -0.608731 -1.1375766 -0.87968713 -0.7201433 -1.5295036 -1.136351 -1.0982642
-0.91996765 -0.9636613 -0.81183285 -0.16678151 -1.7587439 -0.6415865 -1.7878516 -1.2436047
-0.7129828 -0.60903573 0.25008774 -0.6796715 -0.031606417 -1.0036465 -0.1090284 -0.89066374

model.14.running_mean f4 [32]
00000000: 95f1 dcc1 1221 21c2 98ae 50c2 b105 78c1
00000010: 5ba7 b840 4589 21c0 6af8 1dc2 5b9b 6dc2
00000020: 81b8 7140 2deb 32c2 56c9 3dc2 e078 16bf
00000030: 71c2 aec1 a21f 24c2 275a 82c2 2893 18c2
00000040: 5035 1d40 4a97 2a42 0c63 72c2 eaa1 6dc2
00000050: abc9 1bc2 2241 81c1 d6f9 52c1 f131 2cc2
00000060: ecf2 c6c1 bd62 bac2 67f0 95bf e599 2fc2
00000070: 709c 55c1 f102 39c1 6c23 ecc1 ffa1 b940
-27.61796 -40.282295 -52.1705 -15.5013895 5.770429 -2.5240033 -39.49259 -59.401714
3.7768862 -44.729664 -47.446617 -0.5877819 -21.844942 -41.03089 -65.17608 -38.143707
2.456379 42.647743 -60.596725 -59.40812 -38.94694 -16.156803 -13.185995 -43.04877
-24.868614 -93.19285 -1.171399 -43.900288 -13.350693 -11.563218 -29.517296 5.801025

model.14.running_var f4 [32]
00000000: 3d60 be44 c21d d644 cc8c eb44 937a 9d44
00000010: 93b0 8a44 6228 1545 7777 6144 6e41 1845
00000020: 1e07 a044 4c74 ce44 c9f3 9844 5e52 a144
00000030: 87c3 7f44 a0ab 0c45 e615 9944 e869 0545
00000040: 8e23 a444 060c ce44 46fa a344 0ca3 e044
00000050: 05db 6344 f2e1 7c44 3403 a544 e251 2445
00000060: 4b0f da44 e740 b244 6fa7 9544 4fac 8a44
00000070: 8fb7 0b45 5e7c 9944 7e07 cb44 e64c cc44
1523.0074 1712.9299 1884.3999 1259.8304 1109.518 2386.524 901.86664 2436.0894
1280.2224 1651.6343 1223.6183 1290.574 1023.0551 2250.7266 1224.6843 2134.6191
1313.1111 1648.3757 1311.821 1797.0952 911.4222 1011.5304 1320.1001 2629.1177
1744.4779 1426.0282 1197.2323 1109.3846 2235.4724 1227.8865 1624.2341 1634.4031

model.16.weight f4 [32, 32, 3, 3]
00000000: cdef e5bf 6f59 18c0 e3e0 14c0 7132 5cbf
00000010: 80e4 66bf 3bca bf3f e353 5cc0 e4cd 303d
00000020: 6f97 c83e db02 afbe 4f27 febd 9de0 69bf
00000030: 9c79 f8bf 9a23 4e3f b846 683f 8781 8ebe
00000040: a972 02c0 caa0 9ebf 55b5 d53e 152a a2be
00000050: 16fe 723f f8a6 4b3e 7d90 e53c 29c5 813e
00000060: c261 d53f ed33 873f caa7 533f 9ca9 24bf
00000070: 0275 36bf a164 01ba 5076 66bf 01dd 3cbf
00000080: e44d dd3e ec3a 41c0 efb7 12c0 6ff1 97bc
00000090: 9586 d93f cdfd 2340 ab73 6140 ec70 41bf
000000a0: be3f 8fbf 2259 e73d d68e d3bf 696a c2be
000000b0: 9c12 8fbe f1d9 8b3f f827 8dbf 2f95 dcbf
000000c0: 634c 363f 5bb2 a1bf b3e1 25c0 c7a9 8d3e
000000d0: 862e 14c0 9ac7 45c0 24cd 41bf b46c 9e3f
000000e0: 9222 f83f 2479 1dbf 1c49 02c0 13d6 23bf
000000f0: a030 06c0 ad2b 1ec0 1559 48c0 5b7b b4bf
00000100: 7bd6 e6bf a6cc b83f 8f8c afbf bc3c abbf
00000110: 090d 973f 53d1 a5bd f811 3cbe b26e 9f3d
00000120: fa5b 8bbe bfb9 4ebd 67b4 8e3f 4b52 debf
00000130: 5561 1cbf 7b88 403f 4d05 893d 77b1 913e
00000140: 2b81 c2bf f758 49c0 557e 21c0 3640 1cbf
00000150: 1ad0 89be 2bf5 94bf b1db 833d a982 e73d
00000160: a6cf 4dbf 6e5e 3fbe 9e17 083f 3d2b b03e
00000170: 135c 013f 5a98 cdbe 805a fabf 14c5 033e
00000180: 0bd3 64be d03b 2ac0 be24 26bf 142b a7bf
00000190: fa46 12c0 3ff7 2ec0 e9e1 86bf 3ac8 06c0
000001a0: 40ce 64c0 6504 413f ef2e a83f f51e e6be
000001b0: 5dc4 a73f eaf0 573f 99a8 d2be 27ea 533f
000001c0: fc21 733d 2c71 a0be e981 d4be 5bf1 25c0
000001d0: 87b6 18c0 a9db cabf dd65 cfbf 4d1a cc3e
000001e0: 6a2d 86bf e1e8 5f3f 67b8 e53f e32f 87bf
000001f0: d69d 76bf c743 f33f a5c6 98bf c3de 5a3f
00000200: f11a 4ebe cd22 e1bd ea8a 23bf 066c b9bf
00000210: df20 1bbf c61c b83e c2e8 3a3f 9a1b 93c0
00000220: cb48 24c0 60ef e9bf 3d81 38c0 cfd7 74bf
00000230: 9715 cebf 0e34 c7bd a4f7 233e dd2c 14c0
00000240: 4129 31c0 4f30 3bbf a9f8 19bf cb1f 10c0
00000250: 323f 093f c179 413f f5fe aebf e45a 53bf
00000260: 8bfb 84bf b280 32c0 2057 81be e611 0c3f
00000270: 8f24 c7bf 4398 503e 8d85 8e3f c186 823e
00000280: b447 d13f 90eb bd3f cdf2 31bf 0a1e 70be
00000290: 0b13 97bf 6fbd f23f 180c a73d b457 38c0
000002a0: 8d7d 4d40 2f2d 8ebf 7004 12c0 45d1 8c3f
000002b0: 055e febe bfc4 1c40 77b9 87be d4a8 6ebf
000002c0: 3db1 1f40 69dc 13bf 2bb6 81bf 5aa0 0740
000002d0: ce1d 11be 2ae5 06bf 0696 c33e 3302 ca3f
000002e0: 6b8d febf 9c88 91c0 253c c53f 4c54 c6bd
000002f0: ef3d d7bf e355 47be a970 2fc0 a155 ffbf
00000300: 6abf d8be e0c1 c5bf 7123 9bbf 6eaa e63e
00000310: 1cc6 ff3e 5c64 cd3d a421 d6bf cca5 d3bf
00000320: ad86 f23d fa9d fbbe e2e1 593e b239 db3d
00000330: 305e 47c0 be5e fbbf 003b 8fbf 3b7a 18c0
00000340: fd45 11c0 903b e1bf fc3e 29c0 06c8 42c0
00000350: 6901 c4bf 8043 15c0 665f cfbf e57b acbf
00000360: 766e ff3d dd9f eebf adb7 973e 5400 c93e
00000370: da69 6abf 061e 563f 579c e2bf 1dcc 01c0
00000380: e102 53bf 5451 ad3a 1ab1 923f 55ed db3f
00000390: b74a 203e 3bcb 9b3f e939 fd3f 4377 c53e
000003a0: d5d1 853f e757 b23f 154e 90be 960a a33f
000003b0: 1341 81bf d798 edbf 7b4b 85be 5ff7 3bbf
000003c0: b69b 8e3f ac16 1740 2e3d 883f a306 57be
000003d0: 3a17 85bf cbdf 1e3d f3ed 02bf 5adc 3dbe
000003e0: b337 983f 7c76 3dbf 67ee 9dbd 31e0 893f
000003f0: 0a1c 06c0 d97b 08bf 8290 c5bc ca4c 1ec0
-1.7963806 -2.3804586 -2.326226 -0.8601447 -0.90192413 1.4983591 -3.44262 0.043165103
0.39178035 -0.34181866 -0.12409841 -0.9135836 -1.9412112 0.80523074 0.9073291 -0.27833197
-2.0382483 -1.2392819 0.41739908 -0.3167273 0.94918954 0.19887912 0.028022999 0.25345734
1.6670458 1.0562721 0.826779 -0.64321303 -0.7127229 -0.00049359543 -0.9002428 -0.73774725
0.43223488 -3.0192213 -2.2924764 -0.018547742 1.6994196 2.5623658 3.5226848 -0.7556293
-1.1191328 0.112962976 -1.6527965 -0.3797181 -0.27943885 1.0925885 -1.1027822 -1.7233027
0.71210307 -1.2632555 -2.5919006 0.27668592 -2.3153396 -3.0903077 -0.75703645 1.2376924
1.938555 -0.6151297 -2.0357122 -0.63998526 -2.0967178 -2.4714158 -3.1304371 -1.4100145
-1.8034204 1.4437454 -1.371477 -1.337791 1.1800853 -0.08096566 -0.1836623 0.07784785
-0.2721861 -0.05047011 1.1148804 -1.7368864 -0.61086017 0.7520825 0.06690464 0.28455707
-1.5195669 -3.146055 -2.5233357 -0.6103548 -0.2691658 -1.1637319 0.06438387 0.11304218
-0.8039497 -0.18688366 0.53161037 0.34407988 0.5053112 -0.40155298 -1.9558868 0.12868148
-0.22346132 -2.6599007 -0.64899814 -1.3060021 -2.285582 -2.7338407 -1.0537692 -2.1059709
-3.5750885 0.7539733 1.3139323 -0.44945493 1.31068 0.8435198 -0.41144255 0.82779163
0.059358582 -0.31336343 -0.41505364 -2.5928562 -2.3861406 -1.5848285 -1.6202961 0.39863816
-1.0482609 0.8746472 1.79469 -1.0561489 -0.9633459 1.9005059 -1.1935622 0.8549616
-0.20127465 -0.10992966 -0.6388384 -1.4486091 -0.6059703 0.35959452 0.7301141 -4.5971193
-2.566943 -1.8276176 -2.882888 -0.956418 -1.6100339 -0.097267255 0.16012436 -2.3152382
-2.768143 -0.7312059 -0.6014505 -2.2519405 0.53612053 0.75576407 -1.3671557 -0.82560563
-1.0389265 -2.789105 -0.25261784 0.5471481 -1.5558032 0.20370583 1.1134506 0.25493434
1.6350007 1.4837513 -0.6951111 -0.23448959 -1.1802686 1.896406 0.081566036 -2.880353
3.210788 -1.1107539 -2.2815208 1.1001364 -0.49681106 2.4495084 -0.26508686 -0.9322636
2.4951928 -0.57758194 -1.0133718 2.119162 -0.14171526 -0.52693427 0.38200396 1.5781921
-1.9886907 -4.547926 1.540898 -0.09684047 -1.6815776 -0.19466357 -2.7412512 -1.9948007
-0.42333537 -1.5449791 -1.2120191 0.45051903 0.49955833 0.10028908 -1.6729016 -1.6534972
0.118420936 -0.49143964 0.21277574 0.10704364 -3.1151237 -1.9638288 -1.118988 -2.3824604
-2.2698967 -1.7596302 -2.6444693 -3.0434585 -1.531293 -2.3322449 -1.6200988 -1.347531
0.124722406 -1.8642536 0.2963232 0.39258063 -0.91567767 0.8363956 -1.7703961 -2.028083
-0.8242627 0.001322309 1.1460297 1.7181803 0.15653501 1.2171396 1.9783298 0.38567552
1.0454661 1.3933076 -0.28184572 1.2737606 -1.0097984 -1.8562268 -0.2603415 -0.73424333
1.1141269 2.3607588 1.064367 -0.20998625 -1.0397713 0.038787644 -0.5114433 -0.18541089
1.1891998 -0.7400892 -0.07711487 1.0771543 -2.0954614 -0.53313977 -0.024116758 -2.4734368

model.16.bias f4 [32]
00000000: e15e 0c3c fb75 fa3c 45d5 22be aa7e 4a3c
00000010: 08e5 80bc e5a4 14be acc9 ca3d d62f 42be
00000020: c889 b63d e9ec 4c3e 6754 95bd eec5 babd
00000030: 42d8 35be 913b 993d cedb 83bd 6d17 c23d
00000040: cac5 ae3d 050f 40be 12dd e13d dff2 58bd
00000050: 313d 06be 7f5e cfbd 60d1 0d3e fd5f c13d
00000060: fd06 4f3e e6ae c53d 2532 23bd 2eeb e23d
00000070: 157a 0b3e 1543 00be 5741 a23d eb28 113d
0.008567543 0.030573836 -0.15901668 0.012359301 -0.01573421 -0.14516027 0.09901747 -0.1896356
0.089129984 0.20012249 -0.07291489 -0.09119783 -0.17758277 0.074820645 -0.06438409 0.09477124
0.08533819 -0.1875573 0.11028494 -0.052965995 -0.1310928 -0.101254456 0.13849401 0.094421364
0.2021751 0.096525 -0.039842743 0.11080013 0.1362079 -0.1252559 0.07922619 0.035439413

model.17.weight f4 [32]
00000000: caee ce3f 0739 de3f 59a9 0340 d135 f73f
00000010: fa7d e03f 059d 1140 4d72 cd3f 5ff2 a23f
00000020: 650a c93f 1382 0b40 d4f8 0340 f0b8 ba3f
00000030: db38 bf3f 1c7d 2040 e12a 0240 d436 273d
00000040: 1718 d83f 8407 c93f 4f86 ef3f 4b8d dc3f
00000050: 6235 aa3f c49f 1640 2886 cd3f a083 fe3f
00000060: b58b d03f 2bc8 c73f 0634 0140 87ef dc3f
00000070: 6e76 e13f 175b 1540 96ee ce3f f8f7 d83f
1.6166623 1.7361153 2.0572112 1.9313298 1.7538445 2.2752087 1.6050507 1.2730216
1.5706297 2.179814 2.0620623 1.4587688 1.4939226 2.507636 2.0338671 0.040823773
1.6882352 1.5705419 1.8712863 1.7230619 1.3297541 2.3535013 1.6056566 1.9883919
1.6292635 1.5607961 2.0188003 1.7260598 1.7614267 2.3336847 1.6166561 1.6950674

model.17.bias f4 [32]
00000000: 6896 67bf 3829 023e f13d 5abf 9018 93bf
00000010: e1ba 78bf 3198 cabf f18e 8cbf 1adb 63bf
00000020: 72cf 64bf 2d92 6ebf 9812 e8bf 5ab1 98bf
00000030: f9c7 06c0 b06f bdbf 245e e9bf 379d 61be
00000040: 9e9e 97bf 56fb e6be 5a66 fabf 3f51 b4bf
00000050: 039e 63bf 1d24 23bf 9274 6bbf c28b 6bbf
00000060: 8431 96bf 6d1e a1bf 1a49 f2bf 6052 18bf
00000070: 275f aebe 0bf4 7fbf e464 b5bf 52c8 5bbf
-0.90463877 0.12711036 -0.85250765 -1.1491871 -0.97160155 -1.5827695 -1.0981122 -0.890062
-0.89379036 -0.93191797 -1.8130674 -1.1929123 -2.1059554 -1.4799709 -1.8231854 -0.22032629
-1.1845281 -0.4511363 -1.9562485 -1.4087294 -0.8891298 -0.6372698 -0.9197475 -0.9201013
-1.1733861 -1.258741 -1.8928559 -0.59500694 -0.3405697 -0.99981755 -1.4171414 -0.8585254

model.17.running_mean f4 [32]
00000000: afae 38c2 330e 9ac1 f625 22c2 28e0 1dc2
00000010: a0a0 0fc2 b62d 38c2 77c4 ebc1 0476 29c1
00000020: bc3d f8c1 4cf2 19c2 82ff a7c0 22cf 99c1
00000030: d3f2 9f41 152b 3cc2 7da1 8ec1 4f88 8dc0
00000040: ef39 b3c1 110d dec1 5549 553f afed fe40
00000050: fc42 c8c1 e085 c1c1 fbe0 ee40 37b5 06c2
00000060: fa43 d2c0 d5b6 96c1 d96b 08c1 e2ec aec1
00000070: ae2a 06c2 a605 bbc1 e235 dcc1 0457 d1c1
-46.17059 -19.256933 -40.53707 -39.468903 -35.90686 -46.04464 -29.47093 -10.591312
-31.030144 -38.486618 -5.24994 -19.22614 19.993567 -47.042072 -17.828852 -4.422889
-22.403288 -27.75638 0.8331502 7.966514 -25.032707 -24.190369 7.4649634 -33.676968
-6.570798 -18.839273 -8.52633 -21.865665 -33.54168 -23.377758 -27.52631 -26.167488

model.17.running_var f4 [32]
00000000: 025e 9b44 6a57 a544 066c 8b44 e965 be44
00000010: e44b 8b44 d045 8944 a9a5 8344 67a7 8244
00000020: a12c 8c44 e260 aa44 1525 8244 7f2d 8744
00000030: 125b 2744 788a 6744 e8cd 7744 439c 2543
00000040: a5e5 b044 06e3 5644 a4e8 6944 dcce 5644
00000050: fe9b 8744 7670 c244 947e 8f44 2b9c 3a45
00000060: 4b42 9044 b5da b344 b776 4644 ab67 a344
00000070: 9c79 ae44 eaed b544 f79d 7a44 5d4b 9544
1242.9377 1322.7317 1115.3757 1523.1847 1114.3716 1098.1816 1053.1769 1045.2313
1121.3947 1363.0276 1041.1588 1081.4218 669.423 926.1636 991.2173 165.6104
1415.1764 859.54724 935.635 859.2322 1084.8748 1555.5144 1147.9556 2985.7605
1154.0717 1438.8346 793.8549 1307.2396 1395.8003 1455.4348 1002.4682 1194.3551
