08_few/8_pn.pth (torch_old, 471126 bytes, 26 tensors)

net.0.0.weight f4 [64, 1, 3, 3]
00000000: 3637 133e f5b4 1b3e fb3d 9a3e adb6 a0bd
00000010: 0829 603d 9377 803e ee98 3e3d 50e3 1d3d
00000020: 8702 22be 86eb ddbd 4013 fdbc e589 0b3e
00000030: 0cca 473e a42f a53d 0d84 683d 91c6 d2bd
00000040: e873 513e f25c 2f3e 9e02 f13d 5813 de3d
00000050: 3ebf 1dbd b624 60be 355f 443e c440 18bd
00000060: 2ee1 d7bd d26d 3e3d 3bed 60be 3513 6d3e
00000070: 0030 0bbe 3086 fdbd e0f5 9dbe b9aa e7bc
00000080: c3e1 a83e d771 383e 021c 51bd 1e3d 39be
00000090: a358 603e 9221 843e 4abc 5b3e 4e3e f33c
000000a0: 212f 82be 1efd 46be 9642 4dbe 4fd5 a0be
000000b0: b6d1 353e 2fac 553e f5ad c4bd 0c1d 0e3e
000000c0: 6286 083d ac57 533e f809 713d 1fa7 5fbe
000000d0: 74fc b63d 2471 823e 3b97 13be 4979 c13d
000000e0: af44 cd3d 9aea 673e 5ac3 3b3e ef5f 86bc
000000f0: 15e1 27bd 9f08 7ebe ea6f ffbd dd72 50bd
00000100: 9358 a33e 7646 a3be e09d cebd 7347 51ba
00000110: 0b86 223e f96c 703a 35e8 6dbe 5ddb 3f3e
00000120: 17cd 46be 52f8 79bc 58fa 19bd a816 6ebe
00000130: bed9 34be a0e7 9dbe dfa0 efbc 1e8f 233e
00000140: f217 843e aea9 14be 7b12 b0be d9cd 2dbe
00000150: d0ac 54be 5408 1fbb 0418 44be 4641 a53e
00000160: 8f55 923e e8f3 e53d ae75 363e 3910 83bd
00000170: cf59 b9be d5d4 87be c5cb 8b3e 3a40 98be
00000180: 2165 6c3e fc54 743e 4b5c c9be f340 7abd
00000190: f1eb eb3b df8f 143d 6464 5dbe d0f0 973e
000001a0: 17b7 d1bd 1ba4 b0be 7bc4 233e 1563 4a3e
000001b0: b034 bdbd 5c3e 1f3e 23fd 1d3d 3468 8e3d
000001c0: 8a30 d13d af2f a5be e3ba ab3c 489f f73d
000001d0: 2da2 1fbe 30b6 4dbe 633e 1dbe 67ef 673d
000001e0: eb80 a2be f370 563e fa0b 8e3d 113e 873e
000001f0: f2af f23c d6cb 26be e290 f83d 8f72 643d
00000200: 9ac6 24be c6cf fe3d 3ec9 c9bd dd4c acbd
00000210: 8ad2 cd3e 112f e8bd 572e 89be 7e7b 193e
00000220: 3860 7fbd 58a6 7a3e 70da 84be c66f 313e
00000230: 635d e6be 74df 5ebe 7dd7 25be ef7a 643e
00000240: 1c36 593e c72f 0e3a 9818 95bd 0341 3e3d
00000250: d3d1 4b3e 6bb0 493e 6fa4 babe 3284 05be
00000260: 6b2c 81be 7a7e 9c3e 3ada cebe 1f1c 163e
00000270: 3ea0 e13d 3043 9e3d 5151 6cbe df9f 22be
00000280: 8bf4 7a3e 1ac6 5fbc 5fe5 59be 410f e8bc
00000290: 80a3 f63d 12b3 b5be c516 fb3d 8e0e 6e3e
000002a0: 0972 51be c527 bbbe d1aa c9bd 24c1 fb3d
000002b0: dbfb e4bd e1d9 15be fa64 94bd 6ab2 78be
000002c0: f1e2 913e 5ada 9e3e 297f 2fbe f5fc 57be
000002d0: e002 983e 78e7 e93d 3af2 e2bb 4a4f 523e
000002e0: a7a6 e4bc 124a 9f3e 2a47 af3d 6d7c 4a3e
000002f0: 9620 b33e f0b0 55bc f0b7 6f3c 36b7 423e
00000300: 1277 9a3d dbb8 2ebe 88c4 4e3e 2854 933e
00000310: cbef 1e3d 04c5 a1bd f555 7b3e a7d3 ccbe
00000320: 11af 293e 596b 563e 4638 b5be 1096 a93d
00000330: 5e3b 33be 5450 423e aa5c f93c 1136 6dbd
00000340: 137e c7bd 1f13 ad3e 5785 533e 484e b53e
00000350: 614c 21be ed61 163e 59d3 6d3e d6e2 0e3e
00000360: 0b22 823e 7cb7 833e 293f 113e 1c3d 913e
00000370: 6883 35bd fb8b 2d3e ccd2 99bc 9188 56be
00000380: c218 263e d06e 613e 4878 853e f5fa 843d
00000390: 6e97 dcbc 9d22 af3e 7d28 b03d 5a23 84be
000003a0: bcc6 db3d f561 7f3e 2db3 e03d f5b9 4e3e
000003b0: 3612 3ebe 71cd 7f3e 8a25 253d 5eaa 20be
000003c0: 2925 323d 972e 2e3e 1599 693e 69d2 273e
000003d0: 3164 683e 37d4 97be 227a 763e 574d e43c
000003e0: fcf8 a5be 2be7 6abe 5ec6 b0be d61f 68bd
000003f0: 4f24 953e 4bbb abbd 13a5 b23d 2208 253e
0.1437653 0.15205748 0.30125412 -0.07847343 0.05472663 0.25091228 0.046532564 0.03854686
-0.15821277 -0.10835938 -0.030892968 0.13626821 0.19510669 0.08065727 0.05676656 -0.1029178
0.20454371 0.171253 0.11768077 0.10843533 -0.03851246 -0.21889004 0.19176944 -0.03717114
-0.105409965 0.04649145 -0.21965496 0.23151858 -0.1359253 -0.1237911 -0.3085165 -0.02827965
0.32984743 0.18012176 -0.0510521 -0.1808972 0.21908812 0.25806862 0.21458545 0.029692795
-0.25426582 -0.19432494 -0.20044932 -0.31412742 0.1775578 0.20866464 -0.09603492 0.13878268
0.033331282 0.20638913 0.058847398 -0.21841095 0.0893487 0.25476944 -0.14413159 0.094469614
0.10022866 0.22648087 0.1833624 -0.016403167 -0.04098614 -0.24807976 -0.12472518 -0.050890792
0.31903514 -0.31889695 -0.10088706 -0.0007983364 0.15871446 0.00091715116 -0.23233111 0.18736024
-0.19414173 -0.015256958 -0.037592262 -0.2325083 -0.17661187 -0.30840778 -0.029251514 0.15972564
0.2579952 -0.14517853 -0.343891 -0.16973056 -0.20769048 -0.0024266439 -0.19149786 0.32276362
0.285809 0.11228162 0.17818329 -0.063995786 -0.3620133 -0.26529565 0.273039 -0.297365
0.23085453 0.23860544 -0.39328226 -0.061097097 0.0071997573 0.03627002 -0.21620327 0.29675913
-0.1024 -0.34500203 0.1599292 0.1976436 -0.09238565 0.15551132 0.038571488 0.06953469
0.10214336 -0.32262942 0.020963138 0.12090927 -0.15589209 -0.2008903 -0.1535583 0.056624796
-0.31738982 0.20941524 0.06935878 0.2641454 0.029624913 -0.16288695 0.12137009 0.055773314
-0.16091385 0.124419734 -0.09852837 -0.08413098 0.4019969 -0.11337102 -0.26793167 0.14988515
-0.06234762 0.24477518 -0.25947905 0.17327794 -0.44993123 -0.21764928 -0.16195484 0.2231252
0.21212047 0.00054239895 -0.072800815 0.04644872 0.1990426 0.19696204 -0.36453578 -0.1303871
-0.252292 0.30565244 -0.4040087 0.14659165 0.11016892 0.07727659 -0.23077895 -0.15881298
0.24507348 -0.013658071 -0.21278904 -0.028327586 0.12042904 -0.35488182 0.12260202 0.2324774
-0.20453657 -0.3655378 -0.09847034 0.12292698 -0.1118085 -0.14633895 -0.07245822 -0.2428681
0.28493455 0.31025964 -0.17138352 -0.21092589 0.29689693 0.11421102 -0.0069258483 0.20538059
-0.027911497 0.311112 0.08558495 0.19774027 0.349858 -0.0130426735 0.014631256 0.19015202
0.07542242 -0.17062704 0.20192158 0.28775144 0.038802903 -0.07898906 0.24544509 -0.40005228
0.16570689 0.20939387 -0.35394496 0.08280575 -0.17503116 0.18975955 0.030439693 -0.05791289
-0.097408436 0.3380365 0.20656334 0.35411286 -0.15751792 0.14685793 0.23225154 0.13953719
0.25416598 0.25725925 0.1418425 0.28366935 -0.044314772 0.1694793 -0.018777274 -0.20950533
0.16220382 0.22014928 0.2606833 0.06493179 -0.026927676 0.34206095 0.086014725 -0.2580822
0.10731265 0.24939711 0.10971675 0.20188124 -0.18561634 0.24980713 0.040319003 -0.1568999
0.04349247 0.1700996 0.22812302 0.16388859 0.2269447 -0.29654095 0.24070027 0.02786891
-0.32416523 -0.22939746 -0.34526342 -0.056670986 0.29129264 -0.08385333 0.08722892 0.16116384

net.0.0.bias f4 [64]
00000000: 84b4 c13e 1478 9abe 8014 413e ff7f 453e
00000010: e372 1a3e 45b8 8ebe d450 1cbe 1b9a 72be
00000020: eda5 26bd 565f 09be 3a99 9d3d f3e9 68be
00000030: 594f 813e e6f0 0dbb 0cde 4fb8 8ddf 5a3d
00000040: 555e a33e 502f c43c 391d c1bc 2918 5ebd
00000050: e2df 84be 0ba6 8f3e 302e 71be 6d68 afbe
00000060: b986 e83d ea79 a2be 19f0 3f3e cb62 343e
00000070: 6d4a a3be 95c4 24be e8d8 3cbc ee8d 1b3e
00000080: 75a4 1e3e 2cb1 23be 561d 9abe 85f2 17be
00000090: 3583 aabe 95f6 463d 59cb 42bd a29d 303d
000000a0: 871a 463e 0d2d c53c 008a 923d d00a 693e
000000b0: 7b56 383d 1904 1abe 8901 90be 039a 913e
000000c0: 7366 643e 8329 d3bd 0f61 813e 5d93 393e
000000d0: be78 96bd ef6d 3f3e dbc5 9cbe 37f8 d53c
000000e0: 9fe5 75bd b401 89be 494f 6ebe b9cd 8d3e
000000f0: c7da 8bbc f026 85be 7b5c bf3d 32cb 603e
0.37833035 -0.30169737 0.18855476 0.19287108 0.15082888 -0.27874961 -0.15265208 -0.23691599
-0.040685583 -0.13415274 0.07695241 -0.22745495 0.2525585 -0.002165848 -4.9559443e-05 0.05343585
0.31907907 0.023948342 -0.023573505 -0.05422226 -0.2595206 0.28056368 -0.23552775 -0.34259358
0.11353821 -0.31733638 0.18743934 0.17615812 -0.3189272 -0.16090615 -0.011526324 0.1519086
0.15492423 -0.15985554 -0.30100507 -0.14838608 -0.33303228 0.048575003 -0.04755721 0.04311908
0.19346057 0.024069333 0.07155228 0.22758031 0.04500435 -0.15040626 -0.2812617 0.28437814
0.22304706 -0.10310652 0.25269362 0.18122621 -0.073472485 0.1869428 -0.30619702 0.026119335
-0.060033437 -0.26759112 -0.23272432 0.27696016 -0.017072095 -0.2600627 0.09343811 0.21952513

net.0.1.weight f4 [64]
00000000: 50d5 363f 3536 4b3f 1c34 553f d994 863f
00000010: b2b2 6c3f dc08 413f 5dbe 8e3f d5e4 773f
00000020: d1e5 933f 90d0 8c3f a710 8b3f fe84 833f
00000030: dcb0 7f3f 3284 7c3f 1a32 933f 5554 813f
00000040: 0ad6 6d3f 60ff 673f 8992 8c3f 27d5 8a3f
00000050: c840 5e3f 270f 3b3f f473 9c3f 15a4 4d3f
00000060: d7e3 533f 24f1 433f 4483 533f 75ff 8a3f
00000070: 0685 4f3f 3643 6e3f 051e 8f3f d1de 5e3f
00000080: b515 993f 2e99 873f b2f2 6a3f 9620 823f
00000090: 6248 873f d10f 883f 1e75 9c3f 7797 8e3f
000000a0: 96df 443f d04e 5b3f db30 713f f86e 9a3f
000000b0: 085b 9d3f f360 9d3f b96a 8a3f 2803 503f
000000c0: 8458 5e3f 2193 903f 33f0 813f ba28 9c3f
000000d0: 7fa7 513f 6cb9 6b3f c07b 403f 1487 4e3f
000000e0: 79a5 853f 6f58 893f bf97 6c3f afcd a33f
000000f0: 7673 8b3f df03 873f b574 443f dd1c 5f3f
0.7141924 0.7937959 0.8328264 1.0514175 0.9246017 0.75404143 1.1151844 0.96833545
1.1554509 1.1001148 1.0864457 1.0274961 0.9987924 0.98639214 1.1499665 1.0103861
0.9290472 0.90624046 1.0982219 1.0846299 0.868176 0.73069996 1.2222886 0.80328494
0.8276953 0.76539826 0.8262217 1.0859209 0.8106235 0.93071306 1.1181036 0.8705874
1.195975 1.0593622 0.91776574 1.0166194 1.0568964 1.0629827 1.2223241 1.1139973
0.76903665 0.85667133 0.9421517 1.2065115 1.2293406 1.2295212 1.0813819 0.81254816
0.86853814 1.12949 1.0151428 1.2199929 0.81896204 0.92079806 0.7518883 0.8067486
1.0441123 1.0730113 0.92419046 1.2797145 1.0894611 1.0548056 0.7674058 0.87153417

net.0.1.bias f4 [64]
00000000: 6071 1abe d72b 19be 6ab6 25bd 20d4 0ebd
00000010: ea5f 43be 3b5e 88be ede0 873c f042 ebbd
00000020: 06dd 1dbc 56a0 833d f759 2e3c fcfa 1dbc
00000030: 9b59 b1bd 0cf0 eebb 500f 35bd 692f 06bd
00000040: bd66 7ebd d4c5 18be d862 fbbc 0239 66bc
00000050: 7036 5bbe 5621 88be 34c3 4b3d 5ebf 43be
00000060: 1426 6bbe b2f7 37be 4148 82be 7400 c7bd
00000070: a069 63be 5a6b 11be bf4d 0c3d e57b 4ebe
00000080: 59ec 2ebd f58c cfbc eeed 02bd 2410 103d
00000090: ca4d 4d3d a44a 21bd 78d2 023d 731f 20bb
000000a0: cfab 66be 24ac 2bbe 733a 58bd c0ac 933d
000000b0: d575 8b3d 1960 4f3d 7217 933d ac33 39be
000000c0: e71d b2bd 8ea1 1c3c 5805 e2bc 62be ba3c
000000d0: 1349 68be 4be5 b0bd 818c 57be e93c 71be
000000e0: 9b04 86bd a5bd cebd 2a05 ebbc 50f9 9fbd
000000f0: bf5f c43d cffc a1bd 9f9a 15be adf0 00be
-0.15082312 -0.1495813 -0.040457167 -0.034870267 -0.19079557 -0.26634392 0.016586745 -0.11487377
-0.009635216 0.06427066 0.0106415665 -0.009642359 -0.08659669 -0.0072917994 -0.044204056 -0.032760058
-0.062109698 -0.14919215 -0.03068678 -0.014051678 -0.21407485 -0.26587933 0.049746707 -0.1911597
-0.22963744 -0.17965582 -0.2544575 -0.09716883 -0.22208261 -0.14201108 0.034253832 -0.2016445
-0.042705867 -0.025335768 -0.03196519 0.035171643 0.050123014 -0.039377823 0.031939 -0.0024432808
-0.22526477 -0.16764885 -0.052790117 0.07210684 0.06809584 0.050628755 0.07182206 -0.18086118
-0.0869711 0.009560002 -0.027590439 0.02279586 -0.22684126 -0.08637484 -0.21049692 -0.23558392
-0.06543847 -0.100947656 -0.028688986 -0.078112245 0.095885746 -0.079095475 -0.14609765 -0.1259181

net.0.1.running_mean f4 [64]
00000000: 8abc dd3e aac5 83be f278 353e e806 3f3e
00000010: 72af 153e 80a8 6abe fa8e 1bbe beaa 74be
00000020: 2a60 aabd 975b 23be f6cf 303d 0003 6abe
00000030: caa6 7e3e ea62 8bbc dd1a fdba a7db dc3c
00000040: 149c 9c3e 3208 fc3c befe a9bd 74e5 92bd
00000050: 4697 16be 8d5a a43e 5111 72be 3fc4 85be
00000060: a84a 3f3e b1ce 75be 9e84 743e 9169 083e
00000070: 4c49 88be 087b 0cbe f15e fbbc 0c83 1d3e
00000080: d764 fa3d 3819 29be 509f 9bbe 5b78 24be
00000090: fcb2 b0be c485 ff3c 83a4 4bbd 0100 c73c
000000a0: 4753 8a3e c5df 443d 2330 883d 91f1 543e
000000b0: 65cd 083c 05e5 35be 7b0d 9fbe 3500 bf3e
000000c0: 2d29 d23d c233 04be 9073 763e fcd4 3c3e
000000d0: de45 03bc efa9 a33d ba37 8cbe b822 b43d
000000e0: 2d8c 7ebd ce98 a3be b7e0 7cbe 9957 783e
000000f0: 42bc 08bd 89e1 84be 88c9 113e f73a f73d
0.43307906 -0.25736743 0.17721918 0.18654978 0.14617708 -0.2291584 -0.1519126 -0.23893258
-0.08319123 -0.15952908 0.043167077 -0.22852707 0.24868312 -0.01701494 -0.0019310374 0.026960207
0.30587828 0.030765627 -0.08300541 -0.07172671 -0.14706144 0.32100335 -0.23639418 -0.26126286
0.18680823 -0.24004628 0.23878714 0.1332152 -0.2661842 -0.13718808 -0.03068492 0.15382022
0.12226265 -0.16513526 -0.30394983 -0.16061537 -0.34511554 0.031191714 -0.049717437 0.024291994
0.2701666 0.048064966 0.06649806 0.20795275 0.008349751 -0.17763145 -0.31064972 0.37304845
0.1026176 -0.12910369 0.24067521 0.18440622 -0.008012263 0.07991397 -0.27386266 0.087956846
-0.0621454 -0.31952518 -0.24695097 0.24252166 -0.03338266 -0.2595332 0.14237034 0.120717935

net.0.1.running_var f4 [64]
00000000: 9007 9c3c 461c 433c 463f 733b 0d10 fe3a
00000010: bb05 683c d60e 6d3c 459a 913b 12f6 263b
00000020: 8fd8 883c f47e ba3c e149 b63c cc61 0e3c
00000030: 27fd 933b ff97 bc3b b68e 6c3c 7384 153c
00000040: dec7 1e3c bfaa 743b 33a4 f23c 7b45 d23b
00000050: 270d 633d d8bd 023c 93ac 9f3b 0da1 083d
00000060: f6a4 ea3c e1f7 153d 4d95 8f3c 36f4 c13c
00000070: cc3e 843c 24e5 d13b 2583 003c 9247 be3b
00000080: 712c 093c 2281 573b fa1f 543b 5fc1 3b3c
00000090: acb0 733b 0420 783c 514a a43b db45 9f3b
000000a0: 4a44 093d df95 073c d03a 163c 8490 b23b
000000b0: 2e86 243c b7b3 f03b cdc5 7a3c 864c 2f3d
000000c0: 02f6 8a3d 18ad 9b3b 9dcd 533c ec8f 3e3b
000000d0: 45fb e03c 120d 603d 929d 153c a631 903c
000000e0: f3cb c03b 6613 a23c bc5f 5b3c 07bf 193c
000000f0: a057 903b d353 033c f6d6 973c 3123 273d
0.019046575 0.011908596 0.0037116571 0.0019383446 0.0141615225 0.014468869 0.004443439 0.002547626
0.016704826 0.022765614 0.022252025 0.008690309 0.004516262 0.005755424 0.014438322 0.009125817
0.009691207 0.0037333218 0.029619312 0.006416974 0.055432465 0.007979833 0.0048728674 0.033356715
0.028643113 0.03661335 0.017527247 0.02367602 0.016143225 0.0064054895 0.007843767 0.0058068717
0.008372412 0.0032883366 0.0032367692 0.0114596775 0.0037184162 0.015144352 0.005013742 0.0048606223
0.03351239 0.008275478 0.009169295 0.0054493565 0.010041757 0.0073456424 0.015305948 0.042797588
0.067852035 0.004750859 0.01292744 0.0029077483 0.027463565 0.054699965 0.009131806 0.0176018
0.0058836876 0.01978464 0.013389524 0.009383923 0.004404977 0.008015591 0.018535119 0.040805046

net.1.0.weight f4 [64, 64, 3, 3]
00000000: e310 d4bc 2b8f 08bc 8b57 243c fe00 22bc
00000010: fb7f 6c3c 584a 1e3c 0309 f5bb c4a7 5a3c
00000020: 524e a0bb ac24 533c 7e03 ecbc c0f9 b53c
00000030: 1734 e4bb f200 52bd 183f bebc 8124 5c3d
00000040: eec7 a73c 2c6b c93b e7b3 c4bc 6ca0 13bd
00000050: 0ef2 11bb 2570 bfbb 9db8 783c 25e2 8e3b
00000060: 0945 143d 13d6 55bc e201 2d3d cba3 053d
00000070: b3ad 5d3d 4123 5abc 0fa9 f63c 255d 5b3d
00000080: d832 2bbc 5fcd 40bc 6bdc 04bd e349 d1bc
00000090: a804 d13c 0e29 963c 26e5 49bc 8690 65bd
000000a0: 27e9 123d 7fdd f33c 50ce 34bc fc8f 86bb
000000b0: 1928 27bc 17a4 df3c 3f1c 98bc ea6d 203d
000000c0: cc9b 43ba 01fd ecbc 81aa 6ebc 4afa cf3c
000000d0: 68a7 0fbd 9441 c63b b773 3cbc 6f63 243d
000000e0: 2fe8 7dbc 5305 bc3c da54 1cbc e62b 0f3d
000000f0: 97f6 863a 0c7c d2bb d7fd 27bc d95b 433c
00000100: 2385 9bbd fb20 f13c a4b0 35bb f357 b63c
00000110: a627 cc3c f2f0 23bd 2a95 0e3d e7ee f13d
00000120: f9fd e3bb 0cc6 3a3d 3600 e43c c0d1 65bd
00000130: e257 07bd c439 8fbd 88df dabd 04a3 57bc
00000140: 3629 243b d0be 4dbd 2261 af3c efa5 04bd
00000150: 2985 fb3b 565c a5bc 299c 203d f45a e7bd
00000160: eeb7 9fbd 1018 cdbc 9032 433c 7a7f c2bd
00000170: a691 e53c 4560 fb3c 6265 05bd 7d52 9a3c
00000180: 8f6c 453d 7bb8 003d 5416 983c 28d0 633c
00000190: 0146 35bd f798 4b3c f328 003c 0647 e13c
000001a0: dc4f 783d d80e ebbb 2848 03bd 7c26 903d
000001b0: 4942 2d3b e091 d9bb 4cf2 e5bc 8594 a93d
000001c0: 88fe f23a 3798 933d 18ac 363d 30f8 693d
000001d0: 5013 0bbd 510e 31bd a72d 7c3c b406 6b3c
000001e0: 8f2f a03d a9cf 11bd a94f 193c b65f 163d
000001f0: 0e3e 753c c8db 013b 3cbe 30bd e27d 583c
00000200: 2641 a2bd 4cf8 093d ff7e 083d 25db 92bd
00000210: 9224 b63d 3ea4 cb3c 2a81 24bd a95a 0e3c
00000220: 9726 9cbd 80bc 1fbd cbf7 87bd ab9c fc39
00000230: 87c9 96bb cd88 40bd 374e 33bc af42 b0bc
00000240: 21fa b03a fd69 20bd 1bed 433d 2181 07bd
00000250: 4018 a2bb 2341 043d 2571 33bd cce4 363c
00000260: a484 d7bc 7c54 c13c fbeb 313d 42d4 cebc
00000270: d1b3 633a b811 173d d781 843c 7a3a 263d
00000280: 62c2 a23d 15b5 83bc 8211 973b 87e0 f5bc
00000290: 2994 283c 547e 8bbd cf8a 42bc 833d 753c
000002a0: 2b70 bfbd dc55 c0bc 32a5 8a3c 9723 72bc
000002b0: 0268 dcbc 5e07 8a3a b7ae 52bd f34a 373d
000002c0: a120 403c 3d01 5c3c c61f 273d 3d32 9abb
000002d0: 67d9 4f3d ac01 99bb f658 183d fef5 bd3c
000002e0: beed 503d 6b9c 70ba 2c74 3a3d 21a5 3a3d
000002f0: f4a1 f63c 9415 a9ba a909 b43c eb8f 0ebd
00000300: aeb9 303d ddce b73c f6e0 07bd 622d 443d
00000310: ee1b be3c 60f6 6bbc 793b 313d e549 293d
00000320: c4f8 6ebd 7223 443d 99a0 d53c c8c7 1f3d
00000330: 3ba6 c53d 4f0d 023e 2e0f 933d 3acb e13c
00000340: 475c 693c e55c a73c 9e3d 983c 06e7 393d
00000350: 7037 f4bb 744d 3a3d 5aab e1bc 55ee c93c
00000360: e8fb 7abc ff50 ff3c fc2f 9abb 1153 173d
00000370: bf5f 1c3d 83cc 69bc 8951 c2bb 0394 a43c
00000380: 709e efbc ad9e 783c ba04 61bc b75a 223d
00000390: 51ea 173d 2571 8dbc 93a7 993c df61 0f3d
000003a0: b9f6 dabc 6aac 853d e5c2 70bb 61b9 823c
000003b0: f2aa bebc e3d2 583d a10e 053b 2bc0 e6bc
000003c0: 6d3b 2a3d 8f51 483d e6f1 97bb 23b0 6abd
000003d0: c19e 2ebb b530 2dbd 292b 8c3c cc4a bbbc
000003e0: 7427 babb a048 0ebc 4c0a cfbc afaa cbbc
000003f0: e1c3 2c3b 2b5f 25bd e351 003c 3f47 2f3c
-0.025886958 -0.008334915 0.0100306375 -0.009887932 0.01443481 0.00966128 -0.007477881 0.0133456625
-0.004892149 0.012887161 -0.028810259 0.022213817 -0.0069642174 -0.051270433 -0.023223445 0.05374575
0.020481076 0.006146809 -0.024011565 -0.036041662 -0.002226952 -0.005842226 0.015180734 0.0043604546
0.03619865 -0.013051528 0.042238124 0.03262691 0.05412073 -0.013314069 0.03010991 0.053555626
-0.010449134 -0.011767714 -0.03243677 -0.025547927 0.025514916 0.018330123 -0.0123227 -0.05604603
0.035866883 0.029768704 -0.011035517 -0.0041065197 -0.010202431 0.027299924 -0.018568156 0.039167322
-0.0007461875 -0.028929235 -0.0145670185 0.025387902 -0.03507176 0.006050298 -0.011502198 0.04013389
-0.015497251 0.022951758 -0.009541715 0.034953974 0.0010296878 -0.006423479 -0.010253391 0.011923754
-0.07593753 0.029434672 -0.0027723694 0.022258734 0.02492125 -0.040024705 0.034810223 0.11813145
-0.006957766 0.04559903 0.027832132 -0.056108236 -0.033042796 -0.0699344 -0.106871665 -0.013161425
0.0025048978 -0.0502308 0.021408621 -0.03238481 0.007675786 -0.02018563 0.039211426 -0.11296645
-0.07798754 -0.025035888 0.0119139105 -0.094969705 0.028023552 0.030685553 -0.03256739 0.018838162
0.048199233 0.031425934 0.018565334 0.013904609 -0.044256214 0.012426606 0.007822263 0.027499687
0.060623035 -0.0071734004 -0.032051235 0.0703859 0.0026437214 -0.006639704 -0.028069638 0.08280281
0.0018538991 0.07206767 0.044597715 0.057121456 -0.033953965 -0.043226544 0.015391744 0.01434486
0.07821571 -0.03559843 0.009357371 0.03671237 0.014968408 0.0019814838 -0.04315017 0.013213607
-0.07922582 0.03368406 0.033324238 -0.07170705 0.08893694 0.02485859 -0.040162243 0.008688607
-0.07624548 -0.038998127 -0.0663906 0.00048181912 -0.0046016607 -0.047005463 -0.010943941 -0.021516172
0.0013502279 -0.03916358 0.047833543 -0.03308213 -0.0049467385 0.03228868 -0.043809075 0.011162948
-0.026308365 0.023599856 0.04343794 -0.025247697 0.00086861575 0.036882132 0.016175194 0.04058311
0.07947232 -0.016077558 0.0046102414 -0.03001429 0.01028923 -0.068112046 -0.011873915 0.014968279
-0.09347566 -0.023478441 0.016924474 -0.014778993 -0.026905064 0.001053076 -0.051436152 0.04474921
0.011726529 0.01342803 0.040801786 -0.004705696 0.05074444 -0.0046693888 0.037194215 0.023188587
0.05100798 -0.00091785815 0.045520946 0.045567635 0.030106522 -0.0012900108 0.021977263 -0.03480522
0.043145828 0.022437507 -0.033173524 0.047894843 0.023206677 -0.014402002 0.04326961 0.041330237
-0.05834271 0.047885366 0.026077555 0.039008886 0.096508466 0.1270039 0.0718063 0.027562726
0.014243192 0.020430038 0.018584069 0.045386337 -0.0074528977 0.04548402 -0.027547527 0.024649778
-0.015318848 0.031166552 -0.004705427 0.036944453 0.038177248 -0.014269951 -0.00593013 0.020090109
-0.029250354 0.01517455 -0.013734037 0.039637294 0.037088696 -0.017265866 0.018756663 0.035005447
-0.026728975 0.06527026 -0.003673726 0.015957536 -0.023274872 0.052935492 0.002030291 -0.028167805
0.04156058 0.048905905 -0.004636991 -0.057296883 -0.0026644918 -0.04228278 0.017110424 -0.022862814
-0.0056809727 -0.008684307 -0.025273465 -0.024861662 0.002636187 -0.040373962 0.007832023 0.010698139

net.1.0.bias f4 [64]
00000000: 8b64 bd3b f4c1 cfbc 000c 9a3c a524 7fbc
00000010: e928 893c 3aeb 2b3d f521 3ebc 740b 8f3c
00000020: 3eb6 f63c 3954 1fbb 44e3 17bd 3edf e03c
00000030: fa01 103d d54b 40b9 50fe 9abc 5c1d afbc
00000040: 141a 64bd edfd cd3c 2c40 6dbc a0c6 c23c
00000050: 0934 d5bc 175e 20bc 4a08 ddbc 838c 1a3b
00000060: 7aab 46bc d35f 1e3d 7beb 263d c92a 9d3c
00000070: ed8e c3bb 1fdb 8a3c 3544 673c e9d8 8dbc
00000080: 5c82 09bd 6a9f 20ba 1f21 20bd 40d5 edbb
00000090: cd77 a9bc ae38 6abc 2ede b23c 3d40 27bd
000000a0: d604 54bd a882 52bc a111 bdbb aaf8 cebc
000000b0: f0aa 21bd 09a0 bc3b a75c ccbc 9376 b8bc
000000c0: fd5e c4bc 5ea1 6dbc 46b7 b43b e47b c7bc
000000d0: 78c5 7d3c d57b 08bc dca3 223d cd61 43bd
000000e0: 7645 bc3c e1a4 9dbc 655d bb3c 1c0e dfbc
000000f0: fbe6 e53c 9c75 c9bc 6675 afbb d555 863c
0.005779808 -0.025361039 0.01880455 -0.015572702 0.01674314 0.041972376 -0.011604776 0.017461516
0.030116197 -0.0024311675 -0.03708197 0.0274502 0.035158135 -0.00018338797 -0.018920094 -0.021376304
-0.055688933 0.025145495 -0.014480632 0.023776352 -0.026025789 -0.009788058 -0.026981492 0.0023582287
-0.012125844 0.038665604 0.040751915 0.01918544 -0.005967966 0.016950188 0.014115383 -0.017315345
-0.033571586 -0.000612727 -0.039094087 -0.0072580874 -0.020687008 -0.01429574 0.02183446 -0.040832747
-0.051762424 -0.012848534 -0.005769924 -0.025265057 -0.03946966 0.0057563824 -0.024946524 -0.022517478
-0.023971075 -0.014503805 0.005515012 -0.024351068 0.015488975 -0.008330305 0.03970705 -0.047700692
0.02298234 -0.01924366 0.022871682 -0.027228408 0.028064242 -0.024592213 -0.005354571 0.01639835

net.1.1.weight f4 [64]
00000000: 6c90 683f da33 833f 9f5a 933f 7cab 8d3f
00000010: 8546 733f a464 723f fb2c 803f 6f94 8a3f
00000020: ecea 613f 4daf 5e3f 7353 843f 76cd 763f
00000030: dc9e 863f bab7 763f 1055 5c3f 7d53 803f
00000040: 0949 7a3f 8153 843f 591f 823f f505 6a3f
00000050: f183 883f 7762 8a3f f2dd 843f 0eab 803f
00000060: 925b 783f 2061 843f 8674 7a3f 9060 8d3f
00000070: 4214 8b3f 2688 803f cef4 683f 1a76 633f
00000080: 9490 683f 701f 773f f8b4 833f b689 823f
00000090: a87a 863f f69b 813f b2e9 6f3f 092f 603f
000000a0: 457a 9e3f 302d 903f c716 813f 123c 793f
000000b0: aecb 873f 9535 723f 5add 7d3f 9fcd 6f3f
000000c0: 1a7a 763f 8bb6 833f e39d 5a3f d22e 713f
000000d0: b8bd 683f 4207 843f d39f 6f3f b6ca 873f
000000e0: b244 793f 5f2f 743f ecda 943f c4a7 723f
000000f0: c50f 813f 395b 823f 2dad 5c3f 8092 833f
0.9084537 1.0250199 1.151203 1.1067958 0.9502948 0.94684815 1.0013727 1.0826548
0.8824909 0.8698624 1.0337967 0.9640726 1.051723 0.96374094 0.86067295 1.0025479
0.9776769 1.0337983 1.0165817 0.9141534 1.0665265 1.0811299 1.0380232 1.0052202
0.97014725 1.034214 0.9783405 1.1045094 1.0865557 1.0041549 0.9099854 0.88852084
0.9084561 0.96532345 1.0289602 1.0198276 1.0506182 1.012572 0.93715966 0.8757177
1.2381064 1.126379 1.0085076 0.97357285 1.0609033 0.9461301 0.9916588 0.9367313
0.9628006 1.0290083 0.85397166 0.9421207 0.9091449 1.0314715 0.9360325 1.0608737
0.97370446 0.9538478 1.162931 0.9478724 1.0082937 1.0184089 0.86201745 1.0279083

net.1.1.bias f4 [64]
00000000: a71d debd 58b0 14bd 9e61 2bbd cdac 433e
00000010: 1960 a9bd 617c eebd 7f34 d13b c0a8 7a3d
00000020: 8f9b 12be 8788 ebbd 7a61 23bd 8832 95bc
00000030: f861 943b ac05 24be e799 46be fbaa cbbc
00000040: 9cb6 86bd 23e0 24bd 7d5b ff3c a306 f8bd
00000050: 008e 53bd f68d 31bd 4867 a3bc 6334 1abd
00000060: 98ef c1bd 8806 89bc 1bb3 e0bc 24b2 02bd
00000070: 4b85 cd3c dee7 9cbc d43d e1bd afe9 c8bd
00000080: 67fe 513b ee73 1d3c 97f6 cd3d 7474 29bc
00000090: d45c 2cbc 720d 373d b4ed 2bbe 8442 02be
000000a0: 8ef4 103e 0478 273d dc1c 0abe d297 693d
000000b0: edc5 f93d 05c8 2cbe ef1b a5bd 071e e1bb
000000c0: f5da efbc 7856 6bbd 8274 17be 1a88 4b3d
000000d0: 77d1 d9bd de72 99bc 29a7 8abd a9c1 4a3d
000000e0: 2e8b 64bc 70a7 99bd e4ff ccbb d967 86bd
000000f0: 85cd 27bd 14d8 ab3d 2af0 96bd a964 54bc
-0.108454995 -0.036300987 -0.041841142 0.19108887 -0.08270282 -0.11644817 0.006384432 0.06119609
-0.14317153 -0.1150065 -0.039887883 -0.018212572 0.0045282803 -0.16017789 -0.19394647 -0.024861803
-0.06577799 -0.040252816 0.031171555 -0.12110641 -0.051649094 -0.043348275 -0.01994671 -0.037647616
-0.09469527 -0.016726747 -0.027429154 -0.03190817 0.025087973 -0.019153532 -0.10998121 -0.098101966
0.0032042505 0.009610159 0.10056799 -0.010342706 -0.010520179 0.044690557 -0.16789895 -0.12720686
0.1415579 0.04088594 -0.13487571 0.057029553 0.121959545 -0.16873176 -0.080619685 -0.0068700346
-0.029279212 -0.05745551 -0.14790538 0.049690343 -0.106356554 -0.01873153 -0.067701645 0.049501095
-0.013949199 -0.07502639 -0.0062560905 -0.06562776 -0.040967483 0.08390823 -0.073700264 -0.012963452

net.1.1.running_mean f4 [64]
00000000: 330f e13e 9b31 7fbf bf80 73bf a02e 483e
00000010: 4420 af3f 4668 833f dab3 c2be 8688 ff3f
00000020: 0f50 0140 218a 3ac0 ffd3 a73d 74c1 98bf
00000030: 46b3 5f3f da4b 873f 9415 9a3f cf67 f3bf
00000040: a931 0fc0 4f51 12c0 f328 a8bf 7873 55be
00000050: e9ff 1cc0 ba16 fe3e e582 ad3f 2883 dabf
00000060: 0e31 5e3e 2efa 643f bb39 81c0 f55b 4d3f
00000070: 6baa 2a40 9dcd 883e 3ee4 af3e 2415 313f
00000080: f94a e13f 39e6 ca3d 5bcf 0440 0129 35bd
00000090: 4b64 c2be 5650 203f 922b edbe b131 4ac0
000000a0: 92e5 4d40 3d33 e1bd b3cd c5bf 9473 823f
000000b0: c219 de3f 71e3 e93f 1626 23c0 7504 803f
000000c0: e81d 863e adb9 a4bf 8367 833f 70ea 4e3f
000000d0: ab70 2abf b8c3 a0bf 7136 3cc0 9293 dd3e
000000e0: 0e8a c0be 627c f03e 8e8f 033f c044 2a3e
000000f0: b4af 46be 2464 f03f bd2c d43f 4948 6c3f
0.4395691 -0.99685067 -0.95118326 0.19549036 1.3681722 1.0266197 -0.3802784 1.9963539
2.0205114 -2.9146807 0.08194732 -1.1934037 0.87382925 1.0570023 1.2037835 -1.9016055
-2.237406 -2.2862127 -1.3137497 -0.20844829 -2.4531195 0.49626714 1.3555571 -1.7071276
0.216984 0.89444244 -4.038297 0.8021844 2.6666515 0.2671937 0.34353822 0.69172883
1.7601005 0.09907193 2.075156 -0.044228557 -0.37967142 0.6262258 -0.46322304 -3.159283
3.2171369 -0.10996101 -1.54534 1.0191522 1.7351611 1.8272535 -2.5491996 1.000136
0.26194692 -1.2869164 1.0265964 0.80826473 -0.6657817 -1.2559729 -2.9408228 0.4327665
-0.37605327 0.46969897 0.5139092 0.16627789 -0.19402963 1.878056 1.6576153 0.922978

net.1.1.running_var f4 [64]
00000000: 35df c740 fc21 fd40 6a29 2b41 7b56 fe40
00000010: 0d3f 8c40 e718 2d41 8475 2241 21fd f340
00000020: 8e0f 5341 4dbc 0b41 a2c7 aa40 996c b640
00000030: b9da 8240 e0c3 5b41 2a5a 0f41 c97a 0141
00000040: dc14 9f40 15ac 2741 704e a340 ac53 c740
00000050: 51c7 2241 5971 f640 9dd7 c340 6408 0c41
00000060: c754 df40 566e d640 d113 a541 db5a ee40
00000070: 9a56 ab40 310f df40 0e46 3741 71a1 c240
00000080: 8c1c 2041 85d4 f440 1e6d 4941 f16b 4841
00000090: 85af 1941 f68f 0741 0dc0 0d41 3955 8141
000000a0: 7295 9240 71f8 a240 222a 9b40 1751 aa40
000000b0: 8cb9 d340 565f 5541 46f6 1841 83d6 9e40
000000c0: a0ae d740 71ea 1341 24be 4941 89ac 0841
000000d0: 5146 4b40 5f08 9640 c3e0 0841 27fd 0241
000000e0: cd53 a040 5173 2941 3c81 d140 0e0e 2b41
000000f0: 70c1 fd40 b282 3141 6a6e bb40 8730 a640
6.245997 7.9103985 10.697611 7.9480567 4.3826966 10.81858 10.15369 7.6246495
13.191298 8.733472 5.3368692 5.7007565 4.0891995 13.735321 8.959513 8.092477
4.9712963 10.479512 5.103325 6.228964 10.173661 7.7013364 6.12007 8.7520485
6.979099 6.7009687 20.634676 7.4485908 5.3543215 6.9706044 11.454603 6.082207
10.006969 7.6509423 12.58914 12.526353 9.605351 8.472647 8.859387 16.166613
4.580743 5.0928273 4.848893 5.3223987 6.6164 13.335775 9.560125 4.9636855
6.7400665 9.244737 12.608921 8.542123 3.1761668 4.688522 8.554873 8.186805
5.0102296 10.590653 6.5470257 10.690931 7.929863 11.094408 5.8572283 5.1934237

net.2.0.weight f4 [64, 64, 3, 3]
00000000: 5558 cd3a 401e 1abc 53f0 81bc 1c59 4a3c
00000010: 6d58 24bd 93e1 5dbd dc67 4e3d 7f34 40bd
00000020: 679c e0bd 37b8 443c e350 24bd 148a 753d
00000030: 1a61 683d 1531 4cbd 2505 23bd 6050 b5bb
00000040: 6dc9 b1bd b062 84bc f323 f23c 97dc eb3c
00000050: e002 d43c 52ec 163e 1501 81bd 23d0 c3bd
00000060: c672 243d 32e4 29bd fa9d b1bd 966b 29bd
00000070: 5ebb 6dbd 2643 17bd 2fea 91bb 55f0 003c
00000080: 9be4 d4bc bca8 543d b4f2 b23c 70ac 94bd
00000090: 5f14 883b 7a48 013e 824a c5bb a307 913d
000000a0: 0322 603c bee7 6e3d d7bc aa3c 25c5 773d
000000b0: 350a 33ba eebb 78bd 6a7d 50bc 5c42 b2bc
000000c0: d798 debc 497b 2fbb 0e81 aa3b 8aac d7bc
000000d0: 6dab a83b 902e 36bd 107f 4fbd 9f73 97bb
000000e0: ab4c 17bd 85e0 52bc a1a3 dcbb 533b 073d
000000f0: e5ef 89bd cf4c 9ebc 25ae 8b3d ceac e03c
00000100: eadf 483c 45bd 373d 9799 b13c 91f8 603d
00000110: 5721 073c 10ba 183d 4b7b 583d 6122 aebd
00000120: 4f97 4fbc 29e3 bb3c ba2c ac3c 8ac3 eabc
00000130: 7300 7c3c a307 e83b dbb5 1eba b226 99bc
00000140: 5cd5 01be 6cd0 6bbd f01e ff3c d2e4 8b3b
00000150: 7df7 b2bc 2810 f83c 833a d3bc f239 3e3d
00000160: 3537 ebbc 8230 fcbc e183 6cbb 0470 8dbc
00000170: 78a8 79bd d7f6 3f3c d568 d83d 57c2 133e
00000180: 371f 923c 9dac 183d 5af0 103d cc18 3ebc
00000190: 2e4a b73d 0fa2 813c 887f a63c 0722 70bd
000001a0: 1f66 6b3c 5cf4 613d 833d abbc 5355 cabd
000001b0: 7199 c1bc 01e1 e43b cac5 c5bc dd15 fdbc
000001c0: 104a 853c ca5b f83d 0689 cbbd f767 763d
000001d0: 98d2 813e 9a52 35bd 7abe 103d 4029 ecbc
000001e0: dd09 39bb 2da2 eebc 3c7c b63c 18bc e6bc
000001f0: 859c c3bc a11b 5cbc d32f ec3c 42c8 a8bc
00000200: 4c68 2c3c 8e81 e1bc 582f 6abd b115 4cbd
00000210: 12a8 c53c 6273 29bd 79f4 33bd b9b8 2d3d
00000220: f093 613c e366 69bd c6ab 843c 714d d23c
00000230: e430 7a3d 071f 823c 0c49 943c e846 f43d
00000240: d455 73bd 0a29 26bd 0887 513b e121 c1bc
00000250: 6321 3bbd 71fb 8fbd a751 293c a85a 5fbc
00000260: 1d31 18be 9f65 83bc e453 dc3c 77d8 06bc
00000270: 8e23 88bd c3d0 bfbd 4682 89bd c7ab 85bc
00000280: 8548 fabc 8d09 c83c 24cc 58bc 40e3 bc3b
00000290: a3c6 b03c 4e4c 98bd d350 b73d 77c8 423e
000002a0: 42c6 2ebd 7371 33bd 6969 80bd 2b65 a33b
000002b0: 3f0b 3d3c 6c26 4a3c d571 44bc 8a47 0dbd
000002c0: 1f60 0bbd 1c13 153d 47be 4c3d e79d 92bc
000002d0: c928 07bd 5924 d93c 44ef 763c ac2d 433d
000002e0: 6d16 df3b 4b1b 13bd 99cb 833d 81cf d33d
000002f0: 1846 a0bc 4486 12bd a0d0 53bd 1df5 ecbc
00000300: 2dc2 3b3c e135 b13d 25e1 3c3d 40ba f6bb
00000310: da16 383c 113b 3abd 410e 0dbd f2bd 1cbd
00000320: 6500 923a 5919 9abd 006c dab8 b302 92bb
00000330: 898f c33c 79db 5ebd 1d8d 00bd e954 1cbc
00000340: 7043 2cbd f1db 4c3c 5aab abbd 6284 02bd
00000350: 8d9d 543d 94d5 da3a e8eb a63d aca9 783d
00000360: 7325 0fbd 39a2 023d 46ec 83bc 9947 71bd
00000370: 0af3 ac3a d557 833d 8989 38bd 7c6a e6bc
00000380: eed3 02bd 535c 003c 8846 d4bc 5347 42bd
00000390: efc3 743d 4dfa bd3b 9439 313d d736 1ebd
000003a0: 4a0f 2a3d 0be7 013d 4495 cb3c befc c73b
000003b0: a388 113c ea42 c23b 0d9b f63b 449b 8fbd
000003c0: 0b70 afbb 5bf5 38bd d9e9 273c 370b cdbc
000003d0: dfb9 023c ed13 80bc 07cc a43d 8f6b 823d
000003e0: ff18 89bd 94f4 7f3d 4d6b 0fbb 4865 ecbb
000003f0: b4f9 843c c3bf 8f3d b9a5 dabc b84f 943d
0.0015666584 -0.009406626 -0.015861666 0.012350347 -0.040123392 -0.054170202 0.050392017 -0.046925064
-0.109673314 0.012006811 -0.040116202 0.059946135 0.05673323 -0.049851496 -0.039799828 -0.005533263
-0.08680997 -0.01616034 0.029558158 0.028791709 0.025880277 0.14738587 -0.062990345 -0.09561183
0.04014852 -0.04147739 -0.0867271 -0.041362368 -0.058040015 -0.036929272 -0.0044529657 0.0078698
-0.025987914 0.05191873 0.021844245 -0.07259452 0.004152819 0.12625304 -0.006020845 0.07081535
0.013679984 0.058326475 0.020841999 0.060490746 -0.0006829829 -0.0607261 -0.012725214 -0.021760158
-0.02717249 -0.0026776365 0.005203373 -0.02632739 0.0051473887 -0.044478 -0.050658286 -0.0046219374
-0.03693835 -0.012870912 -0.0067333733 0.03301556 -0.067352094 -0.019323735 0.06820325 0.02742615
0.0122604165 0.044858236 0.021679683 0.05492455 0.008247695 0.037286818 0.052851956 -0.08502651
-0.012670352 0.022935467 0.021017421 -0.028657693 0.0153809665 0.0070809885 -0.000605432 -0.01869521
-0.12679046 -0.057571813 0.031142682 0.004269221 -0.021846527 0.030281141 -0.025784736 0.04644198
-0.028712848 -0.03078485 -0.0036089348 -0.017265327 -0.06095168 0.011716566 0.1056687 0.14429604
0.01783715 0.03727399 0.035385467 -0.011602592 0.089496955 0.015824346 0.020324484 -0.0586262
0.014367609 0.05516468 -0.020903355 -0.098795556 -0.023632737 0.0069848304 -0.024142165 -0.030894214
0.016270667 0.121268824 -0.099382445 0.060157742 0.25355983 -0.044268228 0.035337903 -0.028828263
-0.0028234639 -0.029130066 0.022276036 -0.028165862 -0.023878345 -0.013434322 0.028831398 -0.020603303
0.010522913 -0.027527597 -0.057174057 -0.049825374 0.024127994 -0.041369803 -0.04393432 0.042412493
0.013768181 -0.056982886 0.01619519 0.025671693 0.061081782 0.015883936 0.018101238 0.11927587
-0.059408024 -0.04056648 0.0031971354 -0.023575725 -0.045686137 -0.070303805 0.010334409 -0.013632454
-0.14862485 -0.016039668 0.02689547 -0.00823032 -0.066474065 -0.0936599 -0.06714301 -0.016317261
-0.030552158 0.024418617 -0.013232265 0.005764395 0.021579092 -0.07436429 0.08950963 0.19021784
-0.042669542 -0.043809365 -0.062701054 0.0049864254 0.011538326 0.012338262 -0.01199003 -0.034492053
-0.034027215 0.036395177 0.04998615 -0.01789756 -0.03299788 0.02650659 0.015071694 0.047650978
0.0068080933 -0.0359147 0.064353175 0.103423126 -0.019564673 -0.035772577 -0.051712632 -0.028925473
0.011459869 0.08652855 0.046113152 -0.007529527 0.011235917 -0.045466486 -0.03443742 -0.038267083
0.0011139034 -0.07524366 -0.000104151666 -0.004455888 0.023872154 -0.054408524 -0.031384576 -0.0095417285
-0.0420565 0.01250361 -0.08382292 -0.03186453 0.051908065 0.0016695731 0.08150464 0.060708687
-0.034947824 0.03189299 -0.016103875 -0.05890617 0.001319499 0.06413237 -0.04505304 -0.028126948
-0.031940393 0.007834512 -0.025912538 -0.0474313 0.05975717 0.0057976604 0.0432678 -0.038626518
0.041518487 0.03171448 0.024851449 0.0061031273 0.008882674 0.005928387 0.0075258077 -0.070120364
-0.0053539327 -0.045155864 0.010248625 -0.025029762 0.007978885 -0.015634501 0.08046728 0.063681714
-0.06694221 0.062489107 -0.0021884025 -0.007214222 0.016232349 0.070189975 -0.02669035 0.07241768

net.2.0.bias f4 [64]
00000000: d367 00bd 2f16 363c 0191 a13c 9956 dd3a
00000010: 92f1 9a3c 818c 42bc e213 fbbc 66e6 98bc
00000020: 8a4c 25bb 0070 7cba 5bec d13c 71d4 c7bc
00000030: 99bb 0a3d da86 0fbd 1b3b 32bd 511a d23b
00000040: d642 8bbc 70bd 123c c6c5 fd3c 5c77 bb3c
00000050: 630f 95bc 70dc 0f3b baa5 1a3d 6cdb d93c
00000060: 15e5 f9bc f73a cfbc 75d2 6abc 84d3 f5bc
00000070: 8ed1 e13b e07f b13b 3faf fe3c 1cb0 efbc
00000080: 3a7c 1b3d 85a2 b7bb 5adb 5f3d 8e94 04bc
00000090: b232 c73b a404 afbc 88cf d6bc 4fa0 f3bc
000000a0: 25e3 293a 3715 3abc ecc4 2ebd 4a9b 48bc
000000b0: 5b3d 213d 5bfd a63c fde1 0c3c 73fc 403d
000000c0: bcc4 a7bb 0902 013d 3baf 06bd b661 9e39
000000d0: 41ac 6d3c 0f70 1ebd 7367 ffbc 3d78 c33c
000000e0: 5ba8 063d 827e 973b 3ca5 03bd 8d65 3a3d
000000f0: fd59 083d 1353 a4ba b10b a3bc dae1 293a
-0.031349014 0.011113687 0.019722464 0.001688677 0.018914018 -0.011874319 -0.03064913 -0.01866455
-0.0025222623 -0.00096297264 0.025625398 -0.024393292 0.033870313 -0.035040714 -0.0435134 0.0064118286
-0.016999643 0.008956298 0.030978095 0.022884063 -0.018195814 0.002195146 0.037755705 0.026593886
-0.030504743 -0.025296671 -0.014332403 -0.030008085 0.006891436 0.005416855 0.031089423 -0.02925878
0.03796027 -0.0056040906 0.05465255 -0.008092059 0.0060790414 -0.021364518 -0.026222005 -0.029739527
0.00064806856 -0.011357597 -0.042668268 -0.012244055 0.039365154 0.020384481 0.008598802 0.047115754
-0.005119888 0.03149608 -0.032881957 0.0003020891 0.014506401 -0.038681086 -0.031177258 0.023861045
0.0328754 0.004623235 -0.03214 0.045507003 0.033288945 -0.0012536965 -0.019903036 0.0006480493

net.2.1.weight f4 [64]
00000000: a09b 8e3f 2148 7e3f f11d 863f 7a04 873f
00000010: 3aea 743f edab 8e3f 32c9 823f 53b8 793f
00000020: dc00 6f3f be1a 843f 91ba 693f 02c8 823f
00000030: 2ab8 733f b225 793f 175e 7b3f e19a 853f
00000040: 130e 773f eb4b 7e3f 8b3d 733f f3fc 743f
00000050: 5456 6c3f ddf1 743f 1889 813f cc67 853f
00000060: 6800 7b3f 1f53 553f 8ddf 653f d5f9 683f
00000070: f25f 6e3f 7c55 843f f652 753f b04b 753f
00000080: f21e 853f 8f3a 843f f977 7e3f f439 8c3f
00000090: 9210 7a3f bd14 853f b34d 7e3f 0b74 853f
000000a0: bab3 713f 36f5 8a3f 075c 803f 33de 6f3f
000000b0: a764 803f dab3 7d3f 3200 823f 5e28 683f
000000c0: 202d 7a3f 9584 7c3f cbc7 803f 1976 873f
000000d0: bf75 803f e161 7d3f 6ec6 873f 4b75 8e3f
000000e0: 51fb 7a3f 2d7a 6f3f b2ea 7d3f 50bd 803f
000000f0: 645a 7e3f 53f4 853f 15f1 803f 4e24 753f
1.1141243 0.9932881 1.0477887 1.0548241 0.956699 1.1146218 1.021765 0.9754688
0.93360686 1.0320661 0.913003 1.0217288 0.9520289 0.97323143 0.98190445 1.043789
0.9650585 0.9933459 0.9501578 0.9569847 0.92319226 0.95681554 1.0119963 1.0422301
0.98047495 0.8332996 0.89794236 0.91006213 0.9311515 1.0338588 0.95829713 0.95818615
1.0400069 1.0330371 0.99401814 1.0955186 0.97681534 1.0396954 0.9933731 1.0426039
0.94414866 1.0856082 1.0028085 0.93698424 1.0030717 0.99102557 1.015631 0.90686595
0.97725105 0.98639804 1.0060972 1.0582916 1.0035933 0.98977476 1.0607431 1.1129545
0.9803973 0.935458 0.9918624 1.0057774 0.99356675 1.0465187 1.0073572 0.9575852

net.2.1.bias f4 [64]
00000000: f5fb d03d 1ca0 f5bd 9a6b 4d3d 3713 a5bd
00000010: 8ae4 a8bd 10e2 4e3c ecca babd 2100 debd
00000020: 2f07 8fbc 97ae 84bc d5f9 9ebd ccb5 dfbd
00000030: c65e 17bd fcc2 b73d f159 25be bef9 5f3c
00000040: 66e9 ba3a 8997 a2bd 876b 15be 5a5f f6bd
00000050: ae84 12be cb00 89bd dd2b 73bd 22b6 d73a
00000060: e374 933b e227 53bd db1a 19be 7436 b0bd
00000070: 86c9 05bd f7c2 cbbc 8604 4dbd 38ad b7bd
00000080: 80fc b4bd ced8 c7bd 0bab a8bd 8dc2 2b3d
00000090: a5af b0bd 3b61 72bd b8f4 ebbd fdb6 cabd
000000a0: 50fa cfbd c3ea 083d 031b 27be 38f4 35bd
000000b0: 2222 7dbd cb93 06be 79a4 48bd 099e c0bd
000000c0: de76 d6bc 86cf 80bd 06b0 0c3c a4a8 5abd
000000d0: 7cea 31bd 2534 d1bc d566 1ebd e530 40bd
000000e0: 44a2 06be 02ba f3bd b631 81bd b722 b9bd
000000f0: ddc8 1cbd 7f65 b0bd 9e3e d1bd 0292 15be
0.10204307 -0.11993429 0.050151445 -0.080603056 -0.08246715 0.01262714 -0.091207355 -0.10839868
-0.01745948 -0.016196532 -0.077624954 -0.10923347 -0.036955617 0.08972737 -0.16147591 0.013670383
0.0014260232 -0.07939059 -0.145918 -0.120299056 -0.14308426 -0.06689604 -0.059368003 0.0016457478
0.004500018 -0.051551707 -0.14951651 -0.08604136 -0.03266289 -0.02487324 -0.050053142 -0.08968586
-0.08837223 -0.09758149 -0.08235749 0.041933585 -0.086272515 -0.059174757 -0.11521286 -0.098981835
-0.10155165 0.03342701 -0.16318898 -0.04442236 -0.06180013 -0.13142316 -0.04898498 -0.09405143
-0.026179727 -0.06289582 0.008586889 -0.053383484 -0.043436512 -0.02553756 -0.038672287 -0.04692163
-0.13147837 -0.119007125 -0.0630831 -0.090398245 -0.038277496 -0.08613109 -0.102170214 -0.14606479

net.2.1.running_mean f4 [64]
00000000: 4e06 093e e1aa 843f 1364 113f f238 19c0
00000010: 232a 3440 af4c aa3f fe9d 0240 8662 56bf
00000020: dbd5 0340 6da0 7ac0 22db 5b3f 57c1 a93e
00000030: 1d4c 4e3e df63 873f a0bd 01c0 36ac 0040
00000040: eec8 d33f c5ab 9cc0 d3ea 4a3e 782a 1cc0
00000050: d6f3 a9c0 b6d4 0640 143e f93f 2232 1c3f
00000060: b038 633f d14e eabf 759a 65c0 fe2e 9740
00000070: 9b3b 0b40 69b3 88c0 77bb 45bf 864b 1640
00000080: 95b7 e6bf ce6d ecbf e3c4 c0be 015d cfbe
00000090: 0dab 1c40 a124 2cbe c334 d6bf eac4 96be
000000a0: 0f46 1bc0 d8c8 0040 00b7 e0bf eade dfbf
000000b0: b4c5 6040 7957 8cbf 07ab d13d 231f dcbf
000000c0: 1619 133c b357 a3bf 9781 76bf 6bdd ac3f
000000d0: fe27 903f 9bd7 6f40 7159 0c3c d701 01be
000000e0: 8613 0640 b238 babf 8fa9 6ec0 7e66 8d3e
000000f0: 5552 933f fed4 273f afd9 9cc0 a721 bb3d
0.13381311 1.0364648 0.56793326 -2.3941007 2.8150718 1.3304652 2.040893 -0.83744085
2.0599277 -3.9160416 0.85881245 0.3315532 0.20146222 1.0577353 -2.0271988 2.010511
1.6545694 -4.895968 0.19816141 -2.440092 -5.311015 2.1067328 1.947207 0.61013997
0.88758373 -1.8305303 -3.5875523 4.7244864 2.175513 -4.2719007 -0.77239174 2.3483596
-1.8024775 -1.847101 -0.37650213 -0.40500644 2.44794 -0.16810848 -1.6734852 -0.29447109
-2.426151 2.0122585 -1.7555847 -1.7489903 3.5120668 -1.0964195 0.10237699 -1.7197002
0.008978149 -1.2761139 -0.9629149 1.3505071 1.1262205 3.7475345 0.008566246 -0.12598358
2.0949416 -1.4548552 -3.729099 0.27617258 1.1509501 0.65559375 -4.9015727 0.09137278

net.2.1.running_var f4 [64]
00000000: 01f7 c940 799d 5f41 68b1 3141 973b 7141
00000010: 9903 8d41 d1f6 4941 b844 8841 7936 5941
00000020: 9f81 8441 4603 c341 89c1 3f41 3649 4441
00000030: 8cc3 1541 54ea 3341 9c19 3e41 f4df 8d41
00000040: dea1 5541 9c60 7041 be56 8941 47e1 5241
00000050: 1f3d 8d41 59ca 8341 ff89 5841 9154 3a41
00000060: 93ac 0441 ec0b 2041 70d4 b341 99e9 8d41
00000070: afa7 5641 c918 c141 3160 3f41 8578 6741
00000080: af9b 3e41 75d9 3441 7869 6041 3ea2 3f41
00000090: 91bf 6341 846f 5941 8c94 4441 34a4 8241
000000a0: a61a ad41 6b6c 5041 a194 8241 ddb1 0e41
000000b0: cbdd 9541 47ef 2b41 daad 7841 9931 3041
000000c0: 064d af41 e81c 9f41 c714 ed40 8980 5041
000000d0: 3ae4 3541 06e8 5841 7bb2 6941 946c 8441
000000e0: eb7d 1b41 d179 0641 4cc0 e041 afca c240
000000f0: 1e87 2f41 e404 0541 5f24 b441 3608 7141
6.311402 13.975945 11.105812 15.077048 17.626757 12.622758 17.033554 13.575799
16.563292 24.376598 11.98475 12.267874 9.360241 11.244709 11.881252 17.734352
13.352018 15.023586 17.167355 13.179999 17.654844 16.473803 13.53369 11.645646
8.292132 10.002911 22.47873 17.739061 13.415938 24.137102 11.960984 14.466924
11.913009 11.30309 14.025749 11.97711 14.234269 13.5897255 12.286266 16.330177
21.638012 13.026469 16.322573 8.918424 18.733297 10.745917 15.542444 11.012109
21.91261 19.889114 7.4087863 13.031381 11.368219 13.556646 14.606074 16.553017
9.718242 8.40474 28.093895 6.0872416 10.970488 8.313694 22.51776 15.064505

net.3.0.weight f4 [64, 64, 3, 3]
00000000: 0893 35bd e87b 843b 270f c93d 5eea 143d
00000010: e75a 813d 5b7b 143d cc40 c13b 3c22 0d3e
00000020: 7e08 373d 8abb 3fbd da58 0a3c 9c37 2bbc
00000030: 7015 32bc 5be9 a2bc 257b f13d 03f5 05bc
00000040: bce2 aabc 53ca 2c3d aa3c 9cbc 9519 21ba
00000050: 356a a73c 1477 a1bd 0bfa 60bd 05ed 173d
00000060: 4e18 63bc aa1a 56bd 772a 5f3c b933 59bc
00000070: ab78 3f3d 20b8 02bc fab3 95bd 7c25 9bbd
00000080: 540e 9dbd bda7 6bbc 728a 1bbd 3acc 483a
00000090: 8913 1d3d 8feb 04bd bae8 943c 554d 9dbd
000000a0: d1a5 77bd c843 253d e496 0fbe c376 253c
000000b0: 0d3a 963d f2f7 0bbd 53f6 1fbd 2132 523d
000000c0: 8dc8 d0bb 02e1 c9bd d6b9 aebd 369e 57bc
000000d0: 3793 8d3d ee12 4f3c a1a9 8b3c 98b4 bc3d
000000e0: 3aef 013e c1b4 6dbc 4cc9 76bd 4f00 b43d
000000f0: 983c 60bd 79fe 3bbd fc2b 19bb b3ed 3b3c
00000100: ae1e 0c3d 4aae 5c3d 236e 5b3c 081b a4bd
00000110: b9f6 01bd 7cc2 65bd 132a abbc 0894 b8bd
00000120: a810 6cbd e05c 173c 60a8 333c 5873 6dbd
00000130: 4d98 c13d 10dc 1fbc 7c77 47bd eea9 a73d
00000140: 8073 633d 8930 5a3d e9d3 c7bc b3fa 0f3c
00000150: 585a 29bd 49cc ecbd bfc0 bbbd a025 88bd
00000160: 62d1 6abd cb00 d1bb 1fd2 693c ec09 b43a
00000170: 7971 723b 0dcf 41bd ff7e 2a3d fa57 393d
00000180: be5b 29bd bb58 c63b 7214 173c 4bae ae3d
00000190: b4e2 04bc f60c 8f3d 150b 6cbd 765b 8dbc
000001a0: 5fbc bebd 9837 82bd 8730 3fbd 3e4c a2bd
000001b0: a24f 173b b44c 843d 1806 ae3d f1fc f13c
000001c0: 14c9 723d 7e82 a2b9 09e7 fbbc 589e c73d
000001d0: 7691 2f3c 9d13 e03d 40de 2c3c d43f 813c
000001e0: b447 803c 9a72 8a3d 1fc2 883d cbde 2bbd
000001f0: c8ca a13c 9492 9bbc 622d c3bc ad2e a2bc
00000200: 7ff9 c13c be30 123b 700f 1ebd 45b9 393d
00000210: f956 8f3d b2ac 8a3d af32 1cbd 367b 943d
00000220: 373a 2d3c 9fa2 eb3a 7f85 dfbb 3af2 7c3d
00000230: 0ddb 113d a3d8 3ebd b600 2cbc 5507 ef3b
00000240: df09 73bd 6d28 c53c 04bf 61bd 9687 e9bd
00000250: ebb1 003d a978 0ebd 2e2c 06bc b297 613b
00000260: b575 c93c 363d c9bc 21f1 b43c ad53 dbba
00000270: 19fd 6f3c 8dfe 88bc a6cf 41bc 97bc f7bc
00000280: 0718 67bc 3351 c0bd cd62 65bd 12d1 9fbd
00000290: 6db8 993c 279b f2bd fa50 273c 0eb6 c83d
000002a0: 61b4 17be c107 943c f7e5 dd3d cee7 cf3c
000002b0: 11ce ce3d 2c75 8a3c e517 1c3c a8a9 0abc
000002c0: 220c 8abd 3342 03bd dc34 b5bd 29a0 edbb
000002d0: 174d ec3c b0f8 143d 7834 98bc c7b6 8f3b
000002e0: 9d1f 85bd 9ded 8fbd e22e a93c ad6d 96bd
000002f0: b05f 00be 8aee bbbc 8e45 1b3b d8d0 01bd
00000300: 86cc 4bbd 836b cd3d ec47 c13d bd16 63bd
00000310: bbfa 5abc 5d57 c13c 603f 213d 11e2 10bd
00000320: f1c6 453d bbd7 4d3c a1a8 6b3d dc45 9b3b
00000330: 018b a6bd 2340 8b3c a6b5 cb3d 6cd4 61bc
00000340: b415 fcbb 9a0a 8e3c 236d 2c3d 522e db3d
00000350: 69d8 a93d 254b 5abd 0d6d 373d e31b a6bc
00000360: 33e6 393d 90f0 c5bc 27ac 99bc ac0d 6a3d
00000370: 5b6d 3f3d 3e06 353d 73ef dcbc 1501 053d
00000380: 729f 54bd 15fa 8ebd 4bcb 9bbd 9e18 003d
00000390: 5a54 693b 65cf 1dbd 38c3 b73c 9966 29bd
000003a0: 4f39 5ebd dec6 933c a77d 2ebd 721b 683b
000003b0: d985 093c 2259 53bc 6d78 b2bd 0eed eabc
000003c0: 1c7d 8abc f6fc 85bd cc25 d6bd 9d50 86bd
000003d0: abb8 0fbc 2778 08bc 6438 bebd e976 b2bc
000003e0: ef43 393e e0d9 15bc 7c5b 51bb 8288 0d3d
000003f0: 8fbc bdbd f8a9 46bc d479 ef3c a2de 02be
-0.044329673 0.004043091 0.09817343 0.036356322 0.06316166 0.036250453 0.005897617 0.1378259
0.044685833 -0.04680971 0.008444035 -0.01045027 -0.010869369 -0.019886663 0.11791066 -0.008176091
-0.020860069 0.04218514 -0.019071896 -0.00061454746 0.020436386 -0.078840405 -0.05492596 0.037091274
-0.013860775 -0.052271523 0.013620964 -0.013256961 0.046745937 -0.007978469 -0.073097184 -0.07575509
-0.076687485 -0.014383254 -0.03797383 0.00076598267 0.03834871 -0.03245121 0.018177379 -0.076807655
-0.06046087 0.040347844 -0.14022404 0.010099116 0.07335291 -0.034172006 -0.039053272 0.051317338
-0.0063715638 -0.0985737 -0.08531539 -0.013160279 0.06912845 0.0126387905 0.017048659 0.09214133
0.12688914 -0.014508427 -0.060250565 0.08789121 -0.054745287 -0.04589698 -0.0023372164 0.011470246
0.034208946 0.053877153 0.013392958 -0.08012968 -0.031729434 -0.056093678 -0.020894086 -0.0901261
-0.057633072 0.009238452 0.010965437 -0.05797133 0.09452877 -0.009757057 -0.048697934 0.081867084
0.05553007 0.053268943 -0.024393039 0.008787799 -0.041345924 -0.11562402 -0.09167623 -0.066478014
-0.05732859 -0.0063782684 0.014271288 0.0013735867 0.0036993905 -0.0473166 0.04162502 0.045249917
-0.041347258 0.006053058 0.009221183 0.085293375 -0.008110691 0.06984894 -0.057627756 -0.017255526
-0.09313273 -0.0635826 -0.04667714 -0.07924698 0.0023088236 0.064599425 0.08497256 0.029539557
0.059273794 -0.00030996272 -0.030749815 0.097469985 0.010715833 0.10941241 0.010551035 0.015777506
0.01565919 0.0676014 0.06677651 -0.04196052 0.019750014 -0.018990792 -0.023825351 -0.019797647
0.02367854 0.0022306885 -0.03858894 0.045342702 0.069990106 0.0677122 -0.038134273 0.07250063
0.0105729615 0.0017977542 -0.006821334 0.061754443 0.035609294 -0.04659332 -0.010498216 0.007294575
-0.059335586 0.024067128 -0.055113807 -0.11402814 0.031419676 -0.03478304 -0.008189244 0.0034422693
0.02459226 -0.02456532 0.022087635 -0.0016733311 0.0146477455 -0.016722942 -0.011829292 -0.030241294
-0.01410485 -0.093904875 -0.056002427 -0.07803549 0.018764699 -0.11845999 0.010212177 0.09800349
-0.14814903 0.018070104 0.10834878 0.025379088 0.10097898 0.016901575 0.009527181 -0.008463301
-0.067405954 -0.032045554 -0.08847973 -0.0072517586 0.028845353 0.03636998 -0.018579707 0.0043858024
-0.065001704 -0.07027743 0.020652238 -0.07345138 -0.12536502 -0.022940893 0.002369258 -0.03169331
-0.049755596 0.10030272 0.09437546 -0.055441607 -0.013365443 0.023601228 0.03936708 -0.035371844
0.04828543 0.012563641 0.057533864 0.0047385525 -0.08131982 0.016998356 0.09946756 -0.0137835555
-0.007693017 0.01733904 0.04209627 0.10702194 0.0829323 -0.05329432 0.044781733 -0.02027697
0.04538555 -0.02416256 -0.018758846 0.057141945 0.04673515 0.044195406 -0.026969647 0.032471735
-0.05190987 -0.06981293 -0.076071344 0.031273477 0.0035603256 -0.038527865 0.022431955 -0.04135761
-0.054253872 0.018039163 -0.0426003 0.003541675 0.008393728 -0.012899669 -0.08714376 -0.02867749
-0.01690536 -0.06542389 -0.10456428 -0.065583445 -0.008772056 -0.008329428 -0.092880994 -0.021785216
0.18092321 -0.009146184 -0.0031945398 0.034554012 -0.0926448 -0.012125485 0.029232897 -0.1278024

net.3.0.bias f4 [64]
00000000: 6865 f73c df43 dd3b d93d 7bbc 8ad6 013a
00000010: 4ae2 913c b215 eebc 9ff4 2dbd b19a acbc
00000020: 8586 8cbc 4da1 f03c 4db4 9b3a 93b8 1ebd
00000030: d8e1 87bc 4c20 ecbc c446 003d 1d76 b73b
00000040: 1b8a 4ebc ee4f 1f3d 99c1 1d3d e6d5 80bd
00000050: 414a 83bd c2f5 48bd 525a 2b3d 2557 31bc
00000060: 8f9c 293d bd6f 353a b338 dcbc 3e63 e13b
00000070: 9f3c 22bc 6c2b 0cbc 7645 14bd 6fda 513d
00000080: 2578 8f3b 57e7 efbc 587b 29bd 63cb 5d3b
00000090: 5163 1e3d b358 a2bd c45a d83c bfc1 a5bc
000000a0: 3332 10bd ef5c 7ebd 7cc0 6d3d ecc8 a73c
000000b0: 30c5 69bc 669f 51bd 275a 123d e99d 043d
000000c0: 2115 443d 66e7 0e3d 17ec 833a 61f2 a03c
000000d0: c9f3 1fbd 1364 873c 8a28 053d 8a92 c4bc
000000e0: 9214 09bb 8fc5 aabc 6ac2 e5bb a76f 213b
000000f0: 44a2 1bbd dfbe a0bc 51e1 efbc a3b4 d2bc
0.030199721 0.0067524756 -0.01533457 0.0004952928 0.017808098 -0.02906308 -0.042469617 -0.021069856
-0.017153988 0.02937379 0.0011879295 -0.038750242 -0.016587183 -0.028823994 0.031317487 0.005598797
-0.012606169 0.038894586 0.038514707 -0.06290798 -0.06410647 -0.049062498 0.041834183 -0.0108239995
0.04140907 0.00069212524 -0.026882505 0.0068782857 -0.0099021485 -0.008555274 -0.036199056 0.051233705
0.004378336 -0.029285116 -0.041377395 0.0033843152 0.038668934 -0.07927074 0.026410468 -0.020233987
-0.035204124 -0.062100347 0.058044896 0.02048155 -0.014268205 -0.051177405 0.035730507 0.032377157
0.047871713 0.034888647 0.0010064867 0.019646825 -0.03905085 0.016527211 0.032509364 -0.023995657
-0.0020916802 -0.020846156 -0.0070117014 0.00246332 -0.037996545 -0.019622264 -0.029282244 -0.0257209
