07_gnn/7_gnn.pth (torch_old, 56357 bytes, 14 tensors)

pre_net.weight f4 [10, 9]
000000 88 3c cf be a9 1e b2 3e 02 b9 d9 be 43 1d 44 bc
       -0.4047587 0.34789017 -0.42523962 -0.011969867
000010 8f f0 07 3e 0c 78 11 bf 3a 02 c3 3c 93 27 93 3e
       0.1327536 -0.568238 0.023804773 0.2874113
000020 59 62 90 be 41 d7 39 3f 94 c0 86 be e2 f4 aa 3d
       -0.28200033 0.72594076 -0.263188 0.08347489
000030 3f 9b a4 be 9f 98 fd 3e 62 55 21 3e f4 2a 5c 3e
       -0.32149693 0.49530503 0.15755227 0.2150076
000040 e9 c7 cd 3d d7 27 f8 3c 39 09 b6 bd 7d 62 9d be
       0.100478955 0.030292435 -0.08888478 -0.30739203
000050 94 3c 83 bd c5 f0 c5 3e 6d 98 da 3e 79 45 50 3e
       -0.06408039 0.38660255 0.42694417 0.20339002
000060 4e 88 2e 3e 56 90 aa 3e 78 37 61 bf 59 fc f9 bd
       0.17044184 0.33313245 -0.87975264 -0.122063346
000070 45 be 53 be a8 1d 42 bf 90 12 92 be 11 98 ce 3e
       -0.20678051 -0.758265 -0.28529787 0.40350392
000080 47 5e ec 3e c2 67 7f 3e da a1 32 bf 7a 95 c0 be
       0.46165678 0.24941924 -0.69778216 -0.37614042
000090 03 db 08 3e cf d6 00 bf 4d e4 11 bf 6a 5e 3e be
       0.13364796 -0.5032777 -0.56988984 -0.18590704
0000a0 6d 0a 2f bf 05 09 2c 3d 67 dc ad 3e 7f 7c 0d 3e
       -0.68375283 0.04200079 0.33957216 0.13817023
0000b0 f2 4d 47 3e 00 b7 99 bd c3 a2 42 be a8 e1 00 be
       0.19463328 -0.075056076 -0.19007401 -0.12586081
0000c0 97 6d 0a 3f 6b a1 7e bc c5 99 78 be 23 37 f3 3e
       0.5407347 -0.015541415 -0.24277408 0.47503003
0000d0 32 c3 5e be f6 96 73 be 71 5d a6 3e bd 27 0c bf
       -0.21754149 -0.23788056 0.32493165 -0.54748136
0000e0 1b 12 3b 3d f2 a1 ce 3e 09 f8 22 3d ae b4 02 bf
       0.045671564 0.4035793 0.039787326 -0.51056945
0000f0 b6 ca a3 be a2 c2 b9 3d 24 3e ed bd 8f ef 6e be
       -0.31990594 0.090703264 -0.11584118 -0.23333572
000100 af 02 3f 3e 38 4c dd 3e 01 2f ce be 7c c6 bf 3d
       0.18653367 0.43222213 -0.40270236 0.0936403
000110 f4 ad a2 be 52 3f b2 3e dd ba 99 3e eb fd 89 be
       -0.3177334 0.34813935 0.30025378 -0.26951537
000120 00 67 3f bd 0a 57 04 3f 87 ec 14 bf d8 db 07 3f
       -0.046729088 0.5169531 -0.5817341 0.5306983
000130 34 bd 12 bf bf 50 af 3e e1 d7 d7 3d fd 64 a1 3e
       -0.5731995 0.34241292 0.105392225 0.3152236
000140 8d dd 41 be 9e 0f 24 be 33 80 b6 3d c0 cd 80 3e
       -0.18932171 -0.16021582 0.08911171 0.25156975
000150 33 9f 43 be 35 b5 c7 be c2 3c 74 3e 28 6a 11 bf
       -0.19103698 -0.39005437 0.23851302 -0.56802607
000160 02 a3 9e 3d 32 38 f0 3e
       0.07745935 0.46917874

pre_net.bias f4 [10]
000000 37 7b 06 bd 7d 25 85 bd ca 1e 47 3e 26 02 6d bd
       -0.03283235 -0.06501291 0.19445339 -0.057863377
000010 28 8c 35 3e 5c 90 f9 bd 13 bd c4 bd c8 3b a9 3b
       0.17729247 -0.121857375 -0.096063755 0.005164597
000020 e6 f4 b9 3d ac 5d 9f 3d
       0.09079914 0.07781538

msg_net.0.weight f4 [96, 20]
000000 e6 5e 67 bd e1 5a 3a bc c2 ca 1b 3e f5 5c 8e 3d
       -0.056486987 -0.011374206 0.15214065 0.06951324
000010 a2 1b 61 bc be fd 38 be 64 ec 4d be 31 79 9f be
       -0.013739498 -0.18065545 -0.20109707 -0.3114715
000020 56 bc 8c be 82 e7 87 3e f3 b4 42 3e f3 37 0d 3e
       -0.2748744 0.26543814 0.19014339 0.13790874
000030 a7 a9 15 3e 85 fc 9d 3d fa c1 2f 3d 82 2b 74 be
       0.14615498 0.0771418 0.0429096 -0.23844722
000040 e3 e6 9c 3e c1 5f 38 bd ea 71 63 be 7e bb 27 be
       0.30644903 -0.045013193 -0.22211424 -0.16380116
000050 4c 6f 72 3e 19 bf 49 bd 17 e8 06 3e 80 fe 5d bd
       0.23675269 -0.04925451 0.13174473 -0.05419779
000060 46 3a 85 be af 6c de 3d 70 15 cb bd 68 b1 23 bd
       -0.26021022 0.108605735 -0.09916198 -0.03996411
000070 04 97 0e 3e 28 8f af bd 9e bb 8e 3e 69 45 4b bd
       0.13924795 -0.08572227 0.27877516 -0.04962674
000080 69 57 23 3e fb 2a 5c 3d eb 51 24 be bd 7c a0 3e
       0.15951313 0.053751927 -0.16046874 0.31345168
000090 7e 6f 80 be de 3d d9 3b 0c 84 33 3d 81 fd f9 bd
       -0.25085062 0.0066296896 0.0438271 -0.12206555
0000a0 13 bf e0 3e db 19 10 bf 4b 11 3a 3e ea b1 94 3e
       0.43895778 -0.5628945 0.18170659 0.29041988
0000b0 9d 45 39 3f 65 c2 f3 3e 68 f5 bf 3b 02 b8 57 3f
       0.72371846 0.4760925 0.005858112 0.8426515
0000c0 0a 06 14 be 3e f3 8d bd 5b 17 46 bd f9 6f 4b 3d
       -0.14455429 -0.069311604 -0.048362117 0.049667332
0000d0 04 b0 b3 3c 10 a3 c7 3c e8 b1 02 bd 0a 7f 49 3d
       0.021934517 0.024369746 -0.031907946 0.04919342
0000e0 d2 0e d2 3b b6 6d 9d 3c 27 d6 1e 3d 3a 26 2a bd
       0.006410458 0.019217353 0.03877845 -0.041540362
0000f0 10 2f 1e be 4f 0a 40 be de 0f bc be 3a ec ae bd
       -0.1544764 -0.18753932 -0.36730856 -0.085411504
000100 27 18 a1 3e 42 86 42 bc 81 bf d9 bd 0a 43 74 bd
       0.3146374 -0.01187283 -0.106322296 -0.059634246
000110 1c a4 84 3e 98 6d 1a be 97 fb c1 3c 94 e3 f4 bc
       0.25906456 -0.15080869 0.023679538 -0.029893674
000120 33 5f 30 3d ea 8d 9c bd 6c 16 24 be ae 37 15 3d
       0.04305954 -0.076442555 -0.16024178 0.036430053
000130 00 21 e7 3d 06 61 ab 3d db 5b aa be b5 a1 eb 3d
       0.11285591 0.08368115 -0.33273205 0.115054525
000140 b1 57 95 bd 27 14 1c 3d 7f 83 2f 3d 14 ed fb bd
       -0.072921164 0.038105156 0.042850014 -0.123010784
000150 53 d0 cf 3d 1c 23 a5 bd c0 e8 27 3b ae 17 d9 3d
       0.101471566 -0.08063337 0.0025620908 0.1060022
000160 3a fe 86 3c 2f 2a 1c bd aa e6 84 be ed 3d b0 be
       0.016478647 -0.038126167 -0.25957233 -0.34422246
000170 b5 ca 54 3e 29 36 4e 3e 91 ac 5a 3e 3d 15 84 be
       0.20780452 0.20137848 0.21354891 -0.25797454
000180 55 e5 5b be bc 0d af be b1 18 7b 3e 77 be 62 be
       -0.21474202 -0.34190166 0.24521138 -0.22142969
000190 81 40 22 bc a9 6b 9f be e8 dc 75 3e 71 9f 91 3d
       -0.009903074 -0.31136826 0.2401005 0.07110489
0001a0 ac 88 d7 bd f8 6e 0f be b6 fe 2d 3e 68 a8 fb 3e
       -0.10524115 -0.14007175 0.16991696 0.4915192
0001b0 21 28 5b be ba 1a 05 3f 9f 91 0f 3d f2 19 96 3d
       -0.21402027 0.51993906 0.035050984 0.073291674
0001c0 1a 59 34 bd 9a 39 e6 3d dc 6e ce bd be 96 32 bd
       -0.044030286 0.112414554 -0.100797385 -0.04360079
0001d0 2c d3 65 3d ff 44 0c bd f6 77 83 3d 08 8e fc 3d
       0.056109592 -0.034245487 0.06419365 0.12331778
0001e0 48 b3 85 bd 2e 11 9b 3d 5c 11 64 be 84 ec 0f 3e
       -0.06528336 0.07571636 -0.22272247 0.14055067
0001f0 07 cc e2 3e ca fd b0 be f3 80 e9 3e 3d 28 fe 3e
       0.44296286 -0.34568626 0.45606193 0.49640074
000200 fc 37 8b be e7 e4 17 be a1 2c e9 3d 6e b6 2c be
       -0.2719115 -0.14833413 0.113854654 -0.16866466
000210 35 bf 11 3e 32 dc f3 bb 8b 34 f6 bd a1 30 d6 3d
       0.14233096 -0.007442021 -0.120217405 0.10458494
000220 16 02 6b be 97 c5 24 be 00 e8 27 3e 02 86 b9 3d
       -0.22950014 -0.16091 0.16397095 0.09058763
000230 68 fd 78 be e6 f1 c8 3e ac bd ae be 19 b4 c2 bd
       -0.24315417 0.39247054 -0.34129083 -0.09507007
000240 43 c4 2e 3e e5 1c b7 bd 2a ae b8 3e ce 0e bc 3d
       0.17067055 -0.08941058 0.36070377 0.09182511
000250 97 67 2f 3c f7 da 63 be f1 01 d2 bd de f5 3c bc
       0.01070585 -0.22251497 -0.102542765 -0.011533229
000260 11 1f b1 3c ae a7 0c bd 63 d8 5d bc e2 6f 82 3b
       0.021621259 -0.0343396 -0.01354036 0.0039806226
000270 3b f4 54 bd a9 72 07 3e ea 6b b1 3d 8b ec 9b 3d
       -0.05199073 0.13227333 0.08663161 0.07613476
000280 29 5b 8a 3e 66 3c d1 be eb 63 8d 3d ed 32 7e 3d
       0.27022675 -0.40866393 0.069038235 0.062060285
000290 00 f7 a7 3d c1 05 fc 3c 42 59 c9 bc 0b 22 a4 3e
       0.082014084 0.030764462 -0.024578694 0.32057223
0002a0 33 ed 03 3e 12 64 af bd 1e de 82 3e ff 46 3f be
       0.12883453 -0.08564009 0.25560087 -0.18679427
0002b0 af 57 8e be f9 de c2 3d 99 6c 82 3e 09 ea 49 bd
       -0.27801272 0.09515185 0.25473478 -0.04929546
0002c0 a4 0c 65 be d3 ed ac 3e 5b 54 19 bb 47 5b f9 bd
       -0.22368103 0.33775195 -0.0023396227 -0.12175613
0002d0 f8 f5 7a be 60 5d 89 be 46 97 0f 3e be 3c 6d bb
       -0.24507892 -0.26829052 0.1402255 -0.0036199535
0002e0 02 77 3e 3e 59 cc 39 3c 25 48 1d be 08 84 51 3e
       0.18600085 0.011340224 -0.15359552 0.20460522
0002f0 5a fa e6 bd 20 4d 7f bd 53 94 d0 bd d9 af 2c bd
       -0.112782195 -0.06232941 -0.101845406 -0.04215989
000300 b1 9e cb 3d c0 3f 2e be 99 57 ba 3c 81 46 60 bd
       0.09942377 -0.17016506 0.022746848 -0.054754738
000310 d8 93 3a bd 64 92 7f 3e 12 19 35 bd ae fe 12 be
       -0.04555115 0.24958187 -0.044213362 -0.14354965
000320 db 8b d5 3e b4 d7 02 3d f6 dc 94 be e2 ee 09 3d
       0.41708264 0.03194399 -0.2907483 0.033675082
000330 46 c1 aa be dd 32 0c bd 19 d0 a2 3c 12 fb ba 3e
       -0.3335058 -0.034228195 0.01987462 0.36519676
000340 54 d8 83 3c 24 88 89 3d c4 aa 2b be 3e 28 bb bd
       0.016094364 0.0671542 -0.1676436 -0.09138535
000350 a3 a8 21 be 88 7c e4 bd 7e e1 14 3d a8 e9 10 be
       -0.15786986 -0.11156565 0.03634786 -0.14151633
000360 05 3a 1c be 1d 24 72 be 3c f2 40 be 67 95 4d be
       -0.15256508 -0.23646589 -0.18842405 -0.20076524
000370 4a 0f 42 be d1 b5 72 be 2f 93 65 be b3 e5 0c be
       -0.18951145 -0.2370217 -0.22419427 -0.13759498
000380 90 bf 06 3e db f8 04 be 76 03 f1 bd 72 db 41 be
       0.13159013 -0.12985556 -0.11768238 -0.18931368
000390 ea 53 5c bd 5a a6 5c 3e 56 3c d8 bd d8 cf 48 3d
       -0.053790964 0.21547833 -0.10558383 0.04902634
0003a0 bd d6 17 3c 2a a1 ac bd 91 7a 22 be fd cc 85 bd
       0.009267506 -0.08429177 -0.15867068 -0.06533239
0003b0 97 da 57 be 38 ca 24 bc ea 67 98 be 72 b8 cf 3d
       -0.21079479 -0.010057978 -0.2976678 0.10142602
0003c0 1e 8b 03 3e 0d 8c 1f be 3f 96 99 3d b1 e8 49 be
       0.12846038 -0.15580769 0.0749936 -0.19717671
0003d0 dd 5d 28 3d 32 06 0a be 56 7a 10 3d a7 7f d1 bc
       0.04110514 -0.13478926 0.03527292 -0.025573565
0003e0 1c 47 69 3e 55 3c 02 3f ff 29 a2 3d ca 56 8a 3e
       0.22781032 0.5087331 0.07918166 0.2701934
0003f0 6a bb 0a bb e7 fd 79 3d ea d3 de 3d 34 f9 13 3e
       -0.0021168836 0.061033156 0.10880263 0.14450532

msg_net.0.bias f4 [96]
000000 50 47 70 be 0c c3 3d be 91 3f 65 be ba b9 58 bd
       -0.23464704 -0.18531436 -0.2238753 -0.052911498
000010 78 e3 2b be a2 90 8c 3b 07 87 4d be 5d 84 db bc
       -0.16785991 0.0042897025 -0.2007104 -0.026796514
000020 1a 0b c9 bd b7 4a 04 be 80 79 85 bd db 9c 2e bd
       -0.098165706 -0.12919126 -0.06517315 -0.042630058
000030 ac 02 3e be 19 92 20 3d f0 46 51 bc 6b f7 fe 3d
       -0.18555707 0.03920183 -0.0127732605 0.12449535
000040 ee fd 37 3d dc 35 22 bd 65 b3 54 3d 47 9c 94 bd
       0.0449199 -0.039602146 0.051928896 -0.0725637
000050 8c fd 4f be 7f 3c 3c be cf f2 be 3d ee 03 37 bd
       -0.20311564 -0.18382452 0.09323656 -0.044681482
000060 21 c2 0c 3d 7d de 18 be c2 2a 85 3d ae 30 09 3e
       0.034364823 -0.14928623 0.06502296 0.13397476
000070 c0 76 58 bd e4 8c f0 bd 72 74 80 be 0e 6f a6 3d
       -0.052847624 -0.11745623 -0.2508884 0.08126651
000080 d6 66 06 bd d8 d0 de 3c 26 ce 27 3c cb 4d 94 3d
       -0.032812916 0.027199194 0.010242021 0.072414
000090 51 a3 db bd 83 08 04 bc fd f6 33 be f7 70 81 bd
       -0.107245095 -0.00805867 -0.17574687 -0.063203745
0000a0 4d 4e 75 3c 5d c5 a3 3d 6b 47 0a be 1a e2 7d 3c
       0.014972282 0.079966284 -0.13503806 0.015495801
0000b0 30 c4 3f be 2c 74 74 bb d6 1c 04 be 8a a4 89 3d
       -0.18727183 -0.003730069 -0.12901625 0.067208365
0000c0 99 5a ce 3d 04 0c 3d bd ab 74 ca bd fa 1b 57 be
       0.10075874 -0.046154037 -0.09885534 -0.21006766
0000d0 1b 23 82 bd 2f dc 80 3d 17 4f 9a bd 71 6a 7d 3d
       -0.06354352 0.06291997 -0.075346164 0.06186909
0000e0 b0 0c 5e 3d ab 46 b1 bd 8f 1f a4 3c 68 7e e8 3d
       0.05421132 -0.08656057 0.02003458 0.11352235
0000f0 a8 6d c8 3c 75 9f cb 3d 7f d8 69 be 60 e7 5d bd
       0.02446635 0.099425234 -0.22836493 -0.054175735
000100 0e 10 f2 3d ea 0c bf 3d 55 e5 64 3d 54 50 24 be
       0.118194684 0.09328635 0.05588277 -0.16046268
000110 b1 8e b4 bc 21 69 3c bb 84 0f 9f 3c c9 d0 d3 bd
       -0.022040697 -0.0028749185 0.019416578 -0.10342557
000120 9d b0 ca bd ed e2 0d 3d 81 2e ad be 32 04 9a be
       -0.098969676 0.03464024 -0.33824542 -0.30081326
000130 94 eb cf bc 30 8a 95 bd 26 99 6a be cc 7b bf bd
       -0.025380887 -0.07301748 -0.22909984 -0.09349784
000140 bf 6e 2b be 8f 28 b2 3c 5d bb c3 3d b6 a1 c2 bd
       -0.16741465 0.021747855 0.09557221 -0.095035
000150 0a 99 8a be 5f e8 10 be a1 ec 0f be 88 89 73 bd
       -0.27069885 -0.14151143 -0.1405511 -0.059457332
000160 41 78 6a be e5 ed 25 bd d8 5f 55 be 09 6d ad bd
       -0.22897436 -0.040510077 -0.20837343 -0.084680624
000170 d8 21 44 bd a7 c3 23 bd 27 d4 d2 bd c9 25 6b 3d
       -0.04788384 -0.03998151 -0.10294371 0.05740908

msg_net.2.weight f4 [96, 96]
000000 3e 98 9c bd 0a 2d 66 bd 14 b5 c4 3a 33 b9 04 be
       -0.076462254 -0.056195296 0.0015007579 -0.12961273
000010 88 c1 39 3c 05 27 ba 3c 98 49 60 bc f3 08 1a 3d
       0.011337645 0.022723684 -0.013689421 0.03760619
000020 09 88 15 bd ee 2e 8a bc aa 3c 84 bd 85 bd ea bd
       -0.036506686 -0.016868081 -0.06456883 -0.11461929
000030 e8 6b 3b bd d4 d9 1f 3d 8d 86 1c 3d b1 ed 7c 3c
       -0.045757204 0.039026096 0.038214255 0.015437529
000040 8f d3 31 bd 7b 69 21 bd 62 d3 0c be 5c a3 a1 bd
       -0.04341465 -0.039407235 -0.13752511 -0.078924865
000050 11 15 a1 bd 8b c9 0b bd cb 15 87 bc cf d6 7b bd
       -0.07865346 -0.034127753 -0.016489884 -0.061484154
000060 41 b4 4b bd 94 7f 59 bd 89 4f e7 bd 8f 2b d3 bd
       -0.04973245 -0.053100184 -0.11294467 -0.103110425
000070 a1 bf f9 bd 6e 60 9e bc b2 8e 81 bd 80 c6 45 3d
       -0.121947534 -0.01933309 -0.06326045 0.048285007
000080 88 b1 05 be cd 78 d2 3c e5 03 6e 3c 8a 6e 22 bd
       -0.13056004 0.025692368 0.014527296 -0.0396562
000090 b2 53 77 bd bb ea a3 bd b6 6a d8 bd 90 6f 4a bd
       -0.060382552 -0.08003756 -0.105672285 -0.0494228
0000a0 90 17 57 3c 52 25 a1 3d 8d 6e 81 3c 90 2b 00 bd
       0.013128176 0.078684464 0.015799785 -0.031291544
0000b0 8a 6c 63 3d 3f c1 4a bd 85 3b fb 3c 42 b2 e7 bd
       0.055523433 -0.0495007 0.03066803 -0.11313297
0000c0 6f a4 26 be 65 f5 83 bd 20 6b 05 be e5 a2 ee bd
       -0.16273664 -0.0644329 -0.13029146 -0.116521634
0000d0 0c 39 0e bc 25 b5 14 be f2 af c7 3d 86 ed cc bd
       -0.008680593 -0.14522226 0.09750356 -0.100062415
0000e0 c5 aa 40 3d 29 22 cd bc fe 70 cb bd 94 35 97 bd
       0.04703786 -0.025040703 -0.09933661 -0.07383266
0000f0 6a bb 22 3d a9 c3 cb bd 38 dd 62 bd 08 8d 31 bd
       0.039729513 -0.099494286 -0.055386752 -0.04334739
000100 6e 96 41 bc f7 02 ba bd 5f 64 87 3d 42 46 55 3b
       -0.01181565 -0.09082597 0.06610941 0.0032543098
000110 3e 59 38 3d bf b9 53 bd 1d 35 73 bc 4b 21 8c bb
       0.045006983 -0.051690813 -0.014844206 -0.00427643
000120 67 bc b8 bd 78 87 a4 3c 23 db df bd 62 c9 82 3d
       -0.0902031 0.020084128 -0.10930469 0.06386067
000130 ee 3e 54 3d f7 c8 08 be 51 be 30 3d 55 5e 2f bc
       0.051817827 -0.13357912 0.04315025 -0.010703643
000140 d4 1e e5 bc 28 e9 e3 bd b9 45 92 bd db 82 8c bd
       -0.027968802 -0.111284554 -0.07142205 -0.06860896
000150 9a d5 66 3d c3 9d 0d 3d 33 e5 51 be 10 f5 00 bc
       0.05635605 0.03457428 -0.20497589 -0.007870927
000160 d3 b2 84 bd b9 d6 27 3c 73 b3 91 bd 5d f7 19 bd
       -0.064794205 0.010244065 -0.07114305 -0.03758942
000170 8a c4 68 bd 28 33 c4 bd 5f 9e 04 be d6 a2 8a bd
       -0.05682806 -0.0958007 -0.12951039 -0.0676934
000180 67 52 d5 bd 3d 40 68 3e 65 cb 2d bf a1 5c 68 3d
       -0.104161076 0.22680755 -0.6788848 0.056728963
000190 f3 c6 a0 bd 41 c8 38 be b4 2d b0 be 06 6b 28 be
       -0.078504466 -0.18045141 -0.3440987 -0.16447076
0001a0 30 46 98 bd 8e 41 4f 3d 0e bb 88 bc c1 7b 97 bc
       -0.07435262 0.050599627 -0.016690757 -0.018491628
0001b0 2c 51 f4 3d 23 68 23 3e 21 36 30 bd d2 a0 ce bd
       0.11929545 0.15957694 -0.04302037 -0.10089268
0001c0 9e 69 e2 bd d6 6f 15 be ec bf 1b be 4d 68 15 be
       -0.11055301 -0.14593443 -0.15209931 -0.14590569
0001d0 98 8e 47 be 53 85 f0 bd f5 b4 14 3c 3e df 00 be
       -0.19487989 -0.117441796 0.009076347 -0.1258516
0001e0 c9 47 1c be b1 08 29 be 4b 6c 89 bb e6 10 99 3d
       -0.15261759 -0.16507222 -0.0041938177 0.07473926
0001f0 80 0b 03 3e 81 8a 63 3e be 66 c5 3d a7 1d 82 3e
       0.12797356 0.22220804 0.09638737 0.25413248
000200 5e 1b d8 bd 55 f8 0d be fe eb c2 3c 01 3a f0 bc
       -0.10552095 -0.13864262 0.02379417 -0.029324533
000210 84 e3 59 be 2a 6e e2 3d 74 b3 98 be 12 b8 d5 bd
       -0.21278197 0.110561684 -0.29824412 -0.10435499
000220 17 f7 c3 3d 46 c2 9c 3c 18 45 ee bd 1f 5e 80 bd
       0.09568613 0.019135606 -0.11634272 -0.06267952
000230 39 b6 6d 3e 7a 53 03 3d e8 6e d5 3c 20 ea ee 3b
       0.23214044 0.03206203 0.02605386 0.0072910935
000240 3a 3f ea bd 14 03 29 3d 57 c7 cb 3c d0 f9 dd bd
       -0.11437841 0.0412627 0.024875326 -0.108386636
000250 e9 46 10 be a4 1e 77 bd 81 6f 1b bd fb 6b 0d bd
       -0.1408955 -0.060331956 -0.037948135 -0.034526806
000260 e7 23 65 bd 23 7d 66 be f0 e1 5e bd 62 7c 9d bd
       -0.055942442 -0.22508673 -0.05441469 -0.0768974
000270 09 37 ff bd c5 cb 49 bc ad b3 89 bd 99 04 a2 3d
       -0.12461669 -0.012316649 -0.067237236 0.07911033
000280 8d dd 2a be e7 44 35 3e 4f 37 b6 bd ed b9 c7 bd
       -0.16686077 0.17702065 -0.08897268 -0.097522594
000290 19 a3 21 3e e5 6c 45 be db 9a 9f bd df a8 d6 3d
       0.15784873 -0.19279821 -0.07793208 0.10481428
0002a0 ad b3 81 be 5f 5b 76 be d9 ac dd 3c 66 3b 35 be
       -0.25332394 -0.24058293 0.02705996 -0.1769844
0002b0 40 de 8b bd 40 bf 03 3e 57 41 f7 be b2 f8 58 3d
       -0.068295 0.12865925 -0.48292038 0.05297155
0002c0 98 1c e5 3d da 30 7e 3c e8 5e 60 bd d2 d1 23 3d
       0.111870944 0.015514577 -0.05477801 0.039995022
0002d0 94 34 9d bc 67 f7 08 be 22 02 ac be 9b f2 48 3e
       -0.01919011 -0.13375627 -0.33595377 0.19623797
0002e0 40 bd d4 bd 6e 8b 8a be 4d ea 6a 3e 12 55 b4 3d
       -0.10387659 -0.270595 0.22940941 0.088052884
0002f0 eb 5c 88 be 02 94 1f be 12 2d d8 bd 13 11 0c 3c
       -0.2663339 -0.15583804 -0.105554715 0.008548993
000300 a9 a3 b5 bd e4 f5 39 bd d4 2c e3 be af 04 e3 bc
       -0.08869106 -0.045400515 -0.4437014 -0.027712194
000310 39 b8 db bd 4d bc d4 bd 9c 0e 81 be 4b 77 83 bb
       -0.10728497 -0.10387478 -0.2520646 -0.0040120236
000320 38 29 5c bd 28 bc ee bd 44 b9 11 be 68 4a 01 be
       -0.053750247 -0.11656982 -0.1423083 -0.1262604
000330 2e 5c d1 3c 42 db c7 3d 12 dc 05 be 74 da 06 be
       0.02555665 0.09758617 -0.13072231 -0.13169271
000340 55 5d 85 bc 01 18 a9 bd cc 1e f3 3d 13 ad dc bd
       -0.016279856 -0.082565315 0.118711084 -0.10775199
000350 68 71 ab be 40 9f b6 bd 67 2d 2f be 89 28 67 bd
       -0.3348496 -0.08917093 -0.17107163 -0.05643514
000360 e0 19 d9 bd 20 e1 4f be 8e 96 25 be 39 6a dd bd
       -0.106006384 -0.20300722 -0.16170713 -0.10811276
000370 18 11 06 3c 76 a1 28 3e 82 d3 3e 3e ae d0 a2 bd
       0.008182786 0.16467842 0.18635371 -0.07949959
000380 ad 92 a0 bc d8 77 0c bd 86 73 46 3c 2c a8 25 be
       -0.01960119 -0.03429398 0.012112504 -0.16177434
000390 bc 74 50 bd 03 88 8c 3d 25 af a6 be c8 e9 c7 3e
       -0.050892577 0.0686188 -0.325555 0.39045548
0003a0 83 5b b4 3d 50 a3 fc bc f5 1f 0b be 00 7e 97 bc
       0.08806517 -0.030839592 -0.1358641 -0.018492699
0003b0 06 88 34 3d 68 e0 6d be 07 58 27 3c ce 1c 5d 3e
       0.044075035 -0.23230135 0.010213858 0.2159302
0003c0 b2 cc 83 bd 23 1e 1e be 45 52 4b 3e e3 27 4d 3d
       -0.06435527 -0.15441184 0.19855602 0.050086867
0003d0 d6 b2 65 be 6d e4 5d 3d 0a a8 64 bb 64 b0 e5 bd
       -0.22431502 0.054172922 -0.0034890198 -0.112152845
0003e0 ca e3 8a bc a3 0a 69 3d 05 6a b5 bc 18 8b f5 bd
       -0.016954321 0.05689491 -0.02214528 -0.11989421
0003f0 af 04 e2 3c f4 96 f7 3c 60 57 cb 3d ae d5 8f 3c
       0.027590124 0.030223347 0.09928775 0.017557945

msg_net.2.bias f4 [96]
000000 ef d9 af bc bb 3c d8 bb be 79 23 3d 73 52 7d bb
       -0.021466224 -0.0065990365 0.039911024 -0.003865388
000010 1a 2a 10 3c c2 29 c3 3c a9 4b d4 bd 0a 17 a3 3d
       0.0087991 0.023823623 -0.103659935 0.07963379
000020 32 70 61 3d aa 94 58 bc 16 94 05 3d 2e 19 ac 3d
       0.05503864 -0.013219038 0.03261193 0.0840324
000030 fb b2 65 3d b5 de df 3c f4 92 cf bd 37 0b 7d 3d
       0.056078892 0.027327875 -0.10135451 0.061778273
000040 f6 bb 93 3d d7 26 6d 3d fe f8 ac bc 14 32 29 bd
       0.07213585 0.05789837 -0.021114822 -0.041307524
000050 1c be 44 3c a0 ea 3c 3d 7a 03 f1 3d d1 47 7a 3d
       0.012008216 0.046122193 0.11768241 0.061103646
000060 04 11 57 bd ff d8 8b bd 56 19 39 3d 8c 07 82 bb
       -0.05250646 -0.06828498 0.045190178 -0.003968185
000070 ce 38 b6 3d df c3 04 3d b2 22 b9 3d 11 e4 89 bb
       0.088975534 0.03241336 0.09039821 -0.004208096
000080 ef 68 a5 bd fb b6 05 be 3d 42 2a 3c 67 19 47 bd
       -0.08076655 -0.13058083 0.010391769 -0.04860821
000090 9a 06 9b 3d be 9b 7a 3d 08 91 d4 3d 89 8d bd bc
       0.075696185 0.061183684 0.10379225 -0.023138778
0000a0 2b 06 b1 bd 62 59 b3 bc 91 e8 62 3d c5 89 8c 3d
       -0.086437546 -0.021893207 0.055397574 0.06862215
0000b0 b6 15 a4 bd 78 31 36 3d fd 29 cf bb 7f 05 30 3d
       -0.080119535 0.04448077 -0.006322144 0.04297399
0000c0 8c ee 09 be b3 8a 08 3c 81 ca 1e 3d 5a 59 2c 3d
       -0.13469905 0.00833385 0.03876734 0.0420774
0000d0 a0 03 70 3c 4a e0 25 3e a8 1d 40 3c 1b 92 c0 bd
       0.014649302 0.1619884 0.011725821 -0.094028674
0000e0 cb 8f 82 3d 53 de 05 bd a7 2e 61 3d 05 7d 19 3d
       0.063750826 -0.032682728 0.05497613 0.037472744
0000f0 4d 3f d5 3b 84 f2 82 bc 49 1f 95 3c c2 08 36 bd
       0.00650779 -0.015984781 0.018203394 -0.044441946
000100 c9 7d dc bb cf 5d 6f 3d be 35 91 bd ec c5 a2 3d
       -0.006728862 0.058439072 -0.07090329 0.07947907
000110 75 7b 26 bd 1b 57 08 3d 07 3e da 3d c3 d8 99 3b
       -0.04064508 0.033286195 0.10656362 0.0046950295
000120 53 15 38 3b 58 a8 c0 3d ca 47 6e bd e3 64 22 3d
       0.0028088882 0.09407109 -0.058173932 0.039646994
000130 76 a7 e5 bc 78 73 0d 3d 8b 33 06 be f5 5e 93 bb
       -0.028033953 0.034533948 -0.131056 -0.0044974037
000140 cf 88 91 3d 73 f7 03 bc 53 3f ed bc 84 29 9f 3d
       0.07106172 -0.008054602 -0.02896086 0.0777159
000150 d6 80 a3 3c 54 84 1a bd 4c ee 0d be 4d 2c 9f 3c
       0.019958895 -0.037723854 -0.13860434 0.019430304
000160 45 7c 29 3d cc bb 03 3d 3a ff 37 ba 61 c9 4d 3d
       0.04137828 0.03216152 -0.0007018928 0.050240878
000170 4c 8e 57 3d 63 d4 8e 3b 02 7c f0 bd 8d 95 a2 3d
       0.05262594 0.0043588146 -0.117424026 0.07938681

msg_net.4.weight f4 [11, 96]
000000 33 0e 9c bd dc 63 3b 3e 67 1e 8d 3d ac 51 99 bd
       -0.07619896 0.18299812 0.068905644 -0.07486281
000010 7c 5f 82 3d 69 4a 40 3b de c9 0d be c3 5f 01 3e
       0.063658684 0.0029341227 -0.13846537 0.12634186
000020 3e 17 38 3c 3c a6 12 be 96 91 a0 be be 16 dd bb
       0.01123601 -0.14321226 -0.31361073 -0.006747096
000030 16 c0 31 3d 6a da 6f be 9e a3 af 3d 34 22 74 3d
       0.043396078 -0.23423162 0.085761294 0.05960293
000040 b2 49 24 be fb 44 c0 3d 5d 62 64 bd 92 e5 da 3d
       -0.16043738 0.09388157 -0.05575787 0.10688318
000050 d6 d8 13 be ed d3 7e be d8 93 be 3d a2 69 9e 3c
       -0.14438185 -0.24885531 0.09305543 0.019337479
000060 6f 17 29 be 7a cd 4c bc c6 a9 8e bb 7a 11 84 bd
       -0.16512845 -0.012500161 -0.0043537347 -0.06448646
000070 2d 91 8a 3d d6 73 95 bc 18 c8 df be eb 3f 2c be
       0.06765971 -0.018243711 -0.43707347 -0.16821258
000080 12 64 ad 3d 77 28 6f bd 6c fd b7 bd 17 b9 55 3c
       0.084663525 -0.0583882 -0.08983883 0.013044617
000090 40 f7 bf 3c dc ab 71 bc 78 06 20 3e a7 80 11 be
       0.023433328 -0.014750447 0.15627468 -0.14209233
0000a0 fa 5b 01 bd 09 ed 82 bd de 3c e3 bd 1c 7d 57 bd
       -0.031581856 -0.06392867 -0.11095594 -0.052609548
0000b0 6a cb 96 3c f0 de b2 bd 2d 1e 69 3c 91 50 b2 3d
       0.018407542 -0.08733928 0.014228386 0.08706773
0000c0 b3 ce a0 bd 8b ab 42 3d be ca 04 3d 02 4d 8e 3e
       -0.07851925 0.047526877 0.032419913 0.27793127
0000d0 d4 12 ba 3c c3 40 05 3f 7d b0 1f 3d 96 80 a1 bd
       0.022714056 0.52051944 0.03898667 -0.07885854
0000e0 01 be f6 3d bc c9 a0 3c 27 9f 87 bd 95 86 9f bd
       0.12047959 0.019627444 -0.06622153 -0.07789341
0000f0 03 4d e5 3c 8e 2b 5a bd 71 86 a7 be 1f 83 32 be
       0.027990824 -0.053264193 -0.32719758 -0.17432831
000100 00 a5 fa 3d dc 10 a4 3d 64 12 ee bd e6 3d 1b 3e
       0.122385025 0.08011028 -0.116246015 0.15160331
000110 d8 72 a1 bd ea e3 e7 3d 28 7f b1 3e 43 f8 1f 3e
       -0.07883233 0.11322768 0.34667325 0.15622048
000120 40 0b 9b 3d 60 71 d5 3d ca b5 b3 bd dd b7 26 3e
       0.07570505 0.10422015 -0.08774908 0.16281076
000130 ee ed 89 3d 34 0e 13 bd 13 84 ba 3d 07 df b7 bc
       0.067348346 -0.035902217 0.091072224 -0.022445215
000140 ac b5 ba be 63 15 30 3e f0 98 db 3d d7 82 92 bd
       -0.3646673 0.17195658 0.1072253 -0.07153862
000150 11 87 16 3e a0 49 4f 3e dd cf 1a 3c ed ae 89 3d
       0.14699961 0.2024293 0.0094489725 0.067228176
000160 e2 90 40 3d aa 93 83 3d d2 24 d9 3d 45 5e 15 3e
       0.04701317 0.06424649 0.10602726 0.14586742
000170 1f c3 24 be 02 76 71 bd 3f d0 bf 3d 14 30 46 bc
       -0.16090058 -0.05895043 0.09365892 -0.012096424
000180 3d d1 07 bd 89 0a f1 bd a1 6a 88 be 20 58 04 3d
       -0.03315853 -0.117695875 -0.2664385 0.032310605
000190 d7 86 7b 3d 8c f0 25 3e f0 51 db bd f6 8f 07 be
       0.06140789 0.16205043 -0.10708988 -0.1323851
0001a0 70 95 ba 3c f4 69 b7 bd ce f4 a5 be fb 01 fd 3d
       0.022776335 -0.08955756 -0.32413334 0.12353893
0001b0 f8 c6 40 3d c8 34 41 3e a9 ef 66 3d dc 2f b5 3d
       0.04706475 0.1886779 0.0563809 0.08847019
0001c0 45 91 ba 3e fe c6 3d 3d 2f 54 5c bc 62 ee c8 bd
       0.36438957 0.046332352 -0.013447805 -0.09811093
0001d0 fa 85 8d 3c c6 34 26 be 9a 0e cc 3d 12 e9 2b 3c
       0.017275799 -0.16231069 0.099637225 0.01049258
0001e0 11 af 70 3d 97 7c 6f 3e 76 e8 a1 3e 91 1a bc bd
       0.058760706 0.23387371 0.31622666 -0.09184755
0001f0 18 65 a1 bd 34 e2 3b 3e 16 9f d8 3e b6 e2 22 3e
       -0.0788061 0.18348008 0.42308873 0.15906796
000200 80 1c a6 3d b6 a5 62 3d 8e e1 3d 3c 80 40 42 bd
       0.08110905 0.055333816 0.011589421 -0.047424793
000210 b8 e6 8b bc 17 97 d6 ba 13 22 54 3d 98 52 3e 3e
       -0.017077789 -0.0016371933 0.05179031 0.18586195
000220 a1 ca 83 bd 37 a1 25 be a2 7a 29 3e ee 61 73 3d
       -0.06435133 -0.1617478 0.16550687 0.059419565
000230 ba 64 db bc f4 80 d9 3d 42 c6 96 3d b2 ef 23 be
       -0.026781429 0.10620299 0.073620334 -0.16009405
000240 8d 42 be bd 30 c5 95 3e e7 bd 3a bd 1a 75 a3 3b
       -0.09290037 0.29252005 -0.04559126 0.004988325
000250 9e 9a f2 3d 17 64 13 3d 0a 10 ab 3c d0 09 93 bd
       0.11845897 0.035984125 0.020881671 -0.07179606
000260 1a 99 81 bd b0 dc 46 3e b7 74 bd 3b 8d b7 22 be
       -0.0632803 0.19420123 0.0057817358 -0.15890332
000270 11 a4 77 3d 38 e7 c0 3c c0 8a dc be b5 10 e0 37
       0.0604592 0.023547754 -0.43074608 2.671066e-05
000280 60 0b 8e 3e 3a d3 0a be 79 5a 01 3e 65 0e e4 bd
       0.27743053 -0.13557139 0.12632169 -0.11135558
000290 fd 3d 85 3e 24 cd df 3d c1 3d f6 bd ad 5d 1b 3e
       0.26023856 0.10927799 -0.120234974 0.15172453
0002a0 97 26 f5 3d 63 8e ee bd e1 0d 06 be 68 5e f9 3d
       0.11970251 -0.11648252 -0.13091232 0.1217621
0002b0 b4 00 90 3d 61 a0 32 bd c0 8a 1f bd 61 3c d1 bc
       0.07031384 -0.04360998 -0.03895068 -0.025541486
0002c0 70 f0 a9 be f6 86 ba be e8 1c aa 3c f9 67 bb bc
       -0.33191252 -0.36431092 0.020765737 -0.022876726
0002d0 86 70 a9 be 77 77 20 3e bc 90 10 bd a2 b4 2f 3e
       -0.3309366 0.15670572 -0.03529428 0.1715875
0002e0 11 2b 63 3e 9c a3 33 3e c3 79 e6 3c 79 b8 b9 3d
       0.22184397 0.17542881 0.028134232 0.090683885
0002f0 e4 84 31 3e 24 1f 18 be 32 23 a4 3d 5d ad 5e be
       0.1733585 -0.14855629 0.080145255 -0.2174582
000300 2b 7e be bd f7 03 13 3e e7 3a 9f bd c4 19 73 3c
       -0.093014084 0.14356981 -0.077749066 0.014837686
000310 8a 2e 01 bd db cd ca be 0a 92 af bd 72 50 c8 bc
       -0.031538524 -0.3961018 -0.085727766 -0.024452422
000320 7a 2a cf 3d 58 85 4b 3d 1e b8 10 3b 5c ae 3b bc
       0.10115524 0.049687713 0.0022082399 -0.011455145
000330 da bf ef bd b2 76 3e 3e 83 99 c4 bd a4 ed 68 3e
       -0.11706515 0.18599966 -0.095995925 0.22746903
000340 dd 9e 6e 3e ae e8 41 3e 74 de 1d 3d 47 8c d3 3d
       0.23302789 0.18936417 0.038542226 0.1032949
000350 fa 34 b2 3b d9 38 57 be 1b c3 03 bd 1c d3 82 3d
       0.005438444 -0.2101778 -0.03216849 0.06387922
000360 93 53 60 bd fa f0 e2 bd 79 54 7a be b6 3c 76 bd
       -0.054767203 -0.11081119 -0.24446286 -0.060116492
000370 9f 76 9c 3d ee f6 97 bd c9 4c 8b 3e 50 5e 3c be
       0.07639813 -0.07420145 0.2720702 -0.18395352
000380 14 b9 c2 bb f8 36 80 bd 6a b9 16 be 82 0c b6 bd
       -0.005942473 -0.062604845 -0.14719167 -0.088891044
000390 00 a6 9d bc 11 fe cc 3c b0 5a 12 be 5c dc 34 be
       -0.019244194 0.025023492 -0.14292407 -0.17662185
0003a0 77 52 35 3c 1e 47 b0 3d 32 21 32 bd 40 6e 9b be
       0.011067024 0.086073145 -0.04348869 -0.30357552
0003b0 21 97 02 be 69 2c 1a 3d 33 c5 a4 bd 95 02 95 3c
       -0.12752964 0.03764001 -0.08045425 0.018189708
0003c0 c2 44 14 3e 7b bf d5 bd 94 7b 43 be 8d 88 8d 3b
       0.14479354 -0.104369126 -0.1909011 0.0043192566
0003d0 44 da cf bd 59 a9 8e be c5 b8 50 bd 31 61 17 3c
       -0.10149053 -0.27863577 -0.05095746 0.009239481
0003e0 59 91 3a be 0f d3 07 3e d1 33 c5 bd ad 84 c7 bd
       -0.18219508 0.13264106 -0.09629024 -0.09742103
0003f0 65 8d c4 3b 6c d7 ef bc 72 19 86 be da e7 91 3d
       0.005998301 -0.029277526 -0.26191288 0.071243

msg_net.4.bias f4 [11]
000000 c5 96 27 3d 6e 97 16 bd 7d 84 65 3d b3 3a b0 bc
       0.04091527 -0.03676551 0.056034554 -0.021512365
000010 0c 94 8c 3d e9 be 2c 3d 66 11 7d 3d 2c 2e d0 3b
       0.06864175 0.042174254 0.06178417 0.0063531604
000020 cc 31 80 3d 07 48 cd bc fc 66 50 bd
       0.06259498 -0.02505876 -0.050879464

gru_1.weight_ih f4 [30, 20]
000000 ff d0 c6 3e fc c5 7b 3d 07 71 41 3e 8f c9 f1 be
       0.38831326 0.06146811 0.18890773 -0.4722409
000010 15 ac 95 3e d6 f3 00 bf 54 3a 39 3f 3f 49 7a bf
       0.2923285 -0.50372064 0.72354627 -0.97768015
000020 99 aa e7 be 66 43 dc bd 96 78 11 3f 7f 73 c6 3e
       -0.45247343 -0.10755043 0.56824625 0.38759992
000030 47 41 2a 3d ac 38 8b 3e 1d 5c 76 be d5 04 6c 3d
       0.04156616 0.27191675 -0.24058576 0.057621796
000040 57 b8 9b 3d 88 35 40 be 96 4a ac 3e 08 be 15 be
       0.076035194 -0.1877042 0.33650655 -0.14623272
000050 ff 16 46 3f c3 54 a3 3d d8 0f 8d be 41 b1 83 3d
       0.7737884 0.079751514 -0.2755115 0.06430293
000060 ab ef 06 3f 83 db dd 3c 6e 35 99 be fb ef 57 bf
       0.52709454 0.02708221 -0.29923576 -0.84350556
000070 08 fa ea 3e d1 ad 11 3f 76 7a 0f 3f 94 30 87 3e
       0.45893884 0.5690585 0.56046236 0.2640425
000080 cc ca 6a 3e eb d6 ec 3e c9 f5 b5 bd 51 6b ed be
       0.22928923 0.4625772 -0.088847704 -0.46370938
000090 6e 2d 0b bf 74 27 ef 3d 02 7d be be c2 5d b7 3e
       -0.54366195 0.11677447 -0.37204748 0.3581372
0000a0 0d 19 97 3e 60 df 9a 3d 06 76 a2 be 58 8d ce be
       0.295113 0.07562137 -0.3173067 -0.40342212
0000b0 e3 0f a8 3d 61 8d 1a bf be a1 ab 3e 9f c8 38 be
       0.08206155 -0.6037198 0.33521837 -0.18045281
0000c0 da 77 47 3d fa ba fd bd 4c 40 1e be e6 f1 e4 3d
       0.048698284 -0.123891786 -0.15454215 0.11178951
0000d0 a4 d8 0e bf 83 ac 02 bf 24 93 d6 3e 7c 84 80 3d
       -0.5579932 -0.5104448 0.41909134 0.062752694
0000e0 3d 72 17 be 30 87 d4 be 59 e8 82 3f 20 61 1b bd
       -0.14789672 -0.4150939 1.0227157 -0.037934422
0000f0 bd 0e 17 bf d2 14 e1 be 08 f0 45 3f 72 18 61 3e
       -0.59006864 -0.43961197 0.77319384 0.21981981
000100 26 ab 15 3e f4 df 6f bf 1f bd 06 3f 50 6a 0b bf
       0.14616069 -0.937011 0.52632326 -0.54459095
000110 2e ac 24 3e a3 8b f5 be a2 19 2b 3f 81 aa 4e 3e
       0.16081306 -0.47958097 0.6683599 0.2018223
000120 59 81 d9 bc e0 e3 65 3e 4b 04 8a 3f 1d 7a 3f bf
       -0.026550936 0.22450209 1.078256 -0.74795705
000130 8f 02 3d 3e 07 e5 f7 3e 81 5c d7 3e 40 22 0a 3e
       0.18458007 0.48416921 0.42062762 0.13489628
000140 08 4c 9e be 94 c5 f0 3e 12 17 24 3f 09 a1 21 3e
       -0.30917382 0.4702574 0.640977 0.15784086
000150 ad fa 17 3f 8f cf 1e 3e e8 8b 22 bf d6 3c 19 3f
       0.59366876 0.15508865 -0.6349473 0.59858453
000160 7f 6c e4 be a3 70 2a 3e 1e 29 f5 3e 61 b6 7a 3c
       -0.44614026 0.1664453 0.47882932 0.015302272
000170 cb dd 37 be d7 17 5d bd fe d9 09 3e 1e 77 70 3e
       -0.17955701 -0.053977814 0.13462064 0.2348294
000180 e7 de 9c be 44 fa 80 3e 39 c3 09 3e ee 14 c4 3e
       -0.3063881 0.25190938 0.13453378 0.38297218
000190 eb 41 5e bf 6a 37 78 3e 72 88 e0 3e b8 fb 46 bf
       -0.8681933 0.24239889 0.438541 -0.7772784
0001a0 fd 40 c3 3d 9b d7 12 bf e5 bb b2 3e f0 db ea 3e
       0.0953388 -0.5736024 0.34908977 0.45870924
0001b0 f8 44 02 3f e1 1b 08 3d bd db f9 3e 9b 19 61 3e
       0.5088649 0.033229712 0.4880046 0.21982424
0001c0 a1 1b 0d be 41 f8 19 bf 0a 6a c5 bd 2e e4 39 bf
       -0.13780071 -0.6014443 -0.09639366 -0.726138
0001d0 84 14 8d 3e 31 d7 db 3d c8 b6 d9 bb 28 e6 31 be
       0.27554715 0.10734404 -0.0066441037 -0.17372954
0001e0 da 63 a5 bf 2a c1 86 be e8 ae a4 3d 42 98 22 bf
       -1.2921097 -0.26319247 0.08041173 -0.63513577
0001f0 3a 74 82 3e 65 19 a1 3e 27 1f ff 3e 3a 66 ba 3e
       0.254793 0.31464687 0.49828455 0.36406118
000200 9d d2 74 3f 1e 8d a1 3e 67 88 5f be 98 26 e8 be
       0.9563387 0.31552976 -0.21829377 -0.45341945
000210 bb e3 d5 3d a0 b4 1f bf fa 22 e0 be b5 f8 b2 3e
       0.10443827 -0.62384987 -0.43776685 0.34955373
000220 06 db 8d 3e e4 69 16 3e c3 7b 0a be 14 00 4b bd
       0.27706164 0.14688832 -0.13523774 -0.04956062
000230 96 ed ae 3d 53 80 a7 3e 43 c1 43 3f 6f 86 47 bf
       0.0854141 0.3271509 0.7646677 -0.77939504
000240 04 e2 5f be 52 f8 58 bf c9 6a 6d bd da 69 d2 be
       -0.21863562 -0.84753907 -0.057963166 -0.41096383
000250 1b 9f 82 39 ad 9a da bd 53 83 84 be 59 08 30 bd
       0.00024914075 -0.10674033 -0.25881442 -0.04297671
000260 ae 77 63 3f d2 e6 1f bf 59 01 40 be 83 fa 01 bd
       0.8885449 -0.6246158 -0.18750514 -0.031733047
000270 ec 23 a6 3e 19 2c 0a 3e c4 aa 27 3e 98 a6 23 be
       0.3244928 0.13493384 0.16373736 -0.15981519
000280 8b ce 16 3f 9c 24 d6 3d 9f be 24 3f 19 84 b3 bc
       0.5890891 0.104562014 0.64353365 -0.021913575
000290 84 30 59 3d 7e 3f e7 3a 97 ae 01 3f 9f fa 03 be
       0.053024784 0.0017642824 0.5065703 -0.12888573
0002a0 70 8c d7 3e 60 6b d4 3e f8 d2 d4 bd be c3 a4 bd
       0.42099333 0.4148817 -0.103918016 -0.08045147
0002b0 70 23 a3 3e ed b3 e9 be eb 8f d4 3d f0 34 12 3d
       0.31862974 -0.45645085 0.10379013 0.035695016
0002c0 9c af 49 3d 4f 2a 2b 3e 54 5c a7 be 17 90 b3 3e
       0.04923974 0.16715358 -0.32687628 0.3507087
0002d0 d2 8d 84 3f 13 95 b5 3e f7 2f ea be 70 cc 8f bd
       1.035578 0.35465297 -0.4573972 -0.07021415
0002e0 ac 04 f4 3e 25 d5 b8 be 42 b5 59 3d e8 ba 79 be
       0.47659814 -0.36100116 0.053151377 -0.24387705
0002f0 62 13 f4 bc 98 09 74 bd 7e 8d 7f bd 4a f0 bd be
       -0.029794399 -0.05957946 -0.062390797 -0.37097389
000300 a5 55 f2 3e d9 29 9e bf d9 d6 da ba ec f5 8c 3d
       0.47330967 -1.2356521 -0.001669611 0.068828434
000310 f0 34 88 3e a5 e2 d0 3b f6 1c 48 3e 36 63 ca 3b
       0.26602888 0.0063746744 0.19542298 0.0061763776
000320 e2 bc 72 3e 51 2e 10 3f 94 c3 37 bf 3e 51 63 3f
       0.23704866 0.56320673 -0.71782804 0.8879584
000330 eb 77 3b be 73 1b 39 bf 48 69 0a 3e 3a 2d ea be
       -0.18307464 -0.7230751 0.13516724 -0.4573763
000340 79 aa bd 3e 34 40 12 bf 09 07 ae be 77 f1 35 bd
       0.37044123 -0.57129216 -0.33989742 -0.044419732
000350 46 0e f9 bd 99 4b 82 bb 5e 04 7a 39 13 38 e4 be
       -0.121609256 -0.003976297 0.00023843485 -0.4457403
000360 c9 05 2e 3c 1f 2f 3e bf 60 9e 5b 3f f6 b5 00 3f
       0.0106214965 -0.7429065 0.85788536 0.5027765
000370 87 4f e6 3d e1 ee ad be 1a 24 2b be 4d ea 14 be
       0.112456374 -0.33971313 -0.1671299 -0.14542504
000380 1a 4e 44 be bb ce 95 be 57 60 fc be 25 51 01 bf
       -0.19170418 -0.29259285 -0.4929225 -0.5051444
000390 62 6f 97 3e 88 86 0d bf 6a 7c 8a bc e6 a5 18 bf
       0.29577166 -0.55283403 -0.016905028 -0.5962814
0003a0 83 eb ce 3e 6c 7b 5a be 0c 96 de 3c dc 07 32 3e
       0.40414056 -0.21336144 0.027171157 0.1738581
0003b0 9c 48 2a 3d 3c 7f ee be 2f 78 13 3f b9 0d 4c 3f
       0.041573152 -0.46581447 0.5760526 0.7970844
0003c0 2a fc 74 3f 5f 64 83 be 1a e8 ea 3d f0 3d 9f 3c
       0.9569727 -0.25662515 0.11470051 0.019438714
0003d0 d5 96 d8 bd 52 eb 58 3f a0 0d 3a 3e 45 e6 e5 3e
       -0.10575644 0.8473407 0.1816926 0.44902244
0003e0 53 96 56 bf da e2 8b be 02 3a 10 be 82 27 27 bd
       -0.83823127 -0.27321512 -0.14084628 -0.040809162
0003f0 a3 7e 7a 3f f6 57 93 bf c1 46 ce be 93 c4 37 3f
       0.9784948 -1.1511219 -0.40288356 0.71784323

gru_1.weight_hh f4 [30, 10]
000000 81 05 20 bf a9 47 f9 bd f2 cd 5f 3c e2 50 47 be
       -0.625084 -0.12171871 0.013659941 -0.19464448
000010 04 1d ef be 07 37 87 3e 17 4f ee 3d 4b 23 46 3e
       -0.46701825 0.2640917 0.11636179 0.193494
000020 bd 53 8e be aa 5d 6f 3b b9 c0 ed bd 7b e3 4c be
       -0.27798262 0.0036524334 -0.116090246 -0.20008652
000030 9a 2f 27 3f 67 f6 0f 3d 09 74 c7 be 54 38 c4 be
       0.6530701 0.035147097 -0.38955715 -0.38324225
000040 0b c0 31 bd 59 ac 1e 3e 6f 6b 5d 3e 7f 0c 94 be
       -0.043396037 0.15495433 0.21623014 -0.28915784
000050 65 17 ac be 1b 05 9e 3e be e6 13 bf e2 22 bb 3d
       -0.336116 0.3086327 -0.5777396 0.09137513
000060 b6 9f 81 3d 7a c8 02 3d a6 74 b6 3b 3a 0a 26 3e
       0.063292906 0.03192947 0.005568105 0.16214839
000070 4a c8 a5 be dc 7c b4 bd 3f be c2 3d 3a ae 95 3d
       -0.3237937 -0.088128775 0.09508943 0.07308622
000080 ad c5 c4 ba 34 c5 11 3d 38 7d cc bd 8b d0 c4 3d
       -0.0015012525 0.03558846 -0.09984821 0.09610089
000090 bc bf 6d bd 3d c5 9e bc 51 20 1f be cf da 19 3d
       -0.05804418 -0.01938116 -0.15539671 0.037562188
0000a0 8c c4 99 be c9 07 b3 bd 03 6f 51 bd 9d c5 29 be
       -0.30032766 -0.08741719 -0.05113126 -0.1657929
0000b0 f1 67 0b 3e b3 e4 03 bf 8e 51 83 bd e0 7a e1 3d
       0.13613869 -0.5152084 -0.0641204 0.11009765
0000c0 80 8a 1a be 89 af 2c 3d a3 bd c4 3d ea fa 7e be
       -0.15091896 0.04215959 0.09606483 -0.24900404
0000d0 e3 12 ab bd 79 85 75 3e ab ec a5 3b 12 96 a9 3e
       -0.08353212 0.23976697 0.0050636134 0.33122307
0000e0 47 11 e8 bd 8a aa 2d bd 93 70 a2 bc 00 ef 5c 3d
       -0.113314204 -0.042398967 -0.01982907 0.053938866
0000f0 59 49 dc 3e af e4 11 be f8 f1 56 3e ac e9 22 3e
       0.4302471 -0.14247392 0.20990741 0.15909451
000100 33 75 8e 3e 14 68 7e 3e 37 5f e0 bd ec f8 8b 3d
       0.2782379 0.2484439 -0.10955661 0.068345875
000110 17 90 22 3e 1a c5 aa bd 0c 78 ec 3e f8 3f b5 3c
       0.15875278 -0.083383754 0.46185338 0.02212523
000120 32 06 fe 3c eb 81 8d 3e 8c e9 25 3e d0 58 b1 bc
       0.031008814 0.27638182 0.16202372 -0.021648794
000130 d8 32 1e be 9f 38 7d 3b ae 3d ae be cd 2f 0e 3e
       -0.15449083 0.0038638485 -0.34031433 0.13885422
000140 1e 1b 18 3e ba 4f 13 bc 46 14 e6 3e 66 99 9a 3d
       0.14854094 -0.008991176 0.44937342 0.0754879
000150 50 5c 81 bb 5f 9b 6e 3e f7 eb 55 3e b4 94 20 bd
       -0.003947772 0.23301457 0.20890795 -0.039204314
000160 b6 a3 c8 be 8b 22 1e 3e 88 d9 4e 3d dc 71 a1 3d
       -0.39187402 0.15442865 0.050500423 0.07883045
000170 4f b8 28 be 93 c3 33 be b1 5d da bd 82 0b 40 3d
       -0.16476558 -0.17555074 -0.106624015 0.046885975
000180 5b 30 e1 3c f3 ac 62 3e 79 12 cb be 7c 2a 44 bc
       0.027488878 0.22136287 -0.3966253 -0.01197302
000190 19 e9 04 bf a5 41 dd 3d 0b e7 57 3e 6b c6 ba be
       -0.5191818 0.10803536 0.2108423 -0.36479506
0001a0 dc b7 2b be 94 ed 0d bf ef a3 08 3f 51 49 85 be
       -0.16769356 -0.5544064 0.5337514 -0.26032498
0001b0 8d ed ce 3e 57 a9 3d bf 3d dc 62 be bb fb e4 be
       0.40415612 -0.7408652 -0.22154327 -0.44723305
0001c0 91 aa 40 bf 21 f0 46 be d6 8d 91 3e bb fd 63 3f
       -0.75260264 -0.1942754 0.28428525 0.89059037
0001d0 1f 32 90 be 5a 3e 6a 3e 44 3b d0 be f6 c8 2c 3e
       -0.2816324 0.22875348 -0.40670216 0.16873536
0001e0 95 d0 14 be 96 f0 da 3d 22 82 96 3f 51 9b f7 3e
       -0.14532693 0.106904194 1.1758463 0.48360685
0001f0 ff 97 dd be 47 d7 c6 3c 31 69 81 ba f5 b9 3b be
       -0.43280026 0.024272574 -0.0009873268 -0.18332656
000200 ce d8 76 3e 5b c3 04 bf 21 f2 12 bf 2a 7e 1f bf
       0.24106142 -0.5186059 -0.5740071 -0.62301886
000210 ac 82 c9 3c f5 a3 e6 3e ed 83 af bd 4c c1 05 bf
       0.024598442 0.45046964 -0.08570085 -0.5224807
000220 95 6f 4f bd 6c 4e 98 3d d8 ff 75 3e b2 24 a6 be
       -0.050643522 0.07436833 0.24023378 -0.3244987
000230 a2 53 42 3e 72 88 7b 3e db 10 97 3d 2b 21 66 3e
       0.18977216 0.24563769 0.07376262 0.2247359
000240 02 aa ba 3e 83 74 09 3f 7e ef 66 bc d5 db c8 be
       0.3645783 0.5369341 -0.014095185 -0.3923022
000250 d8 41 9c 3e 1a 23 ac be 18 b6 bf be 68 57 41 3e
       0.30518985 -0.3362053 -0.37443614 0.18880999
000260 38 98 e1 3e df 5b 37 3d a9 3f df be e9 d3 f0 3e
       0.44061446 0.04476535 -0.43603256 0.47036675
000270 d1 d5 1b 39 8d c4 ca be 8e 18 57 be 25 09 f8 3c
       0.00014861605 -0.3960308 -0.2100546 0.030277798
000280 40 0a 11 3d 43 62 fa be f8 54 8c 3d 18 65 85 3d
       0.035410166 -0.48903093 0.06852144 0.06513423
000290 56 59 7a 3e 6c e3 c9 be a5 53 1e bf 7a 01 f4 3e
       0.24448141 -0.39431322 -0.6184638 0.47657377
0002a0 09 ef a8 be 4c 38 8e 3e 3e 1b 85 3e fd 3d 3d 3e
       -0.3299487 0.27777326 0.25997347 0.18480678
0002b0 13 28 43 be 8e 45 cf be df 19 e4 be 97 78 8e be
       -0.19058256 -0.40482754 -0.44550988 -0.27826378
0002c0 bc f7 0e 3f 4a 62 71 bc 28 3c 06 be e5 3c de 3e
       0.5584676 -0.014732907 -0.13108885 0.43405834
0002d0 59 18 c9 bc 0b 96 30 bd 2f 02 64 3e 3d dc b3 bd
       -0.024547743 -0.043111842 0.22266458 -0.087822415
0002e0 a1 81 cc be ca 31 d0 3d 63 2a 26 bd b4 48 85 3d
       -0.3994265 0.101657465 -0.040567767 0.06508008
0002f0 d5 1a 9a 3e 87 35 43 3e 67 b0 4e 3e b8 f4 5e 3e
       0.30098596 0.19063388 0.2018448 0.2177304
000300 27 a5 ad be a7 20 26 be 3d af 21 b9 30 32 85 3e
       -0.33915064 -0.16223393 -0.00015419438 0.26014853
000310 00 10 a7 bd cb df 9a be 3e 2e 67 3e 5c d8 62 be
       -0.08157349 -0.30248865 0.22576234 -0.22152847
000320 51 b4 6d 3e 42 1c 5f bd 85 47 83 be 34 7e 2f 3e
       0.23213317 -0.054470308 -0.25640503 0.17137986
000330 6c 68 5f 3e f0 f9 1d 3f 24 81 28 3e 18 43 9b be
       0.21817178 0.617095 0.16455513 -0.30324626
000340 7c 67 87 bc 88 a3 4b be 21 bf 2c bc 08 28 d4 3e
       -0.016528837 -0.19886601 -0.010543616 0.4143679
000350 96 34 98 bd c3 34 c4 3c 6d 36 8e 3e a7 d7 4f 3e
       -0.07431905 0.02395094 0.277759 0.20297109
000360 f4 61 fa 3d a8 33 df bd fc 95 86 3d df 02 cd 3d
       0.12225714 -0.108985245 0.06571576 0.10010313
000370 f9 18 b8 bc 16 10 b9 3d 81 77 0b 3e 29 9f a7 3e
       -0.022472845 0.09036271 0.13619806 0.32738617
000380 d5 7f 55 be 8d 92 bb be 5f b6 05 3e 54 50 f8 3e
       -0.20849545 -0.36635247 0.1305785 0.48498785
000390 7d cf 8c 3e ff 83 63 3e 47 2c af 3d 87 56 95 3d
       0.2750205 0.22218321 0.08553367 0.072918944
0003a0 6e 60 7d 3d 8a a0 15 3e 64 38 a1 3d d2 f4 83 bc
       0.06185954 0.14612022 0.07872084 -0.01610795
0003b0 7f aa 69 be 04 67 1b be 78 d2 09 bf 04 dc ae be
       -0.22818945 -0.15176016 -0.53836775 -0.34152234
0003c0 10 ba b7 bd 8e 15 49 3e 4e 27 ae bc 1e 6c 59 be
       -0.089710355 0.19637129 -0.021258976 -0.2123265
0003d0 14 0a 32 3f 69 f7 43 3e 34 26 0b be 94 9d 2e be
       0.6954663 0.19137348 -0.13588792 -0.17052299
0003e0 d5 bf a3 bd 98 e7 6d be de e9 b6 3e 3c 15 b9 3d
       -0.079955734 -0.23232877 0.35725302 0.09037253
0003f0 f2 4b e6 bd 89 ec 97 3e 37 31 92 3d e2 35 48 3e
       -0.11244954 0.2967265 0.07138293 0.19551805

gru_1.bias_ih f4 [30]
000000 71 44 69 be 4b ae d3 3c 4c db e5 bb f2 04 13 3e
       -0.22780015 0.025839945 -0.0070146676 0.14357355
000010 d1 78 a1 bd 7d 96 fa ba 43 e8 c6 be b9 8b 1d be
       -0.07884372 -0.0019118335 -0.38849077 -0.15385331
000020 4a 29 65 bd c0 08 6c 3e 36 b8 a5 be de c5 83 be
       -0.05594758 0.23050213 -0.32367104 -0.25736898
000030 2b a0 06 bd e4 d1 9f be b2 7e c2 be ae 47 af be
       -0.03286759 -0.3121482 -0.37987286 -0.34234375
000040 f4 87 87 be ac 11 aa bd f2 26 72 3e 5b d9 1f bd
       -0.26470912 -0.08304152 0.23647669 -0.039025646
000050 a4 76 2d bd 86 27 ab 3c 0f d3 aa 3d 09 58 47 be
       -0.042349473 0.02089287 0.083410375 -0.19467176
000060 15 9c d1 bd ee 35 03 3d fd c6 ab 3e 2c be 05 be
       -0.102348484 0.032033853 0.33550254 -0.13060826
000070 8c ad 8b be 27 82 64 bb
       -0.27280843 -0.0034867616

gru_1.bias_hh f4 [30]
000000 1b 17 9b bd 7a d2 94 3d 67 15 49 be 13 5f e0 bd
       -0.075727664 0.07266708 -0.1963707 -0.10955634
000010 5c 38 c3 bd fd bd 52 3e 23 c9 5b be 50 0b 41 3d
       -0.09532234 0.20580287 -0.21463446 0.04712993
000020 34 3c 19 bc 1a e0 e3 3d 05 74 14 bf 0a 59 f1 be
       -0.009352732 0.11126728 -0.5798953 -0.47138244
000030 1c 6b 8f be b3 2e 14 be f3 6b fa bd bf 37 1f bf
       -0.28011405 -0.1447094 -0.12227621 -0.62194437
000040 58 f1 a6 be 21 77 9d be 68 cf d1 bd c3 d4 bd be
       -0.32606006 -0.3075495 -0.10244638 -0.37076387
000050 1b b0 99 bd 44 c5 0f 3f ec 06 3c bf ae 5f 8d 3e
       -0.075042926 0.5616038 -0.7344806 0.2761206
000060 59 f5 23 be c8 9a 96 bb 06 9b f0 be d3 ea d4 be
       -0.16011561 -0.004596088 -0.46993273 -0.41585407
000070 f5 55 24 be 8a 15 f8 be
       -0.16048415 -0.48453933

out_net.weight f4 [9, 10]
000000 ad 7c 3a c0 91 98 a6 40 d0 6b c2 bf 28 67 35 bf
       -2.9138596 5.206124 -1.5189152 -0.7086053
000010 fa 2a 11 40 5e fc 39 c0 f3 47 90 40 5e a7 ca 3f
       2.268248 -2.9060283 4.508783 1.5832326
000020 f9 9a 17 3e df 0e 28 c0 bd d0 55 40 cd b7 da bf
       0.14805211 -2.6259077 3.3408654 -1.7087342
000030 c5 2a b8 c0 ba 66 4d bf d3 40 85 c0 b6 38 4d c0
       -5.755221 -0.80234873 -4.164163 -3.2065864
000040 c3 78 3f c0 d7 9b ed 3f 27 4d f2 3f 0f 3d 29 c0
       -2.9917457 1.8563184 1.8929795 -2.6443517
000050 c2 a3 5a c0 b7 b0 0d c0 96 50 28 40 96 a4 5c bf
       -3.416245 -2.2139108 2.6299186 -0.8618864
000060 06 99 5b c0 e8 99 10 c0 b7 25 18 bf b9 91 4d 40
       -3.4312148 -2.2593937 -0.5943255 3.2120192
000070 97 7c 2c c0 4a b3 98 40 77 40 bd 3f 47 20 24 c0
       -2.6951044 4.771886 1.4785298 -2.56447
000080 75 07 0b 40 d9 83 2b c0 b0 7f 50 c0 68 c6 6b 40
       2.1723301 -2.6799223 -3.2577934 3.6839848
000090 a9 70 76 40 ea 26 73 c0 92 2c 0d 40 24 da d7 bf
       3.8506262 -3.7992501 2.2058454 -1.6863446
0000a0 f7 0a 87 3f a4 6e 8a 40 68 8b 4c 3f 6d af bb 40
       1.0550221 4.326006 0.7990022 5.8651643
0000b0 f6 e0 47 c0 c9 ee 2b 40 ad fc 0b c0 63 52 10 c0
       -3.1231055 2.6864493 -2.187297 -2.2550285
0000c0 03 44 2a c0 39 c1 04 3f 62 c3 4f c0 6f 93 55 c0
       -2.660401 0.51857334 -3.2463002 -3.3371236
0000d0 4f 39 ec 3f 33 59 28 40 23 b4 14 40 b6 3a 61 c0
       1.8454989 2.6304443 2.3234947 -3.5192084
0000e0 64 64 35 c0 1a 9f 81 c0 6c 1e 27 40 f8 48 22 c0
       -2.8342524 -4.0506716 2.6112318 -2.5357037
0000f0 2d 3c 26 40 2e eb 20 c0 60 eb 88 3f e2 a8 5a 3f
       2.5974228 -2.5143542 1.0696831 0.85413945
000100 72 f7 90 40 d0 9b 52 40 f0 34 ad bf fb 8c 9c 40
       4.5302057 3.29076 -1.353178 4.8922095
000110 aa 56 a9 bf 8b 86 d3 bf 06 6a aa 40 a0 75 74 40
       -1.3229573 -1.6525434 5.3254423 3.8196793
000120 4f a0 5c 40 25 4d 60 c0 63 5d e6 3f b2 4c 48 c0
       3.4472845 -3.5047085 1.7997249 -3.129681
000130 b3 98 1f c0 b7 ab 08 c0 2f c9 48 3f 9c 6a 04 40
       -2.493695 -2.1354806 0.7843198 2.069007
000140 08 85 2a c0 e2 fa 2e 3f a7 46 b5 c0 21 65 42 c0
       -2.6643696 0.68351567 -5.6648746 -3.0374224
000150 d6 dc 1d 40 05 1c 42 40 08 af 23 c0 ed 2d 23 c0
       2.4666038 3.0329602 -2.557558 -2.549678
000160 91 3d 8a 3f 71 9c 65 40
       1.0800039 3.5876734

out_net.bias f4 [9]
000000 ae 44 7a 3f e6 9a b4 3e 7f 09 46 bf 79 04 f9 3d
       0.97761047 0.35274428 -0.7735824 0.12159056
000010 e0 94 2b 3f 5d e1 4b be 23 98 25 be b3 fa 69 bf
       0.6702404 -0.19910188 -0.16171317 -0.9139816
000020 6c a2 22 3f
       0.63529086
