test07_gnn/7_gnn.pth (torch_old, 56374 bytes, 14 tensors)

input_net.weight f4 [10, 9]
0.24472645 -0.35999164 0.2938419 0.15762654 0.5967414 -0.20451395 -0.08747322 -0.09968819
0.41323048 -0.5537578 0.23502108 0.31801608 -0.7534389 0.33129075 -0.36019132 0.09856678
0.089598596 0.4998874 0.6086852 0.362256 -0.6885515 -0.49051332 0.45752403 -0.24112268
-0.55329674 -0.054176424 0.44814155 0.2824099 -0.14197177 0.36289498 0.15692145 -0.50911444
-0.17932369 0.09440236 0.7284694 -0.43700725 0.040000875 -0.5981803 0.3491222 0.14405066
0.49522436 -0.006205864 0.30612206 -0.36943412 0.122679636 0.15057327 0.2451489 -0.034080684
0.9142075 0.15143816 -0.27185014 -0.42537 -0.39592004 0.15233907 -0.550136 0.8941022
0.18825838 0.31335142 0.54221356 0.7426525 -0.15206625 -0.4764163 -0.42287236 0.41517064
-0.2390413 -0.7077813 0.38620532 -0.14410873 -0.8227839 0.6620126 0.75949866 -0.14541261
0.31049296 -0.68676883 -0.5987752 0.11133042 0.6977014 0.24234831 0.23488738 -0.15765905
-0.19594161 -0.78397924 -0.54375905 -0.055360764 0.33678764 0.31769645 0.18715213 -0.5875122
0.31586906 -0.5904538
00000000: 9299 7a3e d350 b8be 7272 963e da68 213e
00000010: 0bc4 183f 1b6c 51be 2925 b3bd 5229 ccbd
00000020: f292 d33e 12c3 0dbf 5ea9 703e 01d3 a23e
00000030: 5fe1 40bf f19e a93e ff6a b8be 61dd c93d
00000040: 787f b73d 3ef1 ff3e cbd2 1b3f 9e79 b93e
00000050: e944 30bf 9024 fbbe 9740 ea3e dde8 76be
00000060: dba4 0dbf 19e8 5dbd cf72 e53e 0898 903e
00000070: 0c61 11be 5fcd b93e 04b0 203e 5355 02bf
00000080: a1a0 37be 0656 c13d f87c 3a3f 6abf dfbe
00000090: f5d7 233d 5822 19bf 25c0 b23e 0482 133e
000000a0: 0c8e fd3e 8f5a cbbb 08bc 9c3e 7826 bdbe
000000b0: 763f fb3d e12f 1a3e 5008 7b3e 3098 0bbd
000000c0: 8109 6a3f 9b12 1b3e f12f 8bbe 19ca d9be
000000d0: 08b6 cabe c6fe 1b3e b7d5 0cbf e2e3 643f
000000e0: cec6 403e 996f a03e 82ce 0a3f 791e 3e3f
000000f0: 41b7 1bbe d6ec f3be ba82 d8be 3f91 d43e
00000100: 3ec7 74be 2831 35bf b4bc c53e 3d91 13be
00000110: f7a1 52bf a879 293f 816e 423f 0be7 14be
00000120: eff8 9e3e 15d0 2fbf 5549 19bf 3401 e43d
00000130: 8f9c 323f 282a 783e 5186 703e 6071 21be
00000140: eba4 48be ddb2 48bf cb33 0bbf f8c1 62bd
00000150: 6e6f ac3e 1ca9 a23e cfa4 3f3e 3367 16bf
00000160: 97b9 a13e fb27 17bf

input_net.bias f4 [10]
0.25831246 0.268479 -0.20455271 0.09064463 -0.07292109 -0.15265869 -0.08646632 -0.053831074
0.18614568 -0.17616065
00000000: 8841 843e 1476 893e 4476 51be e4a3 b93d
00000010: a757 95bd 8f52 1cbe 4115 b1bd f97d 5cbd
00000020: f99c 3e3e 7563 34be

msg_net.0.weight f4 [96, 20]
-0.21289869 -0.13727906 0.23037182 -0.0425597 -0.07623109 0.036090415 -0.0054705674 -0.0050344127
0.2779355 0.13911854 0.2004017 0.28009313 0.044598687 -0.32594106 0.027837833 -0.045394048
-0.15026851 -0.1260956 -0.15894303 -0.2393205 0.11275507 0.10500765 0.0075321654 0.12610854
0.0863816 0.117706716 -0.12518558 0.15791538 0.007906906 0.3148155 0.057110973 0.052890554
-0.20228538 -0.07261441 0.31155258 -0.13670103 0.016166974 -0.15497172 0.08347798 0.17512229
0.12148961 0.10783842 0.15981878 -0.28764224 -0.19322784 -0.31073985 -0.079802185 0.24445379
-0.29077148 0.07487141 0.028610975 0.2574548 -0.043067016 0.19503713 0.15789804 0.17910016
0.039763063 -0.189962 -0.118082486 0.31570002 0.095967084 0.100727476 -0.0971304 -0.25987995
0.0034877746 -0.03739116 0.48341468 0.023806337 -0.13995062 0.33949187 -0.10887025 -0.026905186
0.08567708 -0.12724474 0.2906725 -0.18346271 -0.008363866 0.027293118 -0.1827305 -0.045924813
-0.114724144 -0.16994077 -0.15060087 -0.034642287 -0.21348493 0.22314224 0.22882785 -0.19760938
0.34964755 0.045641635 -0.12208761 0.16755597 -0.097784325 -0.14498344 -0.19410546 0.23676586
0.07526801 0.050629392 -0.08072413 -0.018734794 -0.0150701655 -0.04002796 0.005703533 0.13697271
-0.27496156 -0.20591278 -0.23905583 0.09317131 0.13613473 0.0077582737 -0.051483005 -0.19469842
-0.15611115 0.28772083 0.09736694 0.060567148 -0.11529132 0.29890102 -0.027462633 0.08902279
0.22013807 0.15919566 -0.32733065 0.12678269 0.25140753 -0.32994875 -0.055963837 -0.17386056
-0.07979308 -0.24256411 0.12016536 -0.10989519 0.09447774 -0.044357948 -0.08962253 -0.065999016
-0.12406816 0.04091458 0.11141572 0.048024897 0.1836282 0.05630139 0.08682962 -0.15950008
-0.10559947 0.1325341 0.08069147 -0.28726715 -0.13309854 -0.02515515 -0.11493779 0.07471003
-0.012977361 0.03552573 0.016563388 -0.11696854 0.15977572 -0.31207275 0.23815005 -0.2107719
0.010943157 -0.07902817 0.3294277 -0.34557652 -0.3388944 0.113983884 0.20083426 -0.30677444
-0.07594811 0.083153605 0.09638009 -0.22501053 -0.17393516 -0.12128752 -0.18929423 -0.10005662
0.15998049 0.045765955 0.09232402 -0.12049469 -0.12822387 -0.053062674 -0.15100014 0.036278617
0.14962544 0.14877662 -0.09548178 -0.20042595 -0.31763506 -0.12141058 0.20343284 0.06283492
-0.071262054 -0.2348855 -0.055060383 -0.011207291 -0.083143674 0.03150493 0.19382831 0.21267667
-0.123538435 -0.07567373 -0.22037603 0.066113636 0.07783938 0.04351934 0.2322751 0.10148675
0.20324717 -0.2529045 0.12032242 0.16939898 -0.19619824 -0.023004647 0.13028751 0.029434275
-0.0775067 -0.06326062 0.019542504 -0.29702464 0.09100166 -0.014176816 -0.25453714 -0.19199584
0.049311932 0.069496036 -0.20434748 -0.24282509 0.21246737 -0.03754931 -0.06617763 0.08444314
0.11649205 -0.23885114 0.096001014 -0.28863484 0.43004304 0.20415787 -0.27377436 0.061450623
0.007666666 -0.039938852 0.12085758 -0.1515922 0.31885526 -0.2152518 0.22219588 0.27786964
0.07828378 -0.046106827 -0.048846338 0.10832796 -0.049154248 -0.33490214 -0.17929068 -0.026016487
00000000: 1d02 5abe e292 0cbe 97e6 6b3e 1453 2ebd
00000010: 0c1f 9cbd 8bd3 133d 7242 b3bb b7f7 a4bb
00000020: 904d 8e3e 1775 0e3e 1a36 4d3e 5e68 8f3e
00000030: 1dad 363d bfe1 a6be 2b0c e43c 1cef 39bd
00000040: fddf 19be 341f 01be f6c1 22be 6f10 75be
00000050: 21ec e63d 400e d73d 62d0 f63b 9922 013e
00000060: d6e8 b03d 3810 f13d a630 00be 92b4 213e
00000070: f88b 013c 7f2f a13e 32ed 693d c4a3 583d
00000080: e623 4fbe ddb6 94bd d283 9f3e 5bfb 0bbe
00000090: 9a70 843c e8b0 1ebe 81f6 aa3d 4253 333e
000000a0: 8bcf f83d 64da dc3d 89a7 233e d845 93be
000000b0: 85dd 45be 4b19 9fbe 546f a3bd 1852 7a3e
000000c0: 00e0 94be 2f56 993d 9061 ea3c 1ed1 833e
000000d0: 0a67 30bd d0b7 473e 06b0 213e 0866 373e
000000e0: 98de 223d 6685 42be 3bd5 f1bd 6fa3 a13e
000000f0: 648a c43d 354a ce3d 4eec c6bd fc0e 85be
00000100: 2693 643b 7927 19bd 2182 f73e 8205 c33c
00000110: 374f 0fbe e1d1 ad3e 5ef7 debd 4468 dcbc
00000120: 7777 af3d 724c 02be 07d3 943e a6dd 3bbe
00000130: 9908 09bc d195 df3c b41d 3bbe a81b 3cbd
00000140: 7ef4 eabd f404 2ebe 1d37 1abe 12e5 0dbd
00000150: cb9b 5abe 667f 643e d951 6a3e 1d5a 4abe
00000160: 0105 b33e b9f2 3a3d 1209 fabd cb93 2b3e
00000170: 2643 c8bd 8a76 14be 95c3 46be c072 723e
00000180: 1d26 9a3d c460 4f3d b152 a5bd b679 99bc
00000190: dbe8 76bc 5cf4 23bd b4e4 ba3b 9342 0c3e
000001a0: c3c7 8cbe cdda 52be 0dcb 74be 9ad0 be3d
000001b0: e766 0b3e 1e39 fe3b d8df 52bd 065f 47be
000001c0: 9adb 1fbe 2550 933e 5168 c73d 4215 783d
000001d0: db1d ecbd 8e09 993e 51f9 e0bc 9551 b63d
000001e0: e06b 613e 3004 233e e297 a7be 52d3 013e
000001f0: 7db8 803e 0bef a8be 563a 65bd 8108 32be
00000200: 8e6a a3bd ba62 78be 4219 f63d bb10 e1bd
00000210: 8c7d c13d aeb0 35bd 048c b7bd 7e2a 87bd
00000220: 7317 febd 0c96 273d ed2d e43d c1b5 443d
00000230: 0809 3c3e 499c 663d bad3 b13d fd53 23be
00000240: 8944 d8bd 05b7 073e 9241 a53d ae14 93be
00000250: fc4a 08be 2c12 cebc 8164 ebbd 9201 993d
00000260: ff9e 54bc 6e83 113d f1af 873c 348d efbd
00000270: 3f9c 233e 00c8 9fbe 9bdd 733e 97d4 57be
00000280: ed4a 333c 85d9 a1bd bfaa a83e 68ef b0be
00000290: 9183 adbe 6270 e93d 7fa7 4d3e 8a11 9dbe
000002a0: af8a 9bbd 704c aa3d ed62 c53d 2969 66be
000002b0: 0f1c 32be 9765 f8bd 59d6 41be 7cea ccbd
000002c0: edd1 233e 1575 3b3d 6014 bd3d ecc5 f6bd
000002d0: 1e4d 03be 3f58 59bd c89f 1abe e398 143d
000002e0: 6937 193e e658 183e f48b c3bd 763c 4dbe
000002f0: 10a1 a2be 1ca6 f8bd b350 503e 98af 803d
00000300: d7f1 91bd d385 70be ff86 61bd c99e 37bc
00000310: 3b47 aabd 500b 013d ee7a 463e eac7 593e
00000320: b801 fdbd d4fa 9abd 41aa 61be 9666 873d
00000330: 416a 9f3d 5641 323d 86d9 6d3e 49d8 cf3d
00000340: 0720 503e b37c 81be 9a6b f63d ed76 2d3e
00000350: 31e8 48be 3e74 bcbc 176a 053e 2620 f13c
00000360: d5bb 9ebd c98e 81bd 9a17 a03c 9d13 98be
00000370: 145f ba3d e045 68bc b152 82be 8f9a 44be
00000380: 4ffb 493d f053 8e3d 7740 51be 24a7 78be
00000390: 0c91 593e 4ecd 19bd 2388 87bd 86f0 ac3d
000003a0: 6293 ee3d 6595 74be 2e9c c43d f2c7 93be
000003b0: 9a2e dc3e c30e 513e 272c 8cbe a6b3 7b3d
000003c0: a838 fb3b ec96 23bd 2e84 f73d fc3a 1bbe
000003d0: ff40 a33e f86a 5cbe 5187 633e ee44 8e3e
000003e0: 3f53 a03d 83da 3cbd 1913 48bd 0ddb dd3d
000003f0: f755 49bd 4b78 abbe fa97 37be 8720 d5bc

msg_net.0.bias f4 [96]
0.07956431 0.03064826 0.07088658 -0.024591578 0.15423706 0.07262719 -0.1936071 -0.07768869
-0.18356453 0.07457964 -0.12687185 -0.17949669 0.09837041 -0.06583042 -0.030858703 0.06538869
0.17082831 -0.026626935 0.1388274 0.18984601 -0.19614585 -0.21425429 -0.0039658 -0.025757818
-0.059095964 0.16934969 0.16896805 -0.06752787 0.21057072 -0.061837014 -0.08259714 0.20311913
-0.21656385 0.067281604 0.025858238 -0.039574042 0.20738655 0.21272273 0.1845835 0.19028583
0.085222185 0.09586367 -0.060897566 0.09256441 0.09737747 0.14188427 -0.15955198 0.10804298
-0.0900403 0.06839903 0.106672175 0.14742866 0.1474527 -0.15310188 -0.24603233 -0.02408053
-0.12878326 -0.040390413 0.033022244 0.06457305 0.033751443 0.011931829 0.18219867 -0.14533702
-0.1826055 -0.051398456 -0.13750789 0.16962537 -0.12636209 0.07393452 -0.027013779 -0.047931544
0.093468465 0.13684721 -0.054924283 -0.053555954 -0.11700051 -0.031282295 -0.079028375 0.027249567
0.16286898 -0.11899409 0.16210653 -0.13578998 -0.1866309 -0.14807506 -0.027876826 -0.11860031
-0.06855548 0.057504088 0.18057011 -0.07275886 0.17304155 -0.000115384115 0.042499237 0.111979686
00000000: 9df2 a23d 0f12 fb3c fc2c 913d 4774 c9bc
00000010: 52f0 1d3e 90bd 943d f140 46be 3f1b 9fbd
00000020: 57f8 3bbe 36bd 983d b2ea 01be fbcd 37be
00000030: 6d76 c93d 19d2 86bd 64cb fcbc 81ea 853d
00000040: 9eed 2e3e bb20 dabc c528 0e3e fe66 423e
00000050: 75da 48be 7a65 5bbe 8bf3 81bb 0f02 d3bc
00000060: 9c0e 72bd 016a 2d3e f605 2d3e 0d4c 8abd
00000070: da9f 573e cf48 7dbd b028 a9bd 76fe 4f3e
00000080: eac2 5dbe f0ca 893d a8d4 d33c 6418 22bd
00000090: 245d 543e fdd3 593e 7503 3d3e 4ada 423e
000000a0: f888 ae3d 2c54 c43d ba6f 79bd 6992 bd3d
000000b0: d76d c73d 1c4a 113e 9861 23be a345 dd3d
000000c0: 0c67 b8bd ca14 8c3d f176 da3d 8af7 163e
000000d0: d7fd 163e bdc6 1cbe e6ef 7bbe 8844 c5bc
000000e0: c2df 03be 6b70 25bd 5542 073d e03e 843d
000000f0: f43e 0a3d b87d 433c 4a92 3a3e 3ad3 14be
00000100: f0fc 3abe 3087 52bd dece 0cbe 46b2 2d3e
00000110: 1065 01be fb6a 973d 004c ddbc de53 44bd
00000120: 656c bf3d ad21 0c3e 49f8 60bd 7d5d 5bbd
00000130: f79d efbd dd21 00bd a1d9 a1bd 7c3a df3c
00000140: 20c7 263e 2cb3 f3bd 41ff 253e 870c 0bbe
00000150: 2c1c 3fbe fda0 17be f15d e4bc b8e4 f2bd
00000160: d166 8cbd 6889 6b3d 5fe7 383e 9902 95bd
00000170: ce31 313e 60fa f1b8 ae13 2e3d 9b55 e53d

msg_net.2.weight f4 [96, 96]
-0.059799142 0.1323878 0.015829235 -0.15209399 -0.00918357 0.0036669956 -0.021329718 0.04836683
-0.043329418 0.059942584 0.07100776 -0.08536261 -0.10712844 -0.07423388 -0.033810083 -0.044022586
-0.078214794 -0.06295317 -0.00806824 0.009676987 0.037062027 -0.068566024 0.100175485 -0.15859738
-0.008366203 -0.035467185 0.06258428 -0.12810582 -0.020463815 0.056462064 -0.05724918 -0.1686332
-0.039598253 0.107904896 0.0057546278 0.07276984 -0.009831251 -0.0014197405 0.06167612 -0.044710934
0.05235105 -0.052576028 -0.12168255 -0.1428498 -0.058509093 -0.0638072 0.11480951 -0.048084017
-0.11136964 -0.07670048 0.0057665547 -0.106143124 0.026394023 0.03364958 0.1405098 -0.10429896
0.037902918 0.033577304 0.069092244 0.08999442 0.045597747 0.042853292 0.09886879 0.011245016
0.07610857 -0.0492592 -0.015786685 -0.02940488 -0.011316112 0.06978507 0.02546856 0.068413764
0.07643962 0.07254098 0.06656305 -0.06340429 -0.09029377 0.21985352 -0.054464363 0.13142349
-0.010362267 0.05801865 -0.09475499 -0.04420632 -0.12259269 -0.14131202 0.0391392 -0.008838522
0.10471921 -0.011316321 0.0023359733 0.072356455 0.058741923 -0.008164 0.0075985766 0.027600463
-0.043748796 -0.21160556 0.107272156 0.044215932 0.028902143 0.025405262 -0.083028115 0.21183498
-0.09529913 -0.1917883 -0.009886264 -0.10551821 -0.0075388453 -0.07790901 -0.07316424 0.0441265
-0.11908495 -0.09439254 0.1213978 -0.15798639 -0.1369863 -0.000817973 0.06174051 0.054758612
0.07935918 0.035456367 0.037618354 0.048382554 0.03970034 -0.15810128 0.12122226 0.015192086
-0.08547901 -0.13842106 -0.003853456 -0.19891097 0.019076992 0.022750344 -0.024430415 0.042677246
0.0072944844 0.008925316 0.13617727 -0.01614527 -0.03285333 0.025140157 0.08256811 2.8214068e-05
0.11388393 0.07037634 -0.104487255 -0.009299815 0.16309607 0.058137067 0.065278165 -0.038421515
-0.1635382 0.043818627 0.0014559211 -0.17733711 0.05294103 0.10829525 0.042239163 -0.042491402
0.16431345 -0.05910541 -0.109145924 -0.038371272 -0.0040052524 -0.11064882 0.016917547 -0.06418898
0.042138033 0.012092808 0.06435856 -0.027539218 0.20110328 -0.22554007 -0.06393969 0.0035829372
0.009333484 -0.1493742 0.13880996 0.06932887 -0.046319697 0.03573783 -0.12853533 0.18167822
0.08880791 0.104310796 0.06309446 0.0853569 -0.009552477 0.0064176344 -0.046809904 -0.11940833
0.09713398 0.01698819 0.16768098 0.06577123 -0.06096464 0.00816502 0.04943876 -0.040049765
-0.043653835 -0.047281485 -0.013887436 -0.03273273 -0.01856002 0.1652614 -0.0036268176 0.013241775
-0.033187345 0.057571568 0.03919902 -0.033440277 -0.03328392 -0.19186997 -0.08966887 0.04504114
-0.27348834 -0.06635645 0.051744767 -0.02841898 0.06193068 -0.06220772 0.037480693 0.038576998
0.046223752 -0.033809893 -0.13209052 -0.07345648 0.029296538 -0.03228433 0.00075396016 -0.043214217
0.02318188 0.09290153 0.041561764 -0.04493205 -0.093565404 0.06613349 -0.026192006 -0.102986865
0.040237654 -0.052343506 0.014497814 0.1624633 0.05583271 0.16315283 -0.078679465 0.069147915
-0.063040376 0.06808941 -0.038506825 0.10736152 -0.16788596 0.025690049 -0.058979757 0.12061834
00000000: f2ef 74bd ab90 073e 50ac 813c 87be 1bbe
00000010: af76 16bc fa51 703b a9bb aebc 4c1c 463d
00000020: 307a 31bd 5b86 753d 846c 913d 98d2 aebd
00000030: 2866 dbbd ef07 98bd 717c 0abd 0751 34bd
00000040: 142f a0bd 97ed 80bd a730 04bc 3a8c 1e3c
00000050: 5ace 173d 586c 8cbd ce28 cd3d 5a67 22be
00000060: 6612 09bc 0a46 11bd 302c 803d 2c2e 03be
00000070: bba3 a7bc c444 673d 1e7e 6abd 2eae 2cbe
00000080: c731 22bd 3efd dc3d 5191 bc3b 5b08 953d
00000090: 4113 21bc 9616 baba 19a0 7c3d d022 37bd
000000a0: 0e6e 563d f659 57bd b334 f9bd 3847 12be
000000b0: 3ba7 6fbd 59ad 82bd 4021 eb3d bff3 44bd
000000c0: c415 e4bd 2415 9dbd 5ef5 bc3b 9161 d9bd
000000d0: 4738 d83c 24d4 093d cde1 0f3e b19a d5bd
000000e0: 1740 1b3d 5b88 093d 3c80 8d3d ff4e b83d
000000f0: b4c4 3a3d ef86 2f3d b87b ca3d 043d 383c
00000100: cfde 9b3d 04c4 49bd 1453 81bc 81e2 f0bc
00000110: 3767 39bc 7aeb 8e3d 71a3 d03c 841c 8c3d
00000120: 608c 9c3d 5e90 943d 3552 883d 1cda 81bd
00000130: f1eb b8bd 4821 613e 0616 5fbd e193 063e
00000140: 7fc6 29bc f7a4 6d3d e70e c2bd b011 35bd
00000150: e011 fbbd 19b4 10be 6d50 203d 73cf 10bc
00000160: 0677 d63d 1768 39bc 2117 193b 9f2f 943d
00000170: 5f9b 703d 4cc2 05bc 7bfd f83b 5e1a e23c
00000180: f031 33bd 21af 58be 81b1 db3d c41b 353d
00000190: 30c4 ec3c b21e d03c a50a aabd 45eb 583e
000001a0: 312c c3bd 2764 44be fff9 21bc ee19 d8bd
000001b0: 6b08 f7bb c28e 9fbd 22d7 95bd fdbd 343d
000001c0: cfe2 f3bd e050 c1bd 699f f83d 2fc7 21be
000001d0: 2346 0cbe 3d6d 56ba 9ee3 7c3d 914a 603d
000001e0: 1187 a23d b23a 113d b415 1a3d c92c 463d
000001f0: d39c 223d 4de5 21be 6043 f83d 3ae8 783c
00000200: 9f0f afbd 40be 0dbe 438a 7cbb 51af 4bbe
00000210: 5a47 9c3c ee5e ba3c 4b22 c8bc 56ce 2e3d
00000220: 9206 ef3b 7d3b 123c 0e72 0b3e 1643 84bc
00000230: 3791 06bd bbf2 cd3c 7819 a93d 40ad ec37
00000240: fa3b e93d 7821 903d 6afd d5bd 405e 18bc
00000250: a802 273e 2221 6e3d 8fb0 853d e15f 1dbd
00000260: 8f76 27be 297b 333d 9bd4 be3a dc97 35be
00000270: b2d8 583d e6c9 dd3d f902 2d3d 770b 2ebd
00000280: c941 283e 8418 72bd e687 dfbd 322b 1dbd
00000290: 7e3e 83bb d99b e2bd ab96 8a3c 8375 83bd
000002a0: ee98 2c3d ea20 463c 6cce 833d ed99 e1bc
000002b0: 05ee 4d3e faf3 66be d0f2 82bd b6cf 6a3b
000002c0: 78eb 183c 8df5 18be 3324 0e3e 4bfc 8d3d
000002d0: b9b9 3dbd d561 123d c49e 03be db09 3a3e
000002e0: ece0 b53d e6a0 d53d ab37 813d 99cf ae3d
000002f0: fe81 1cbc 054b d23b bebb 3fbd 5b8c f4bd
00000300: 2eee c63d d12a 8b3c 90b4 2b3e 11b3 863d
00000310: 0fb6 79bd 93c6 053c 4c80 4a3d 390b 24bd
00000320: 5dce 32bd 3baa 41bd 2188 63bc c112 06bd
00000330: 2f0b 98bc 493a 293e e7af 6dbb 08f4 583c
00000340: 74ef 07bd 2ad0 6b3d 278f 203d acf8 08bd
00000350: b854 08bd 9079 44be 50a4 b7bd 0f7d 383d
00000360: aa06 8cbe e4e5 87bd 52f2 533d ecce e8bc
00000370: 06ab 7d3d 86cd 7ebd 5b85 193d ea02 1e3d
00000380: 1e55 3d3d 3e7c 0abd bd42 07be 5a70 96bd
00000390: 4bff ef3c 933c 04bd 69a5 453a 6401 31bd
000003a0: ede7 bd3c 2843 be3d ab3c 2a3d ab0a 38bd
000003b0: 389f bfbd ff70 873d 9e90 d6bc c7ea d2bd
000003c0: 3dd0 243d 2566 56bd 3d88 6d3c c85c 263e
000003d0: d7b0 643d 8911 273e b322 a1bd 6c9d 8d3d
000003e0: 501b 81bd 7672 8b3d 55b9 1dbd 5be0 db3d
000003f0: 4cea 2bbe f073 d23c c294 71bd c006 f73d

msg_net.2.bias f4 [96]
-0.041585803 -0.026665373 -0.008567244 -0.09087204 -0.04488615 0.06289598 0.07986125 0.118449636
-0.011824716 0.0646007 0.025450608 0.018176908 0.11985524 0.032654054 0.03968015 0.071044035
-0.22497259 -0.090583175 -0.01114913 -0.030163368 -0.028943127 0.02900407 0.011733167 0.07963662
0.090026096 0.058086306 0.019548066 0.06499367 0.062016312 0.08459727 -0.024318356 0.097429276
0.049817927 -0.011959637 0.023771543 -0.02562314 -0.04023969 0.076186955 -0.052598514 0.037835356
0.07977388 -0.14027338 0.052111983 -0.00022091271 -0.028324846 -0.09891748 -0.098661624 -0.0049339477
0.008389509 0.061033 -0.019722486 -0.0105235325 0.049441162 -0.018319095 -0.08948137 0.08358357
0.057607196 0.031086635 0.0393338 -0.092909165 0.013189912 -0.02130067 0.020097964 -0.057012025
-0.031266306 -0.10076269 -0.034680344 -0.06913904 -0.03150162 0.05261755 0.059395373 0.01378757
-0.024977902 0.06800507 0.011346675 -0.057920724 -0.009088465 -0.13624384 -0.09701106 -0.026041493
0.083124764 0.049058888 0.01703485 0.042057376 -0.026875893 0.06396709 0.06117866 -0.12228379
0.03609234 -0.07251754 -0.021594785 -0.12069481 0.0567086 -0.03922608 0.00010147547 0.005715487
00000000: e055 2abd 5771 dabc a05d 0cbc 1f1b babd
00000010: 8ada 37bd 9ccf 803d 4c8e a33d b995 f23d
00000020: 74bc 41bc 5f4d 843d cb7d d03c bde7 943c
00000030: aa76 f53d 42c0 053d a787 223d 897f 913d
00000040: 375f 66be ac83 b9bd d7aa 36bc 2b19 f7bc
00000050: 231a edbc f299 ed3c 783c 403c 8618 a33d
00000060: 9a5f b83d e8eb 6d3d 4423 a03c 671b 853d
00000070: d104 7e3d 5541 ad3d 4a37 c7bc 0089 c73d
00000080: e20d 4c3d 5af2 43bc 8abc c23c 9fe7 d1bc
00000090: 60d2 24bd e807 9c3d 8a71 57bd 3ff9 1a3d
000000a0: 7d60 a33d d3a3 0fbe 6073 553d cea4 67b9
000000b0: 8209 e8bc 3f95 cabd 1b0f cabd f4ac a1bb
000000c0: 2774 093c bdfd 793d 0d91 a1bc e56a 2cbc
000000d0: d182 4a3d ed11 96bc 0242 b7bd dd2d ab3d
000000e0: 86f5 6b3d 66a9 fe3c 7b1c 213d 2947 bebd
000000f0: 801a 583c be7e aebc 7ca4 a43c 7185 69bd
00000100: 1911 00bd ab5c cebd fa0c 0ebd c598 8dbd
00000110: d807 01bd 8085 573d 9048 733d 43e5 613c
00000120: 759e ccbc 3e46 8b3d 68e7 393c 483e 6dbd
00000130: c9e7 14bc 8183 0bbe bcad c6bd f854 d5bc
00000140: 513d aa3d f9f1 483d ab8c 8b3c 5b44 2c3d
00000150: d52a dcbc 2d01 833d 7996 7a3d ec6f fabd
00000160: 90d5 133d 1384 94bd 8ce7 b0bc d72e f7bd
00000170: 4747 683d 87ab 20bd 3acf d438 fb48 bb3b

msg_net.4.weight f4 [11, 96]
0.0145257935 0.045165867 0.093394585 0.13530126 -0.08180094 -0.059216868 -0.11303809 -0.09885479
0.069996096 0.0067606997 -0.13028698 0.036079515 0.13093075 0.20419079 0.034148544 0.02965336
0.050634585 -0.056264643 -0.05823646 0.08920543 0.08184067 0.1266527 0.036478724 -0.090804085
-0.025884224 -0.109482184 0.057532437 -0.0060751527 -0.09192263 -0.10604124 0.04640593 0.07935283
0.09227903 0.014284231 -0.10284335 -0.09112703 0.010545616 0.031621978 -0.05590017 -0.04571612
0.13059275 -0.006657077 0.053040456 -0.11394679 0.036182016 0.057372693 -0.007547961 0.18051651
-0.0922107 0.5194523 -0.014221705 -0.07433412 0.035416834 0.11246282 -0.040917188 -0.033860493
0.11090321 -0.07456808 -0.1339722 -0.07243967 -0.08465329 0.026686816 -0.17375737 -0.06537117
-0.0680768 0.060560893 -0.0032241484 -0.05793892 -0.07700513 -0.10683808 -0.07141473 0.050988656
0.003762272 -0.10257165 0.03488747 -0.012717779 0.052187875 -0.17612995 -0.17765433 0.12076506
0.12401557 0.09522253 0.08692783 -0.024469309 -0.08958746 0.014256196 -0.020939272 -0.14939062
0.09833468 0.07432004 0.15103039 -0.081862226 -0.13340423 0.09105891 0.072432406 -0.08048969
0.007410455 -0.06871672 -0.05032631 0.096503295 0.025613148 0.03925029 -0.103914626 0.058433663
0.14991002 -0.064510666 0.05014141 0.17069675 -0.14449501 -0.08087399 -0.0017565324 0.0025933718
-0.35255364 0.075853854 0.06023578 -0.122230865 -0.12501343 -0.1077495 -0.121313594 -0.0069773127
0.034335393 0.17997903 0.009979811 -0.05400765 0.04577837 -0.027951302 0.039913356 -0.056362245
0.03743323 -0.26784933 0.013947958 0.0016057272 0.016166264 -0.0650453 -0.14333759 0.064602315
0.060239308 -0.070863314 0.03413759 -0.1707325 0.07547364 0.093642905 0.09384756 0.092630215
-0.12280486 -0.203684 0.1129051 0.0010495988 -0.009228106 0.17667425 0.061121687 -0.08961467
-0.10853558 0.066976205 0.029650915 -0.096641265 0.23665588 -0.08358114 -0.05010353 -0.26175696
-0.13028552 -0.00014956223 -0.123052835 0.101168424 0.096725844 -0.052516196 0.043773875 0.041011218
-0.06383622 -0.10310058 -0.04679554 0.1802739 0.029724343 0.24415116 0.036412213 0.18467838
-0.121774495 0.08277401 -0.09981408 -0.09018794 0.10557005 0.0025331907 0.068441056 0.052335545
-0.038256716 -0.10162854 0.037374567 -0.016452737 -0.15693057 0.071451716 -0.04220554 0.009890253
-0.08704457 -0.079421125 -0.019892344 0.10730636 0.13660668 0.0176297 -0.007106496 -0.03626778
-0.06642782 -0.032847412 -0.043555323 0.10677983 0.08064225 0.049771294 -0.005756103 0.054537617
0.09970081 -0.025581708 -0.0010126252 -0.097132936 0.17767762 0.12020051 0.13305886 -0.09932408
0.03340474 0.0984081 -0.07688689 0.25868586 -0.15220909 0.012014468 -0.12790161 -0.039395172
0.09275476 0.05356277 0.19588824 0.047989625 0.039810047 0.08861553 0.01337753 0.030105982
-0.17143106 0.06817315 0.07273579 0.1378339 0.041175686 0.094984554 -0.03943209 -0.20414408
0.035276923 -0.7639683 -0.016989237 0.10531853 -0.008186323 -0.12920325 0.09862997 -0.10962864
-0.21001948 0.10282798 0.0052106385 -0.0019115648 -0.00094797177 -0.01027288 0.062110465 0.04030332
00000000: 98fd 6d3c d8ff 383d a945 bf3d 6a8c 0a3e
00000010: 4087 a7bd 638d 72bd 8480 e7bd 6174 cabd
00000020: 1d5a 8f3d dc88 dd3b f369 05be 1dc8 133d
00000030: b612 063e 6417 513e 58df 0b3d 9aeb f23c
00000040: 3666 4f3d c175 66bd 5b89 6ebd 56b1 b63d
00000050: 159c a73d 3fb1 013e b76a 153d 7ef7 b9bd
00000060: 270b d4bc 3238 e0bd 22a7 6b3d 1312 c7bb
00000070: ef41 bcbd 262c d9bd 2514 3e3d bd83 a23d
00000080: cafc bc3d 6808 6a3c 899f d2bd cfa0 babd
00000090: 85c7 2c3c 0c86 013d 94f7 64bd d440 3bbd
000000a0: 1bba 053e 9c23 dabb f340 593d ef5c e9bd
000000b0: 9833 143d a1ff 6a3d e354 f7bb 52d9 383e
000000c0: f7d8 bcbd d3fa 043f 2702 69bc 7d3c 98bd
000000d0: 3e11 113d e852 e63d c898 27bd 4db1 0abd
000000e0: 3921 e33d 26b7 98bd 0230 09be 405b 94bd
000000f0: b45e adbd 4f9e da3c 74ed 31be 52e1 85bd
00000100: d96b 8bbd b30e 783d 3c4c 53bb 5c51 6dbd
00000110: deb4 9dbd eccd dabd e341 92bd 7bd9 503d
00000120: 7390 763b 1611 d2bd 2ae6 0e3d 3b5e 50bc
00000130: f4c2 553d 695b 34be 04eb 35be ac53 f73d
00000140: e0fb fd3d 0804 c33d 3807 b23d dc73 c8bc
00000150: a179 b7bd d292 693c d688 abbc dbf9 18be
00000160: b163 c93d 1b35 983d b6a7 1a3e 62a7 a7bd
00000170: 1e9b 08be 187d ba3d 7157 943d c7d7 a4bd
00000180: 67d3 f23b 5abb 8cbd f622 4ebd 85a3 c53d
00000190: aad2 d13c e9c4 203d 31d1 d4bd 2358 6f3d
000001a0: 0382 193e 2b1e 84bd 1461 4d3d 21cb 2e3e
000001b0: 80f6 13be 43a1 a5bd 723b e6ba 8ff5 293b
000001c0: e981 b4be 4459 9b3d cbb9 763d 2d54 fabd
000001d0: 8503 00be c5ab dcbd 4373 f8bd f1a1 e4bb
000001e0: 45a3 0c3d 6c4c 383e 5c82 233c 2037 5dbd
000001f0: 1a82 3b3d 21fa e4bc 307c 233d 19dc 66bd
00000200: 9653 193d 8c23 89be fa85 643c 4477 d23a
00000210: 1d6f 843c 7836 85bd 17c7 12be 384e 843d
00000220: 7ebd 763d c920 91bd dcd3 0b3d 80d4 2ebe
00000230: ec91 9a3d dac7 bf3d 2633 c03d e9b4 bd3d
00000240: 1d81 fbbd 8a92 50be ca3a e73d b192 893a
00000250: 7b31 17bc 18ea 343e bc5a 7a3d e587 b7bd
00000260: e747 debd d22a 893d 7ae6 f23c dbeb c5bd
00000270: eb55 723e 972c abbd 5c39 4dbd 0205 86be
00000280: 9169 05be ced3 1cb9 2003 fcbd 6431 cf3d
00000290: 3318 c63d 391b 57bd 3c4c 333d 61fb 273d
000002a0: 90bc 82bd 6626 d3bd aeac 3fbd b999 383e
000002b0: 7780 f33c c302 7a3e f924 153d 541c 3d3e
000002c0: e864 f9bd 6c85 a93d 536b ccbd 74b4 b8bd
000002d0: 1c35 d83d e303 263b d32a 8c3d cc5d 563d
000002e0: 13b3 1cbd a022 d0bd 1316 193d e4c7 86bc
000002f0: 68b2 20be 4755 923d b7df 2cbd ba0a 223c
00000300: 6c44 b2bd 8ba7 a2bd 45f5 a2bc 70c3 db3d
00000310: 9fe2 0b3e 296c 903c 9cdd e8bb 868d 14bd
00000320: 4f0b 88bd 028b 06bd 1167 32bd 62af da3d
00000330: c427 a53d fcdc 4b3d b19d bcbb d662 5f3d
00000340: f02f cc3d bb90 d1bc 10ba 84ba a2ed c6bd
00000350: 1ff1 353e af2b f63d 9540 083e 6c6a cbbd
00000360: 69d3 083d 308a c93d e076 9dbd 7972 843e
00000370: b3dc 1bbe 55d8 443c a4f8 02be d55c 21bd
00000380: 35f6 bd3d a364 5b3d ed96 483e c590 443d
00000390: dc0f 233d 0f7c b53d 6d2d 5b3c d2a0 f63c
000003a0: a08b 2fbe 5d9e 8b3d 80f6 943d 5424 0d3e
000003b0: d6a7 283d 4387 c23d 8b83 21bd 250b 51be
000003c0: 897e 103d 6d93 43bf 032d 8bbc 3eb1 d73d
000003d0: ed1f 06bc db4d 04be 82fe c93d fb84 e0bd
000003e0: 590f 57be 7a97 d23d 01be aa3b 798d faba
000003f0: 4f81 78ba 954f 28bc 8b67 7e3d 1815 253d

msg_net.4.bias f4 [11]
0.099245735 -0.008375206 0.07159245 -0.0017616726 0.0020160424 -0.019735843 -0.05443593 0.085925765
0.035330012 0.038296927 0.04215557
00000000: 5941 cb3d 2938 09bc 109f 923d ece7 e6ba
00000010: 941f 043b 10ad a1bc 36f8 5ebd d9f9 af3d
00000020: 34b6 103d 3ddd 1c3d 52ab 2c3d

gru_net.weight_ih f4 [30, 20]
-0.0028748827 -0.5954587 -0.58920294 0.6632182 0.6594448 -0.2852228 0.27243897 -0.06152546
0.3145756 -0.11766407 0.541962 0.022999618 0.093287565 0.09673284 -0.80314857 0.29576248
0.20983106 0.12067263 -0.11088527 -0.06790348 0.7466562 -0.032740485 0.31951725 0.7562167
-0.47004473 -0.43060786 -0.06962788 -0.23996349 -0.9398764 0.26008227 0.1510396 0.3412937
-0.3661399 -0.0073519293 -0.3422103 -0.002292139 0.3955413 -0.11619012 0.49170274 0.20893314
0.5516961 -0.6529067 0.38596666 -0.46535468 0.6358409 0.087164715 -0.44480035 -0.42520824
-0.0587925 -0.3102394 0.22501437 0.34655622 -0.10976236 0.2063899 -0.3031601 -0.018652042
0.16279879 0.15552954 -0.4514317 -0.15165785 -0.630621 -0.81819767 0.57615 0.9291035
0.2810348 0.49598858 -0.37327823 -1.1921457 0.600508 0.30642602 0.3456911 0.3493295
0.4957847 0.05048006 0.3605636 0.65754753 0.17655264 0.2698965 0.25042036 -0.18919325
0.308581 0.4769733 -0.48710573 1.1793183 -0.17199923 -0.38856572 -0.594366 0.011402306
0.38062155 -0.097864784 -0.08609687 0.050774466 0.008080793 -0.35938907 -0.11869042 -0.24167502
-0.48697516 0.090208404 -0.040615637 0.224094 -0.5404582 0.711061 0.4470185 0.7587688
0.083023295 0.6952283 -0.17162271 -1.0343518 -0.25949115 -0.3155345 -0.27404034 0.418309
0.09338614 -0.2605936 0.6877196 0.011182181 -0.011071855 0.10066389 0.19651394 0.29283455
0.8127011 -0.17646389 0.8078289 -0.11490369 -0.56098956 -1.3052223 0.40374985 0.9303592
0.68903637 -0.12449869 -0.23770294 0.28732917 0.35117733 0.08684084 0.13892843 0.3897666
0.16730973 -0.24794732 -0.24286933 -0.39128575 0.85413873 -0.02909488 -0.33600438 0.5650541
-0.5597359 0.9407923 -0.16190341 1.0178255 -0.94409156 0.040241938 0.30148178 -0.29940158
-0.33675042 0.020539757 -0.09350619 -0.17523885 0.3278962 0.057903346 0.3105132 0.47303933
-0.7765743 0.35780928 0.5805232 -0.3674486 -0.1594516 0.29952765 -0.3855653 0.47211066
0.21753658 0.006567797 0.5354323 -0.31866834 0.31715837 0.15975215 -0.5975468 0.3613644
-0.03699157 0.09330674 0.4402032 0.0443513 0.2565047 -0.04917423 0.14303277 0.83156973
-0.7639567 0.16110106 0.29686716 -0.65598786 0.36242092 -0.045975886 -0.63118213 0.11558282
0.32018623 -0.08452052 0.44979885 -0.4100534 0.13143001 -0.16145803 -0.15555741 0.009078389
-0.40371287 -0.4232561 0.032573286 -0.0097698895 -0.05606415 -3.6906567e-06 -0.19416757 -0.53647864
-0.030082095 -0.19235127 0.35235468 0.14140984 0.31461486 -0.56649405 -0.10182953 0.22463529
-0.43137923 -0.22959979 0.25729644 -0.39883977 -0.4014479 -0.025869273 0.11963065 -0.39273524
0.050023675 0.012308817 0.5150949 -0.89271873 -0.14917673 -0.35558286 0.71714413 0.047007892
0.13260935 -0.1997688 0.3189923 -0.18268825 -0.06506336 -0.595313 0.20628132 -0.35232645
-0.23499207 0.07491498 0.116935655 -0.6613927 -0.0034887043 0.07979965 -0.65582675 0.1505115
-0.09507411 -0.38557902 0.29913524 -0.37490425 0.14242661 -0.47889227 -0.45803204 -0.120145336
00000000: 8768 3cbb fb6f 18bf 01d6 16bf abc8 293f
00000010: 60d1 283f b908 92be 1f7d 8b3e 1f02 7cbd
00000020: 0e10 a13e dcf9 f0bd 06be 0a3f b269 bc3c
00000030: 8d0d bf3d de1b c63d 259b 4dbf 2e6e 973e
00000040: f4dd 563e 3623 f73d d117 e3bd fb10 8bbd
00000050: dc24 3f3f e31a 06bd c497 a33e 6b97 413f
00000060: b4a9 f0be a278 dcbe 1099 8ebd fdb8 75be
00000070: bd9b 70bf 8129 853e 20aa 1a3e 0cbe ae3e
00000080: b076 bbbe 74e8 f0bb 3036 afbe b637 16bb
00000090: 6484 ca3e 16f5 edbd 76c0 fb3e 92f2 553e
000000a0: f53b 0d3f e524 27bf 6c9d c53e f842 eebe
000000b0: 78c6 223f 6a83 b23d dfbc e3be e5b4 d9be
000000c0: 68d0 70bd b3d7 9ebe 2b6a 663e d16f b13e
000000d0: 17cb e0bd e057 533e cd37 9bbe 2bcc 98bc
000000e0: bab4 263e 2343 1f3e 0e22 e7be 324c 1bbe
000000f0: 6170 21bf 6775 51bf 917e 133f bad9 6d3f
00000100: cbe3 8f3e 37f2 fd3e 531e bfbe 3b98 98bf
00000110: e4ba 193f dfe3 9c3e 6dfe b03e 51db b23e
00000120: 7ed7 fd3e 2ec4 4e3d cb9b b83e 0955 283f
00000130: 37ca 343e e02f 8a3e 1937 803e e0bb 41be
00000140: 54fe 9d3e d835 f43e ec65 f9be e7f3 963f
00000150: 9120 30be 16f2 c6be 5f28 18bf bdd0 3a3c
00000160: d4e0 c23e 556d c8bd 8e53 b0bd e3f8 4f3d
00000170: 4d65 043c d801 b8be f713 f3bd a879 77be
00000180: cf54 f9be 2fbf b83d 955c 26bd e678 653e
00000190: 785b 0abf 1808 363f 9cdf e43e ac3e 423f
000001a0: 1e08 aa3d 7bfa 313f ddbd 2fbe a465 84bf
000001b0: 06dc 84be bd8d a1be 044f 8cbe 992c d63e
000001c0: 3c41 bf3d 866c 85be 640e 303f 7735 373c
000001d0: ba66 35bc df28 ce3d f33a 493e 69ee 953e
000001e0: 2e0d 503f f3b2 34be e0cd 4e3f a052 ebbd
000001f0: 039d 0fbf 8611 a7bf 4db8 ce3e 052c 6e3f
00000200: b064 303f 2bf9 febd 6668 73be cf1c 933e
00000210: 84cd b33e 9cd9 b13d 4143 0e3e 7d8f c73e
00000220: 3e53 2b3e e7e5 7dbe bdb2 78be 9b56 c8be
00000230: d6a8 5a3f 6358 eebc c408 acbe 63a7 103f
00000240: da4a 0fbf c4d7 703f 02ca 25be 1b48 823f
00000250: fcaf 71bf bbd4 243d d25b 9a3e 2a4b 99be
00000260: 8d6a acbe fe42 a83c 2c80 bfbd d071 33be
00000270: 03e2 a73e 0f2c 6d3d 96fb 9e3e 3632 f23e
00000280: 93cd 46bf c732 b73e 2b9d 143f 3922 bcbe
00000290: 4847 23be b05b 993e d168 c5be 7db8 f13e
000002a0: e9c1 5e3e ad36 d73b 1712 093f 7f28 a3be
000002b0: 9562 a23e 1196 233e d4f8 18bf c104 b93e
000002c0: 7984 17bd 9b17 bf3d 5062 e13e b5a9 353d
000002d0: 9654 833e eb6a 49bd 2f77 123e c1e1 543f
000002e0: ab92 43bf adf7 243e f9fe 973e d2ee 27bf
000002f0: 3c8f b93e 3651 3cbd 2795 21bf afb6 ec3d
00000300: 73ef a33e 1819 adbd 094c e63e 85f2 d1be
00000310: 9795 063e 4155 25be 714a 1fbe 86bd 143c
00000320: 74b3 cebe 06b5 d8be 916b 053d e311 20bc
00000330: 86a3 65bd 00ad 77b6 ddd3 46be aa56 09bf
00000340: ba6e f6bc bbf7 44be d567 b43e becd 103e
00000350: 3315 a13e c105 11bf 008c d0bd cb06 663e
00000360: bddd dcbe 351c 6bbe 5cbc 833e ba34 ccbe
00000370: 948a cdbe cceb d3bc ea00 f53d 9814 c9be
00000380: a0e5 4c3d ecaa 493c 42dd 033f 3789 64bf
00000390: c9c1 18be f50e b6be c296 373f 598b 403d
000003a0: bfca 073e 3190 4cbe f552 a33e a112 3bbe
000003b0: f03f 85bd 6f66 18bf 693b 533e 2264 b4be
000003c0: c3a1 70be 066d 993d f67b ef3d 0851 29bf
000003d0: bfa2 64bb 006e a33d 43e4 27bf b01f 1a3e
000003e0: 37b6 c2bd 9d6a c5be 4128 993e 73f3 bfbe
000003f0: 48d8 113e 5e31 f5be 2d83 eabe c20e f6bd

gru_net.weight_hh f4 [30, 10]
0.15751466 -0.21563719 0.011225465 -0.13406691 0.41973191 0.017648691 0.13958484 -0.16198657
0.34171414 0.35848936 0.15043609 -0.053752895 0.03216337 -0.07646943 -0.055533238 -0.07118278
-0.07203289 0.07113417 0.018851576 -0.28695178 -0.19791369 -0.4226991 -0.1579609 0.09030804
-0.13190126 0.21387403 0.5302473 0.009865583 -0.005317021 0.19070071 0.25651368 0.26288426
-0.44197422 0.067758314 0.031151704 -0.020456461 0.015637772 0.055473644 -0.04272956 0.15391727
0.090913825 0.25516796 -0.076502636 -0.25537726 -0.33061078 -0.3897209 0.1768372 -0.32748926
-0.15066206 -0.064773075 -0.3143609 0.045922663 -0.19615625 0.26223508 -0.46124384 0.24222617
-0.07655491 0.114886835 -0.24269567 -0.18469343 -0.06671564 0.25976887 -0.18857223 -0.06022781
-0.0122836195 0.15694338 0.022881702 -0.25539798 0.11301654 0.10093655 0.30495763 0.078885905
-0.11438849 -0.28751472 -0.19552034 -0.022921078 -0.13808672 -0.40822238 -0.049668327 -0.0542645
0.43297288 0.12689587 0.33685833 -0.17433962 0.3579976 0.28211975 0.29255605 -0.23537298
-0.07172816 0.33929905 -0.25444403 0.27733794 0.066519715 0.25389743 -0.29642642 -0.11799312
-0.07940119 -0.19534734 -0.18838003 -0.010971484 0.30612916 -0.7471545 -0.2743776 0.24862891
0.3562722 -0.8232114 0.112931855 -0.03169847 0.41380814 -0.15051131 -0.17809513 -0.45122224
-0.31280434 0.27980047 0.017175684 0.11424586 0.25700527 0.19440205 0.005798556 0.24365118
-0.2714364 -0.12736997 -0.16863762 -0.015003302 0.29784423 -0.38942727 -0.09203229 -0.15011697
-0.38944966 0.2075037 0.01024838 0.08733073 -0.15827107 0.16697067 -0.1306223 -0.049907364
0.25496048 0.13965318 -0.06334702 0.2470309 -0.11541586 0.67980784 -0.5754228 -0.48299733
0.4642429 -0.22052021 0.7426345 0.026993487 -0.60665894 0.4113065 -0.11989596 0.1406899
0.17717063 0.38842046 0.23067209 -0.32133108 -0.05463086 0.030268703 -0.093346 0.24146307
0.40792426 -0.3981947 -0.77126646 0.2916125 -0.030575078 -0.62660426 -0.4521757 -0.31188533
0.51992756 -0.33844337 0.2654548 -0.26575804 -0.31149852 0.683942 0.10957832 -0.7952866
-0.37925372 -0.14385138 -0.13313758 -0.6643053 0.26577038 0.32519373 0.19522737 -0.25162134
0.31132397 -0.05213642 0.13118953 -0.3298837 0.015012959 0.18746 0.21282004 -0.5946309
0.13911122 0.3948591 -0.39389667 -0.89514816 -0.2674084 0.6242693 0.52130175 -0.5408694
-0.17854582 -0.049079474 0.18998852 -0.095974684 0.28380674 0.45539737 0.09230302 -0.21876298
0.18973918 0.34508628 -0.2718901 0.54565734 -0.3499491 0.21571788 0.10977733 0.2126552
0.20025395 -0.20111674 0.056779735 0.60868603 0.30234206 -0.33625352 -0.06964293 0.29984778
0.26672336 -0.21997228 -0.01929471 -0.25796 0.22995807 -0.027971333 -0.09126766 0.21195653
-0.033923592 0.07940928 0.3287461 0.2264319 -0.08868717 -0.271448 0.22168082 -0.023967156
-0.011920333 0.25299796 -0.06932223 -0.28506374 0.1832565 -0.10634988 -0.119029224 -0.1014378
0.21329275 0.06446206 -0.15711632 0.016265664 0.1637288 -0.15904331 -0.5406319 0.1524474
00000000: 864b 213e ffcf 5cbe 03eb 373c d648 09be
00000010: 1ae7 d63e fd93 903c 54ef 0e3e cfdf 25be
00000020: 28f5 ae3e eb8b b73e eb0b 1a3e ff2b 5cbd
00000030: bdbd 033d 019c 9cbd d276 63bd 47c8 91bd
00000040: fb85 93bd cbae 913d 9f6e 9a3c 58eb 92be
00000050: e3a9 4abe 046c d8be 81c0 21be 6cf3 b83d
00000060: 2011 07be cb01 5b3e 49be 073f 41a3 213c
00000070: 683a aebb 0c47 433e c355 833e c498 863e
00000080: 724a e2be dfc4 8a3d dc31 ff3c 4f94 a7bc
00000090: c91a 803c 5538 633d 3105 2fbd 7d9c 1d3e
000000a0: 0731 ba3d 60a5 823e 6aad 9cbd cfc0 82be
000000b0: d145 a9be 7f89 c7be d014 353e acac a7be
000000c0: 2847 1abe bfa7 84bd e9f3 a0be 6719 3c3d
000000d0: 2fdd 48be ad43 863e 2728 ecbe 230a 783e
000000e0: d2c8 9cbd ca49 eb3d 3785 78be 4620 3dbe
000000f0: 36a2 88bd 6d00 853e 1419 41be 70b1 76bd
00000100: 3c41 49bc c4b5 203e 6872 bb3c 86c3 82be
00000110: 3775 e73d d2b7 ce3d 6823 9c3e ef8e a13d
00000120: 8344 eabd 2135 93be 7c36 48be fcc4 bbbc
00000130: 9b66 0dbe 8602 d1be 0471 4bbd 7444 5ebd
00000140: 9fae dd3e fef0 013e b278 ac3e 1686 32be
00000150: 764b b73e 0072 903e e8c9 953e 9d05 71be
00000160: 37e6 92bd 9bb8 ad3e 7d46 82be 3dff 8d3e
00000170: 7d3b 883d d8fe 813e 34c5 97be 60a6 f1bd
00000180: 179d a2bd 2209 48be b2e6 40be bdc1 33bc
00000190: f6bc 9c3e 8445 3fbf 397b 8cbe 9498 7e3e
000001a0: 4f69 b63e fbbd 52bf d148 e73d 41d6 01bd
000001b0: a9de d33e a31f 1abe 925e 36be 9a06 e7be
000001c0: e427 a0be 0242 8f3e 05b4 8c3c bcf9 e93d
000001d0: 3296 833e 5511 473e d001 be3b b27f 793e
000001e0: b6f9 8abe 466d 02be 57af 2cbe 69d0 75bc
000001f0: 0a7f 983e 0363 c7be 6d7b bcbd 43b8 19be
00000200: f265 c7be da7b 543e d2e8 273c 74da b23d
00000210: d011 22be 5cfa 2a3e dac1 05be aa6b 4cbd
00000220: 2e8a 823e 3e01 0f3e 15bc 81bd abf5 7c3e
00000230: 275f ecbd e307 2e3f e94e 13bf 6d4b f7be
00000240: 3fb1 ed3e 0dd0 61be 4b1d 3e3f 7221 dd3c
00000250: 004e 1bbf c496 d23e 038c f5bd 0311 103e
00000260: 386c 353e 0cdf c63e 4e35 6c3e 8285 a4be
00000270: 9cc4 5fbd 12f6 f73c 302c bfbd 1842 773e
00000280: 73db d03e 2de0 cbbe b871 45bf 3c4e 953e
00000290: 9678 fabc 2369 20bf 9383 e7be 6faf 9fbe
000002a0: f919 053f 7348 adbe b1e9 873e 7011 88be
000002b0: bc7c 9fbe d316 2f3f 996a e03d e797 4bbf
000002c0: 8b2d c2be c74d 13be 3855 08be ea0f 2abf
000002d0: 0e13 883e cb7f a63e afe9 473e 83d4 80be
000002e0: db65 9f3e 008d 55bd 8c56 063e 84e6 a8be
000002f0: eaf8 753c 84f5 3f3e 7fed 593e bb39 18bf
00000300: 2c73 0e3e f92a ca3e d3ac c9be 6e28 65bf
00000310: c1e9 88be 1dd0 1f3f 0874 053f 6b76 0abf
00000320: b7d4 36be 8f07 49bd 5a8c 423e 608e c4bd
00000330: 1e4f 913e d829 e93e 5e09 bd3d 6703 60be
00000340: fd4a 423e 26af b03e 2e35 8bbe 33b0 0b3f
00000350: 872c b3be 26e5 5c3e f0d2 e03d 49c2 593e
00000360: 5f0f 4d3e 8cf1 4dbe de91 683d d9d2 1b3f
00000370: 94cc 9a3e 6c29 acbe f4a0 8ebd a685 993e
00000380: f78f 883e 6a40 61be f10f 9ebc 5513 84be
00000390: 217a 6b3e 2324 e5bc 8aea babd 220b 593e
000003a0: 77f3 0abd 55a1 a23d 6951 a83e c4dd 673e
000003b0: 9ea1 b5bd 3bfb 8abe 4c00 633e c556 c4bc
000003c0: 804d 43bc f388 813e d0f8 8dbd e0f3 91be
000003d0: 98a7 3b3e f7cd d9bd 98c5 f3bd 9fbe cfbd
000003e0: 6a69 5a3e af04 843d 1ae3 20be 923f 853c
000003f0: 86a8 273e 40dc 22be da66 0abf 2c1b 1c3e

gru_net.bias_ih f4 [30]
-0.044784293 0.38990262 0.3001419 0.07963341 -0.05875593 -0.073865294 0.09598808 -0.10618326
-0.014703932 0.02748892 -0.2436013 -0.1961036 -0.62329733 -0.36190936 -0.25964782 -0.6360329
-0.18677795 -0.19600186 -0.60976565 -0.052608937 0.13302459 0.14069977 0.025588378 0.27434087
0.03774274 0.27982432 -0.29067972 -0.11610708 0.037378125 -0.27825007
00000000: bc6f 37bd 51a1 c73e 33ac 993e d716 a33d
00000010: 0faa 70bd b046 97bd 6695 c43d 9c76 d9bd
00000020: c3e8 70bc 7230 e13c 9f72 79be 62cf 48be
00000030: 6a90 1fbf 2f4c b9be 8ff0 84be 0dd3 22bf
00000040: b842 3fbe b6b4 48be 9a19 1cbf 787c 57bd
00000050: 9937 083e 9a13 103e b89e d13c 6876 8c3e
00000060: 2298 1a3d 2245 8f3e f9d3 94be 8cc9 edbd
00000070: ce19 193d cb76 8ebe

gru_net.bias_hh f4 [30]
-0.15238175 0.08770741 -0.047630552 -0.13393484 -0.055285323 0.057990428 0.21580079 -0.2156459
-0.13997452 -0.03458992 -0.29477918 -0.09413383 -0.3446489 -0.6643196 -0.3756158 -0.13276352
-0.5564234 -0.19235763 -0.57077026 0.045616217 0.27222198 -0.3860441 0.1164554 -0.42462713
-0.23975377 0.28173697 -0.4215216 0.18925077 -0.14222138 -0.42099714
00000000: f609 1cbe f19f b33d 4118 43bd 3726 09be
00000010: dd72 62bd 5f87 6d3d e2fa 5c3e 47d2 5cbe
00000020: 7b55 0fbe 29ae 0dbd 4ced 96be 3dc9 c0bd
00000030: d275 b0be d910 2abf b750 c0be 29f3 07be
00000040: c471 0ebf 66f9 44be 001e 12bf 12d8 3a3d
00000050: ae60 8b3e 93a7 c5be 2b80 ee3d ba68 d9be
00000060: 0382 75be d43f 903e aed1 d7be f4ca 413e
00000070: 7ba2 11be f08c d7be

output_net.weight f4 [9, 10]
1.6427588 -2.40922 1.6413711 1.1410996 -1.5020877 -1.2142508 -1.1557207 1.6123596
0.99420094 -0.5167986 -1.4754881 0.37677604 0.69874084 1.5200675 -1.2279799 1.4439546
1.9493623 -1.4984697 -1.2938083 -0.924311 -1.0034919 -1.4560053 0.12753798 -1.4831035
2.3501768 2.0111933 -1.7525835 0.8884073 -1.9311581 -1.019034 -0.028228736 -0.07840225
-2.0768695 -1.481718 -1.7981651 1.7205611 0.44998732 1.8872477 2.3427072 -0.7122902
1.5430893 0.46308643 1.592901 -1.1558635 1.439138 1.4196597 1.417111 -1.4117615
1.1983345 1.832168 -1.2407551 0.4790171 -0.84862196 -1.886234 0.4412362 -2.1501806
1.6922102 1.5203226 -1.6603063 1.2130225 1.2597905 -0.80217075 -2.120628 1.6837156
2.0418007 -1.6037027 0.36121848 -0.04117592 0.7279581 -1.7459878 -1.7470746 2.0947132
0.86613154 1.6734958 1.0133401 -0.81714886 -1.8437471 1.0982139 0.6667988 1.7605933
1.4318234 1.9864253 -0.1477479 -1.7910817 -1.1962367 -1.4888313 -2.1390252 -1.5699455
-1.1702629 -1.0331821
00000000: ec45 d23f a930 1ac0 7318 d23f 8d0f 923f
00000010: 6944 c0bf 926c 9bbf a8ee 93bf cd61 ce3f
00000020: f483 7e3f ea4c 04bf cbdc bcbf cae8 c03e
00000030: aee0 323f 9291 c23f 722e 9dbf 81d3 b83f
00000040: b484 f93f dbcd bfbf 839b a5bf a59f 6cbf
00000050: 6c72 80bf 625e babf 5199 023e 56d6 bdbf
00000060: 4c69 1640 64b7 0040 a854 e0bf a96e 633f
00000070: 3030 f7bf b56f 82bf f33f e7bc 5c91 a0bd
00000080: 6eeb 04c0 efa8 bdbf 462a e6bf 593b dc3f
00000090: bd64 e63e 5591 f13f eaee 1540 a758 36bf
000000a0: f383 c53f aa19 ed3e 2ee4 cb3f 56f3 93bf
000000b0: ad35 b83f 69b7 b53f e563 b53f 9ab4 b4bf
000000c0: 0663 993f 7b84 ea3f 10d1 9ebf bb41 f53e
000000d0: 4a3f 59bf 1e70 f1bf b6e9 e13e 8f9c 09c0
000000e0: 589a d83f ee99 c23f eb84 d4bf 5244 9b3f
000000f0: d140 a13f 105b 4dbf 5fb8 07c0 fe83 d73f
00000100: ddac 0240 2146 cdbf a1f1 b83e 15a8 28bd
00000110: 765b 3a3f 877c dfbf 24a0 dfbf c80f 0640
00000120: ccba 5d3f 1c35 d63f 21b5 813f ab30 51bf
00000130: e8ff ebbf 4692 8c3f 53b3 2a3f 1f5b e13f
00000140: fd45 b73f 2f43 fe3f 3a4b 17be 2a42 e5bf
00000150: 491e 99bf 0692 bebf cae5 08c0 f9f3 c8bf
00000160: 2dcb 95bf 503f 84bf

output_net.bias f4 [9]
-0.44652206 0.3666822 -0.17519939 -0.2920925 0.49291286 -0.2612795 0.2101215 0.09372964
-0.2199743
00000000: 8a9e e4be c5bd bb3e 7867 33be 268d 95be
00000010: 135f fc3e 6dc6 85be 172a 573e 53f5 bf3d
00000020: f140 61be
